#loc = loc("/home/Shuai/AIAA3201_Project/AIAA-3102-Proj_3/.tmp/torchinductor_Shuai/eo/ceo2usawqqn6ovhxktpxpe2hzhamb2li2fce63gr3a2uuv2sf6do.py":22:0)
#loc25 = loc("in_out_ptr0"(#loc))
#loc26 = loc("in_ptr0"(#loc))
#loc27 = loc("xnumel"(#loc))
module {
  tt.func public @triton_(%in_out_ptr0: !tt.ptr<bf16> {tt.divisibility = 16 : i32} loc("in_out_ptr0"(#loc)), %in_ptr0: !tt.ptr<f32> {tt.divisibility = 16 : i32} loc("in_ptr0"(#loc)), %xnumel: i32 {tt.divisibility = 16 : i32} loc("xnumel"(#loc))) attributes {noinline = false} {
    %xnumel_0 = arith.constant 4194304 : i32 loc(#loc28)
    %xoffset = tt.get_program_id x : i32 loc(#loc29)
    %xoffset_1 = arith.constant 1024 : i32 loc(#loc30)
    %xoffset_2 = arith.constant 1024 : i32 loc(#loc30)
    %xoffset_3 = arith.muli %xoffset, %xoffset_2 : i32 loc(#loc30)
    %xindex = tt.make_range {end = 1024 : i32, start = 0 : i32} : tensor<1024xi32> loc(#loc31)
    %xindex_4 = tt.splat %xoffset_3 : i32 -> tensor<1024xi32> loc(#loc32)
    %xindex_5 = arith.addi %xindex_4, %xindex : tensor<1024xi32> loc(#loc32)
    %xmask = arith.constant true loc(#loc33)
    %xmask_6 = arith.constant dense<true> : tensor<1024xi1> loc(#loc33)
    %x0 = arith.constant 1024 : i32 loc(#loc34)
    %x0_7 = arith.constant 1024 : i32 loc(#loc34)
    %x0_8 = arith.constant dense<1024> : tensor<1024xi32> loc(#loc34)
    %x0_9 = arith.remsi %xindex_5, %x0_8 : tensor<1024xi32> loc(#loc34)
    %tmp0 = tt.splat %in_out_ptr0 : !tt.ptr<bf16> -> tensor<1024x!tt.ptr<bf16>> loc(#loc35)
    %tmp0_10 = tt.addptr %tmp0, %xindex_5 : tensor<1024x!tt.ptr<bf16>>, tensor<1024xi32> loc(#loc35)
    %tmp0_11 = tt.load %tmp0_10 : tensor<1024x!tt.ptr<bf16>> loc(#loc36)
    %tmp0_12 = arith.extf %tmp0_11 : tensor<1024xbf16> to tensor<1024xf32> loc(#loc37)
    %tmp1 = tt.splat %in_ptr0 : !tt.ptr<f32> -> tensor<1024x!tt.ptr<f32>> loc(#loc38)
    %tmp1_13 = tt.addptr %tmp1, %x0_9 : tensor<1024x!tt.ptr<f32>>, tensor<1024xi32> loc(#loc38)
    %tmp1_14 = tt.load %tmp1_13 evictionPolicy = evict_last : tensor<1024x!tt.ptr<f32>> loc(#loc39)
    %tmp3 = arith.addf %tmp0_12, %tmp1_14 : tensor<1024xf32> loc(#loc40)
    %tmp5 = arith.constant 5.000000e-01 : f32 loc(#loc41)
    %tmp5_15 = arith.constant dense<5.000000e-01> : tensor<1xf32> loc(#loc41)
    %tmp6 = arith.constant dense<5.000000e-01> : tensor<1024xf32> loc(#loc42)
    %tmp6_16 = arith.mulf %tmp3, %tmp6 : tensor<1024xf32> loc(#loc42)
    %tmp7 = arith.constant 0.707106769 : f32 loc(#loc43)
    %tmp7_17 = arith.constant dense<0.707106769> : tensor<1xf32> loc(#loc43)
    %tmp8 = arith.constant dense<0.707106769> : tensor<1024xf32> loc(#loc44)
    %tmp8_18 = arith.mulf %tmp3, %tmp8 : tensor<1024xf32> loc(#loc44)
    %tmp9 = tt.extern_elementwise %tmp8_18 {libname = "", libpath = "", pure = true, symbol = "__nv_erff"} : (tensor<1024xf32>) -> tensor<1024xf32> loc(#loc45)
    %tmp10 = arith.constant 1.000000e+00 : f32 loc(#loc46)
    %tmp10_19 = arith.constant dense<1.000000e+00> : tensor<1xf32> loc(#loc46)
    %tmp11 = arith.constant dense<1.000000e+00> : tensor<1024xf32> loc(#loc47)
    %tmp11_20 = arith.addf %tmp9, %tmp11 : tensor<1024xf32> loc(#loc47)
    %tmp12 = arith.mulf %tmp6_16, %tmp11_20 : tensor<1024xf32> loc(#loc48)
    %0 = tt.splat %in_out_ptr0 : !tt.ptr<bf16> -> tensor<1024x!tt.ptr<bf16>> loc(#loc22)
    %1 = tt.addptr %0, %xindex_5 : tensor<1024x!tt.ptr<bf16>>, tensor<1024xi32> loc(#loc22)
    %2 = arith.truncf %tmp12 : tensor<1024xf32> to tensor<1024xbf16> loc(#loc23)
    tt.store %1, %2 : tensor<1024x!tt.ptr<bf16>> loc(#loc23)
    tt.return loc(#loc24)
  } loc(#loc)
} loc(#loc)
#loc1 = loc("/home/Shuai/AIAA3201_Project/AIAA-3102-Proj_3/.tmp/torchinductor_Shuai/eo/ceo2usawqqn6ovhxktpxpe2hzhamb2li2fce63gr3a2uuv2sf6do.py":23:13)
#loc2 = loc("/home/Shuai/AIAA3201_Project/AIAA-3102-Proj_3/.tmp/torchinductor_Shuai/eo/ceo2usawqqn6ovhxktpxpe2hzhamb2li2fce63gr3a2uuv2sf6do.py":24:28)
#loc3 = loc("/home/Shuai/AIAA3201_Project/AIAA-3102-Proj_3/.tmp/torchinductor_Shuai/eo/ceo2usawqqn6ovhxktpxpe2hzhamb2li2fce63gr3a2uuv2sf6do.py":24:33)
#loc4 = loc("/home/Shuai/AIAA3201_Project/AIAA-3102-Proj_3/.tmp/torchinductor_Shuai/eo/ceo2usawqqn6ovhxktpxpe2hzhamb2li2fce63gr3a2uuv2sf6do.py":25:36)
#loc5 = loc("/home/Shuai/AIAA3201_Project/AIAA-3102-Proj_3/.tmp/torchinductor_Shuai/eo/ceo2usawqqn6ovhxktpxpe2hzhamb2li2fce63gr3a2uuv2sf6do.py":25:23)
#loc6 = loc("/home/Shuai/AIAA3201_Project/AIAA-3102-Proj_3/.tmp/torchinductor_Shuai/eo/ceo2usawqqn6ovhxktpxpe2hzhamb2li2fce63gr3a2uuv2sf6do.py":26:36)
#loc7 = loc("/home/Shuai/AIAA3201_Project/AIAA-3102-Proj_3/.tmp/torchinductor_Shuai/eo/ceo2usawqqn6ovhxktpxpe2hzhamb2li2fce63gr3a2uuv2sf6do.py":28:19)
#loc8 = loc("/home/Shuai/AIAA3201_Project/AIAA-3102-Proj_3/.tmp/torchinductor_Shuai/eo/ceo2usawqqn6ovhxktpxpe2hzhamb2li2fce63gr3a2uuv2sf6do.py":29:34)
#loc9 = loc("/home/Shuai/AIAA3201_Project/AIAA-3102-Proj_3/.tmp/torchinductor_Shuai/eo/ceo2usawqqn6ovhxktpxpe2hzhamb2li2fce63gr3a2uuv2sf6do.py":29:39)
#loc10 = loc("/home/Shuai/AIAA3201_Project/AIAA-3102-Proj_3/.tmp/torchinductor_Shuai/eo/ceo2usawqqn6ovhxktpxpe2hzhamb2li2fce63gr3a2uuv2sf6do.py":29:48)
#loc11 = loc("/home/Shuai/AIAA3201_Project/AIAA-3102-Proj_3/.tmp/torchinductor_Shuai/eo/ceo2usawqqn6ovhxktpxpe2hzhamb2li2fce63gr3a2uuv2sf6do.py":30:30)
#loc12 = loc("/home/Shuai/AIAA3201_Project/AIAA-3102-Proj_3/.tmp/torchinductor_Shuai/eo/ceo2usawqqn6ovhxktpxpe2hzhamb2li2fce63gr3a2uuv2sf6do.py":30:35)
#loc13 = loc("/home/Shuai/AIAA3201_Project/AIAA-3102-Proj_3/.tmp/torchinductor_Shuai/eo/ceo2usawqqn6ovhxktpxpe2hzhamb2li2fce63gr3a2uuv2sf6do.py":32:18)
#loc14 = loc("/home/Shuai/AIAA3201_Project/AIAA-3102-Proj_3/.tmp/torchinductor_Shuai/eo/ceo2usawqqn6ovhxktpxpe2hzhamb2li2fce63gr3a2uuv2sf6do.py":34:29)
#loc15 = loc("/home/Shuai/AIAA3201_Project/AIAA-3102-Proj_3/.tmp/torchinductor_Shuai/eo/ceo2usawqqn6ovhxktpxpe2hzhamb2li2fce63gr3a2uuv2sf6do.py":35:18)
#loc16 = loc("/home/Shuai/AIAA3201_Project/AIAA-3102-Proj_3/.tmp/torchinductor_Shuai/eo/ceo2usawqqn6ovhxktpxpe2hzhamb2li2fce63gr3a2uuv2sf6do.py":36:44)
#loc17 = loc("/home/Shuai/AIAA3201_Project/AIAA-3102-Proj_3/.tmp/torchinductor_Shuai/eo/ceo2usawqqn6ovhxktpxpe2hzhamb2li2fce63gr3a2uuv2sf6do.py":37:18)
#loc18 = loc("/home/Shuai/AIAA3201_Project/AIAA-3102-Proj_3/.tmp/torchinductor_Shuai/eo/ceo2usawqqn6ovhxktpxpe2hzhamb2li2fce63gr3a2uuv2sf6do.py":38:25)
#loc19 = loc("/home/Shuai/AIAA3201_Project/AIAA-3102-Proj_3/.tmp/torchinductor_Shuai/eo/ceo2usawqqn6ovhxktpxpe2hzhamb2li2fce63gr3a2uuv2sf6do.py":39:30)
#loc20 = loc("/home/Shuai/AIAA3201_Project/AIAA-3102-Proj_3/.tmp/torchinductor_Shuai/eo/ceo2usawqqn6ovhxktpxpe2hzhamb2li2fce63gr3a2uuv2sf6do.py":40:19)
#loc21 = loc("/home/Shuai/AIAA3201_Project/AIAA-3102-Proj_3/.tmp/torchinductor_Shuai/eo/ceo2usawqqn6ovhxktpxpe2hzhamb2li2fce63gr3a2uuv2sf6do.py":41:19)
#loc22 = loc("/home/Shuai/AIAA3201_Project/AIAA-3102-Proj_3/.tmp/torchinductor_Shuai/eo/ceo2usawqqn6ovhxktpxpe2hzhamb2li2fce63gr3a2uuv2sf6do.py":43:28)
#loc23 = loc("/home/Shuai/AIAA3201_Project/AIAA-3102-Proj_3/.tmp/torchinductor_Shuai/eo/ceo2usawqqn6ovhxktpxpe2hzhamb2li2fce63gr3a2uuv2sf6do.py":43:40)
#loc24 = loc("/home/Shuai/AIAA3201_Project/AIAA-3102-Proj_3/.tmp/torchinductor_Shuai/eo/ceo2usawqqn6ovhxktpxpe2hzhamb2li2fce63gr3a2uuv2sf6do.py":43:4)
#loc28 = loc("xnumel"(#loc1))
#loc29 = loc("xoffset"(#loc2))
#loc30 = loc("xoffset"(#loc3))
#loc31 = loc("xindex"(#loc4))
#loc32 = loc("xindex"(#loc5))
#loc33 = loc("xmask"(#loc6))
#loc34 = loc("x0"(#loc7))
#loc35 = loc("tmp0"(#loc8))
#loc36 = loc("tmp0"(#loc9))
#loc37 = loc("tmp0"(#loc10))
#loc38 = loc("tmp1"(#loc11))
#loc39 = loc("tmp1"(#loc12))
#loc40 = loc("tmp3"(#loc13))
#loc41 = loc("tmp5"(#loc14))
#loc42 = loc("tmp6"(#loc15))
#loc43 = loc("tmp7"(#loc16))
#loc44 = loc("tmp8"(#loc17))
#loc45 = loc("tmp9"(#loc18))
#loc46 = loc("tmp10"(#loc19))
#loc47 = loc("tmp11"(#loc20))
#loc48 = loc("tmp12"(#loc21))
