#loc = loc("/home/Shuai/AIAA3201_Project/AIAA-3102-Proj_3/.tmp/torchinductor_Shuai/il/cillfzbdbjv5z2bsb3ndhthgx7nzu5a5chpyaexsw7s5zy7377dw.py":18:0)
#loc21 = loc("in_out_ptr0"(#loc))
#loc22 = loc("xnumel"(#loc))
module {
  tt.func public @triton_poi_fused_gelu_view_34(%in_out_ptr0: !tt.ptr<bf16> {tt.divisibility = 16 : i32} loc("in_out_ptr0"(#loc)), %xnumel: i32 {tt.divisibility = 16 : i32} loc("xnumel"(#loc))) attributes {noinline = false} {
    %xnumel_0 = arith.constant 18874368 : i32 loc(#loc23)
    %xoffset = tt.get_program_id x : i32 loc(#loc24)
    %xoffset_1 = arith.constant 2048 : i32 loc(#loc25)
    %xoffset_2 = arith.constant 2048 : i32 loc(#loc25)
    %xoffset_3 = arith.muli %xoffset, %xoffset_2 : i32 loc(#loc25)
    %xindex = tt.make_range {end = 2048 : i32, start = 0 : i32} : tensor<2048xi32> loc(#loc26)
    %xindex_4 = tt.splat %xoffset_3 : i32 -> tensor<2048xi32> loc(#loc27)
    %xindex_5 = arith.addi %xindex_4, %xindex : tensor<2048xi32> loc(#loc27)
    %xmask = arith.constant true loc(#loc28)
    %xmask_6 = arith.constant dense<true> : tensor<2048xi1> loc(#loc28)
    %tmp0 = tt.splat %in_out_ptr0 : !tt.ptr<bf16> -> tensor<2048x!tt.ptr<bf16>> loc(#loc29)
    %tmp0_7 = tt.addptr %tmp0, %xindex_5 : tensor<2048x!tt.ptr<bf16>>, tensor<2048xi32> loc(#loc29)
    %tmp0_8 = tt.load %tmp0_7 : tensor<2048x!tt.ptr<bf16>> loc(#loc30)
    %tmp0_9 = arith.extf %tmp0_8 : tensor<2048xbf16> to tensor<2048xf32> loc(#loc31)
    %tmp2 = arith.constant 5.000000e-01 : f32 loc(#loc32)
    %tmp2_10 = arith.constant dense<5.000000e-01> : tensor<1xf32> loc(#loc32)
    %tmp3 = arith.constant dense<5.000000e-01> : tensor<2048xf32> loc(#loc33)
    %tmp3_11 = arith.mulf %tmp0_9, %tmp3 : tensor<2048xf32> loc(#loc33)
    %tmp4 = arith.constant 0.707106769 : f32 loc(#loc34)
    %tmp4_12 = arith.constant dense<0.707106769> : tensor<1xf32> loc(#loc34)
    %tmp5 = arith.constant dense<0.707106769> : tensor<2048xf32> loc(#loc35)
    %tmp5_13 = arith.mulf %tmp0_9, %tmp5 : tensor<2048xf32> loc(#loc35)
    %tmp6 = tt.extern_elementwise %tmp5_13 {libname = "", libpath = "", pure = true, symbol = "__nv_erff"} : (tensor<2048xf32>) -> tensor<2048xf32> loc(#loc36)
    %tmp7 = arith.constant 1.000000e+00 : f32 loc(#loc37)
    %tmp7_14 = arith.constant dense<1.000000e+00> : tensor<1xf32> loc(#loc37)
    %tmp8 = arith.constant dense<1.000000e+00> : tensor<2048xf32> loc(#loc38)
    %tmp8_15 = arith.addf %tmp6, %tmp8 : tensor<2048xf32> loc(#loc38)
    %tmp9 = arith.mulf %tmp3_11, %tmp8_15 : tensor<2048xf32> loc(#loc39)
    %0 = tt.splat %in_out_ptr0 : !tt.ptr<bf16> -> tensor<2048x!tt.ptr<bf16>> loc(#loc18)
    %1 = tt.addptr %0, %xindex_5 : tensor<2048x!tt.ptr<bf16>>, tensor<2048xi32> loc(#loc18)
    %2 = arith.truncf %tmp9 : tensor<2048xf32> to tensor<2048xbf16> loc(#loc19)
    tt.store %1, %2 : tensor<2048x!tt.ptr<bf16>> loc(#loc19)
    tt.return loc(#loc20)
  } loc(#loc)
} loc(#loc)
#loc1 = loc("/home/Shuai/AIAA3201_Project/AIAA-3102-Proj_3/.tmp/torchinductor_Shuai/il/cillfzbdbjv5z2bsb3ndhthgx7nzu5a5chpyaexsw7s5zy7377dw.py":19:13)
#loc2 = loc("/home/Shuai/AIAA3201_Project/AIAA-3102-Proj_3/.tmp/torchinductor_Shuai/il/cillfzbdbjv5z2bsb3ndhthgx7nzu5a5chpyaexsw7s5zy7377dw.py":20:28)
#loc3 = loc("/home/Shuai/AIAA3201_Project/AIAA-3102-Proj_3/.tmp/torchinductor_Shuai/il/cillfzbdbjv5z2bsb3ndhthgx7nzu5a5chpyaexsw7s5zy7377dw.py":20:33)
#loc4 = loc("/home/Shuai/AIAA3201_Project/AIAA-3102-Proj_3/.tmp/torchinductor_Shuai/il/cillfzbdbjv5z2bsb3ndhthgx7nzu5a5chpyaexsw7s5zy7377dw.py":21:36)
#loc5 = loc("/home/Shuai/AIAA3201_Project/AIAA-3102-Proj_3/.tmp/torchinductor_Shuai/il/cillfzbdbjv5z2bsb3ndhthgx7nzu5a5chpyaexsw7s5zy7377dw.py":21:23)
#loc6 = loc("/home/Shuai/AIAA3201_Project/AIAA-3102-Proj_3/.tmp/torchinductor_Shuai/il/cillfzbdbjv5z2bsb3ndhthgx7nzu5a5chpyaexsw7s5zy7377dw.py":22:36)
#loc7 = loc("/home/Shuai/AIAA3201_Project/AIAA-3102-Proj_3/.tmp/torchinductor_Shuai/il/cillfzbdbjv5z2bsb3ndhthgx7nzu5a5chpyaexsw7s5zy7377dw.py":24:34)
#loc8 = loc("/home/Shuai/AIAA3201_Project/AIAA-3102-Proj_3/.tmp/torchinductor_Shuai/il/cillfzbdbjv5z2bsb3ndhthgx7nzu5a5chpyaexsw7s5zy7377dw.py":24:39)
#loc9 = loc("/home/Shuai/AIAA3201_Project/AIAA-3102-Proj_3/.tmp/torchinductor_Shuai/il/cillfzbdbjv5z2bsb3ndhthgx7nzu5a5chpyaexsw7s5zy7377dw.py":24:48)
#loc10 = loc("/home/Shuai/AIAA3201_Project/AIAA-3102-Proj_3/.tmp/torchinductor_Shuai/il/cillfzbdbjv5z2bsb3ndhthgx7nzu5a5chpyaexsw7s5zy7377dw.py":26:29)
#loc11 = loc("/home/Shuai/AIAA3201_Project/AIAA-3102-Proj_3/.tmp/torchinductor_Shuai/il/cillfzbdbjv5z2bsb3ndhthgx7nzu5a5chpyaexsw7s5zy7377dw.py":27:18)
#loc12 = loc("/home/Shuai/AIAA3201_Project/AIAA-3102-Proj_3/.tmp/torchinductor_Shuai/il/cillfzbdbjv5z2bsb3ndhthgx7nzu5a5chpyaexsw7s5zy7377dw.py":28:44)
#loc13 = loc("/home/Shuai/AIAA3201_Project/AIAA-3102-Proj_3/.tmp/torchinductor_Shuai/il/cillfzbdbjv5z2bsb3ndhthgx7nzu5a5chpyaexsw7s5zy7377dw.py":29:18)
#loc14 = loc("/home/Shuai/AIAA3201_Project/AIAA-3102-Proj_3/.tmp/torchinductor_Shuai/il/cillfzbdbjv5z2bsb3ndhthgx7nzu5a5chpyaexsw7s5zy7377dw.py":30:25)
#loc15 = loc("/home/Shuai/AIAA3201_Project/AIAA-3102-Proj_3/.tmp/torchinductor_Shuai/il/cillfzbdbjv5z2bsb3ndhthgx7nzu5a5chpyaexsw7s5zy7377dw.py":31:29)
#loc16 = loc("/home/Shuai/AIAA3201_Project/AIAA-3102-Proj_3/.tmp/torchinductor_Shuai/il/cillfzbdbjv5z2bsb3ndhthgx7nzu5a5chpyaexsw7s5zy7377dw.py":32:18)
#loc17 = loc("/home/Shuai/AIAA3201_Project/AIAA-3102-Proj_3/.tmp/torchinductor_Shuai/il/cillfzbdbjv5z2bsb3ndhthgx7nzu5a5chpyaexsw7s5zy7377dw.py":33:18)
#loc18 = loc("/home/Shuai/AIAA3201_Project/AIAA-3102-Proj_3/.tmp/torchinductor_Shuai/il/cillfzbdbjv5z2bsb3ndhthgx7nzu5a5chpyaexsw7s5zy7377dw.py":35:28)
#loc19 = loc("/home/Shuai/AIAA3201_Project/AIAA-3102-Proj_3/.tmp/torchinductor_Shuai/il/cillfzbdbjv5z2bsb3ndhthgx7nzu5a5chpyaexsw7s5zy7377dw.py":35:40)
#loc20 = loc("/home/Shuai/AIAA3201_Project/AIAA-3102-Proj_3/.tmp/torchinductor_Shuai/il/cillfzbdbjv5z2bsb3ndhthgx7nzu5a5chpyaexsw7s5zy7377dw.py":35:4)
#loc23 = loc("xnumel"(#loc1))
#loc24 = loc("xoffset"(#loc2))
#loc25 = loc("xoffset"(#loc3))
#loc26 = loc("xindex"(#loc4))
#loc27 = loc("xindex"(#loc5))
#loc28 = loc("xmask"(#loc6))
#loc29 = loc("tmp0"(#loc7))
#loc30 = loc("tmp0"(#loc8))
#loc31 = loc("tmp0"(#loc9))
#loc32 = loc("tmp2"(#loc10))
#loc33 = loc("tmp3"(#loc11))
#loc34 = loc("tmp4"(#loc12))
#loc35 = loc("tmp5"(#loc13))
#loc36 = loc("tmp6"(#loc14))
#loc37 = loc("tmp7"(#loc15))
#loc38 = loc("tmp8"(#loc16))
#loc39 = loc("tmp9"(#loc17))
