#loc = loc("/home/Shuai/AIAA3201_Project/AIAA-3102-Proj_3/.tmp/torchinductor_Shuai/f7/cf7bvbkvxe3v4fy26prueihqd2uzyzzyw3rmh3idgmya6zzo4dhy.py":18:0)
#loc25 = loc("in_ptr0"(#loc))
#loc26 = loc("out_ptr0"(#loc))
#loc27 = loc("ynumel"(#loc))
#loc28 = loc("xnumel"(#loc))
module {
  tt.func public @triton_poi_fused__to_copy_11(%in_ptr0: !tt.ptr<f32> {tt.divisibility = 16 : i32} loc("in_ptr0"(#loc)), %out_ptr0: !tt.ptr<bf16> {tt.divisibility = 16 : i32} loc("out_ptr0"(#loc)), %ynumel: i32 {tt.divisibility = 16 : i32} loc("ynumel"(#loc)), %xnumel: i32 loc("xnumel"(#loc))) attributes {noinline = false} {
    %cst = arith.constant dense<144> : tensor<16x1xi32> loc(#loc1)
    %cst_0 = arith.constant dense<16> : tensor<1x16xi32> loc(#loc2)
    %tmp0 = arith.constant dense<9> : tensor<16x1xi32> loc(#loc29)
    %cst_1 = arith.constant dense<16> : tensor<16x1xi32> loc(#loc4)
    %xmask = arith.constant dense<9> : tensor<1x16xi32> loc(#loc30)
    %c16_i32 = arith.constant 16 : i32 loc(#loc4)
    %yoffset = tt.get_program_id y : i32 loc(#loc31)
    %yoffset_2 = arith.muli %yoffset, %c16_i32 : i32 loc(#loc32)
    %yindex = tt.make_range {end = 16 : i32, start = 0 : i32} : tensor<16xi32> loc(#loc33)
    %yindex_3 = tt.expand_dims %yindex {axis = 1 : i32} : tensor<16xi32> -> tensor<16x1xi32> loc(#loc34)
    %yindex_4 = tt.splat %yoffset_2 : i32 -> tensor<16x1xi32> loc(#loc35)
    %yindex_5 = arith.addi %yindex_4, %yindex_3 : tensor<16x1xi32> loc(#loc35)
    %xoffset = tt.get_program_id x : i32 loc(#loc36)
    %xoffset_6 = arith.muli %xoffset, %c16_i32 : i32 loc(#loc37)
    %xindex = tt.expand_dims %yindex {axis = 0 : i32} : tensor<16xi32> -> tensor<1x16xi32> loc(#loc38)
    %xindex_7 = tt.splat %xoffset_6 : i32 -> tensor<1x16xi32> loc(#loc39)
    %xindex_8 = arith.addi %xindex_7, %xindex : tensor<1x16xi32> loc(#loc39)
    %xmask_9 = arith.cmpi slt, %xindex_8, %xmask : tensor<1x16xi32> loc(#loc30)
    %y0 = arith.remsi %yindex_5, %cst_1 : tensor<16x1xi32> loc(#loc40)
    %y1 = arith.divsi %yindex_5, %cst_1 : tensor<16x1xi32> loc(#loc41)
    %tmp0_10 = arith.muli %yindex_5, %tmp0 : tensor<16x1xi32> loc(#loc29)
    %tmp0_11 = tt.broadcast %xindex_8 : tensor<1x16xi32> -> tensor<16x16xi32> loc(#loc42)
    %tmp0_12 = tt.broadcast %tmp0_10 : tensor<16x1xi32> -> tensor<16x16xi32> loc(#loc42)
    %tmp0_13 = arith.addi %tmp0_11, %tmp0_12 : tensor<16x16xi32> loc(#loc42)
    %tmp0_14 = tt.splat %in_ptr0 : !tt.ptr<f32> -> tensor<16x16x!tt.ptr<f32>> loc(#loc43)
    %tmp0_15 = tt.addptr %tmp0_14, %tmp0_13 : tensor<16x16x!tt.ptr<f32>>, tensor<16x16xi32> loc(#loc43)
    %tmp0_16 = tt.broadcast %xmask_9 : tensor<1x16xi1> -> tensor<16x16xi1> loc(#loc44)
    %tmp0_17 = tt.load %tmp0_15, %tmp0_16 evictionPolicy = evict_last : tensor<16x16x!tt.ptr<f32>> loc(#loc44)
    %0 = arith.muli %xindex_8, %cst_0 : tensor<1x16xi32> loc(#loc2)
    %1 = tt.broadcast %y0 : tensor<16x1xi32> -> tensor<16x16xi32> loc(#loc20)
    %2 = tt.broadcast %0 : tensor<1x16xi32> -> tensor<16x16xi32> loc(#loc20)
    %3 = arith.addi %1, %2 : tensor<16x16xi32> loc(#loc20)
    %4 = arith.muli %y1, %cst : tensor<16x1xi32> loc(#loc1)
    %5 = tt.broadcast %4 : tensor<16x1xi32> -> tensor<16x16xi32> loc(#loc21)
    %6 = arith.addi %3, %5 : tensor<16x16xi32> loc(#loc21)
    %7 = tt.splat %out_ptr0 : !tt.ptr<bf16> -> tensor<16x16x!tt.ptr<bf16>> loc(#loc22)
    %8 = tt.addptr %7, %6 : tensor<16x16x!tt.ptr<bf16>>, tensor<16x16xi32> loc(#loc22)
    %9 = arith.truncf %tmp0_17 : tensor<16x16xf32> to tensor<16x16xbf16> loc(#loc23)
    tt.store %8, %9, %tmp0_16 : tensor<16x16x!tt.ptr<bf16>> loc(#loc23)
    tt.return loc(#loc24)
  } loc(#loc)
} loc(#loc)
#loc1 = loc("/home/Shuai/AIAA3201_Project/AIAA-3102-Proj_3/.tmp/torchinductor_Shuai/f7/cf7bvbkvxe3v4fy26prueihqd2uzyzzyw3rmh3idgmya6zzo4dhy.py":33:42)
#loc2 = loc("/home/Shuai/AIAA3201_Project/AIAA-3102-Proj_3/.tmp/torchinductor_Shuai/f7/cf7bvbkvxe3v4fy26prueihqd2uzyzzyw3rmh3idgmya6zzo4dhy.py":33:33)
#loc3 = loc("/home/Shuai/AIAA3201_Project/AIAA-3102-Proj_3/.tmp/torchinductor_Shuai/f7/cf7bvbkvxe3v4fy26prueihqd2uzyzzyw3rmh3idgmya6zzo4dhy.py":31:37)
#loc4 = loc(unknown)
#loc5 = loc("/home/Shuai/AIAA3201_Project/AIAA-3102-Proj_3/.tmp/torchinductor_Shuai/f7/cf7bvbkvxe3v4fy26prueihqd2uzyzzyw3rmh3idgmya6zzo4dhy.py":26:21)
#loc6 = loc("/home/Shuai/AIAA3201_Project/AIAA-3102-Proj_3/.tmp/torchinductor_Shuai/f7/cf7bvbkvxe3v4fy26prueihqd2uzyzzyw3rmh3idgmya6zzo4dhy.py":21:28)
#loc7 = loc("/home/Shuai/AIAA3201_Project/AIAA-3102-Proj_3/.tmp/torchinductor_Shuai/f7/cf7bvbkvxe3v4fy26prueihqd2uzyzzyw3rmh3idgmya6zzo4dhy.py":21:33)
#loc8 = loc("/home/Shuai/AIAA3201_Project/AIAA-3102-Proj_3/.tmp/torchinductor_Shuai/f7/cf7bvbkvxe3v4fy26prueihqd2uzyzzyw3rmh3idgmya6zzo4dhy.py":22:36)
#loc9 = loc("/home/Shuai/AIAA3201_Project/AIAA-3102-Proj_3/.tmp/torchinductor_Shuai/f7/cf7bvbkvxe3v4fy26prueihqd2uzyzzyw3rmh3idgmya6zzo4dhy.py":22:44)
#loc10 = loc("/home/Shuai/AIAA3201_Project/AIAA-3102-Proj_3/.tmp/torchinductor_Shuai/f7/cf7bvbkvxe3v4fy26prueihqd2uzyzzyw3rmh3idgmya6zzo4dhy.py":22:23)
#loc11 = loc("/home/Shuai/AIAA3201_Project/AIAA-3102-Proj_3/.tmp/torchinductor_Shuai/f7/cf7bvbkvxe3v4fy26prueihqd2uzyzzyw3rmh3idgmya6zzo4dhy.py":24:28)
#loc12 = loc("/home/Shuai/AIAA3201_Project/AIAA-3102-Proj_3/.tmp/torchinductor_Shuai/f7/cf7bvbkvxe3v4fy26prueihqd2uzyzzyw3rmh3idgmya6zzo4dhy.py":24:33)
#loc13 = loc("/home/Shuai/AIAA3201_Project/AIAA-3102-Proj_3/.tmp/torchinductor_Shuai/f7/cf7bvbkvxe3v4fy26prueihqd2uzyzzyw3rmh3idgmya6zzo4dhy.py":25:44)
#loc14 = loc("/home/Shuai/AIAA3201_Project/AIAA-3102-Proj_3/.tmp/torchinductor_Shuai/f7/cf7bvbkvxe3v4fy26prueihqd2uzyzzyw3rmh3idgmya6zzo4dhy.py":25:23)
#loc15 = loc("/home/Shuai/AIAA3201_Project/AIAA-3102-Proj_3/.tmp/torchinductor_Shuai/f7/cf7bvbkvxe3v4fy26prueihqd2uzyzzyw3rmh3idgmya6zzo4dhy.py":29:19)
#loc16 = loc("/home/Shuai/AIAA3201_Project/AIAA-3102-Proj_3/.tmp/torchinductor_Shuai/f7/cf7bvbkvxe3v4fy26prueihqd2uzyzzyw3rmh3idgmya6zzo4dhy.py":30:19)
#loc17 = loc("/home/Shuai/AIAA3201_Project/AIAA-3102-Proj_3/.tmp/torchinductor_Shuai/f7/cf7bvbkvxe3v4fy26prueihqd2uzyzzyw3rmh3idgmya6zzo4dhy.py":31:35)
#loc18 = loc("/home/Shuai/AIAA3201_Project/AIAA-3102-Proj_3/.tmp/torchinductor_Shuai/f7/cf7bvbkvxe3v4fy26prueihqd2uzyzzyw3rmh3idgmya6zzo4dhy.py":31:30)
#loc19 = loc("/home/Shuai/AIAA3201_Project/AIAA-3102-Proj_3/.tmp/torchinductor_Shuai/f7/cf7bvbkvxe3v4fy26prueihqd2uzyzzyw3rmh3idgmya6zzo4dhy.py":31:42)
#loc20 = loc("/home/Shuai/AIAA3201_Project/AIAA-3102-Proj_3/.tmp/torchinductor_Shuai/f7/cf7bvbkvxe3v4fy26prueihqd2uzyzzyw3rmh3idgmya6zzo4dhy.py":33:30)
#loc21 = loc("/home/Shuai/AIAA3201_Project/AIAA-3102-Proj_3/.tmp/torchinductor_Shuai/f7/cf7bvbkvxe3v4fy26prueihqd2uzyzzyw3rmh3idgmya6zzo4dhy.py":33:38)
#loc22 = loc("/home/Shuai/AIAA3201_Project/AIAA-3102-Proj_3/.tmp/torchinductor_Shuai/f7/cf7bvbkvxe3v4fy26prueihqd2uzyzzyw3rmh3idgmya6zzo4dhy.py":33:25)
#loc23 = loc("/home/Shuai/AIAA3201_Project/AIAA-3102-Proj_3/.tmp/torchinductor_Shuai/f7/cf7bvbkvxe3v4fy26prueihqd2uzyzzyw3rmh3idgmya6zzo4dhy.py":33:53)
#loc24 = loc("/home/Shuai/AIAA3201_Project/AIAA-3102-Proj_3/.tmp/torchinductor_Shuai/f7/cf7bvbkvxe3v4fy26prueihqd2uzyzzyw3rmh3idgmya6zzo4dhy.py":33:4)
#loc29 = loc("tmp0"(#loc3))
#loc30 = loc("xmask"(#loc5))
#loc31 = loc("yoffset"(#loc6))
#loc32 = loc("yoffset"(#loc7))
#loc33 = loc("yindex"(#loc8))
#loc34 = loc("yindex"(#loc9))
#loc35 = loc("yindex"(#loc10))
#loc36 = loc("xoffset"(#loc11))
#loc37 = loc("xoffset"(#loc12))
#loc38 = loc("xindex"(#loc13))
#loc39 = loc("xindex"(#loc14))
#loc40 = loc("y0"(#loc15))
#loc41 = loc("y1"(#loc16))
#loc42 = loc("tmp0"(#loc17))
#loc43 = loc("tmp0"(#loc18))
#loc44 = loc("tmp0"(#loc19))
