#loc = loc("/home/Shuai/AIAA3201_Project/AIAA-3102-Proj_3/.tmp/torchinductor_Shuai/3o/c3ofdj6lglcgrs46g5iivrhzdk5lby2m4phx6raxjtj6gsxfc4vx.py":18:0)
#loc298 = loc("/home/Shuai/miniconda3/envs/project3/lib/python3.12/site-packages/torch/_inductor/runtime/triton_helpers.py":115:0)
#loc307 = loc("/home/Shuai/miniconda3/envs/project3/lib/python3.12/site-packages/torch/_inductor/runtime/triton_helpers.py":92:0)
#loc311 = loc("/home/Shuai/miniconda3/envs/project3/lib/python3.12/site-packages/torch/_inductor/runtime/triton_helpers.py":69:0)
#loc316 = loc("/home/Shuai/miniconda3/envs/project3/lib/python3.12/site-packages/torch/_inductor/runtime/triton_helpers.py":107:0)
#loc325 = loc("/home/Shuai/miniconda3/envs/project3/lib/python3.12/site-packages/torch/_inductor/runtime/triton_helpers.py":216:0)
#loc338 = loc("/home/Shuai/miniconda3/envs/project3/lib/python3.12/site-packages/triton/language/standard.py":133:0)
#loc342 = loc("/home/Shuai/miniconda3/envs/project3/lib/python3.12/site-packages/torch/_inductor/runtime/triton_helpers.py":242:0)
#loc344 = loc(unknown)
#loc347 = loc("/home/Shuai/miniconda3/envs/project3/lib/python3.12/site-packages/torch/_inductor/runtime/triton_helpers.py":230:0)
#loc362 = loc("in_out_ptr0"(#loc))
#loc363 = loc("in_ptr0"(#loc))
#loc364 = loc("in_ptr1"(#loc))
#loc365 = loc("in_ptr2"(#loc))
#loc366 = loc("in_ptr3"(#loc))
#loc367 = loc("out_ptr0"(#loc))
#loc368 = loc("out_ptr1"(#loc))
#loc369 = loc("xnumel"(#loc))
#loc370 = loc("r0_numel"(#loc))
#loc651 = loc("a"(#loc298))
#loc652 = loc("b"(#loc298))
#loc656 = loc("x"(#loc307))
#loc657 = loc("x"(#loc311))
#loc658 = loc("a"(#loc316))
#loc659 = loc("b"(#loc316))
#loc663 = loc("value"(#loc325))
#loc664 = loc("mean"(#loc325))
#loc665 = loc("m2"(#loc325))
#loc666 = loc("weight"(#loc325))
#loc667 = loc("first_iteration"(#loc325))
#loc677 = loc("input"(#loc338))
#loc678 = loc("mean"(#loc342))
#loc679 = loc("m2"(#loc342))
#loc680 = loc("weight"(#loc342))
#loc681 = loc("mean_1"(#loc347))
#loc682 = loc("m2_1"(#loc347))
#loc683 = loc("weight_1"(#loc347))
#loc684 = loc("mean_2"(#loc347))
#loc685 = loc("m2_2"(#loc347))
#loc686 = loc("weight_2"(#loc347))
#loc697 = loc("new_mean"(#loc663))
module {
  tt.func public @triton_red_fused__to_copy__unsafe_index_add_arange_clamp_convolution_floor_mul_native_layer_norm_permute_repeat_rsub_sub_unsqueeze_4(%in_out_ptr0: !tt.ptr<f32> {tt.divisibility = 16 : i32} loc("in_out_ptr0"(#loc)), %in_ptr0: !tt.ptr<f32> {tt.divisibility = 16 : i32} loc("in_ptr0"(#loc)), %in_ptr1: !tt.ptr<bf16> {tt.divisibility = 16 : i32} loc("in_ptr1"(#loc)), %in_ptr2: !tt.ptr<bf16> {tt.divisibility = 16 : i32} loc("in_ptr2"(#loc)), %in_ptr3: !tt.ptr<f32> {tt.divisibility = 16 : i32} loc("in_ptr3"(#loc)), %out_ptr0: !tt.ptr<f32> {tt.divisibility = 16 : i32} loc("out_ptr0"(#loc)), %out_ptr1: !tt.ptr<f32> {tt.divisibility = 16 : i32} loc("out_ptr1"(#loc)), %xnumel: i32 {tt.divisibility = 16 : i32} loc("xnumel"(#loc)), %r0_numel: i32 {tt.divisibility = 16 : i32} loc("r0_numel"(#loc))) attributes {noinline = false} {
    %xnumel_0 = arith.constant 65536 : i32 loc(#loc371)
    %r0_numel_1 = arith.constant 144 : i32 loc(#loc372)
    %xoffset = tt.get_program_id x : i32 loc(#loc373)
    %xoffset_2 = arith.constant 32 : i32 loc(#loc374)
    %xoffset_3 = arith.constant 32 : i32 loc(#loc374)
    %xoffset_4 = arith.muli %xoffset, %xoffset_3 : i32 loc(#loc374)
    %xindex = tt.make_range {end = 32 : i32, start = 0 : i32} : tensor<32xi32> loc(#loc375)
    %xindex_5 = tt.expand_dims %xindex {axis = 1 : i32} : tensor<32xi32> -> tensor<32x1xi32> loc(#loc376)
    %xindex_6 = tt.splat %xoffset_4 : i32 -> tensor<32x1xi32> loc(#loc377)
    %xindex_7 = arith.addi %xindex_6, %xindex_5 : tensor<32x1xi32> loc(#loc377)
    %xmask = arith.constant true loc(#loc378)
    %xmask_8 = arith.constant dense<true> : tensor<32xi1> loc(#loc378)
    %xmask_9 = tt.expand_dims %xmask_8 {axis = 1 : i32} : tensor<32xi1> -> tensor<32x1xi1> loc(#loc379)
    %r0_base = tt.make_range {end = 4 : i32, start = 0 : i32} : tensor<4xi32> loc(#loc380)
    %r0_base_10 = tt.expand_dims %r0_base {axis = 0 : i32} : tensor<4xi32> -> tensor<1x4xi32> loc(#loc381)
    %x1 = arith.constant 256 : i32 loc(#loc382)
    %x1_11 = arith.constant 256 : i32 loc(#loc382)
    %x1_12 = arith.constant dense<256> : tensor<32x1xi32> loc(#loc382)
    %x1_13 = arith.divsi %xindex_7, %x1_12 : tensor<32x1xi32> loc(#loc382)
    %x0 = arith.constant 256 : i32 loc(#loc383)
    %x0_14 = arith.constant 256 : i32 loc(#loc383)
    %x0_15 = arith.constant dense<256> : tensor<32x1xi32> loc(#loc383)
    %x0_16 = arith.remsi %xindex_7, %x0_15 : tensor<32x1xi32> loc(#loc383)
    %tmp166_mean = tt.call @"triton.language.standard.zeros____(0, 0)cconstexpr_32__(0, 1)cconstexpr_4__(1,)cconstexpr_fp32_"() : () -> tensor<32x4xf32> loc(#loc384)
    %tmp166_m2 = tt.call @"triton.language.standard.zeros____(0, 0)cconstexpr_32__(0, 1)cconstexpr_4__(1,)cconstexpr_fp32_"() : () -> tensor<32x4xf32> loc(#loc385)
    %tmp166_weight = tt.call @"triton.language.standard.zeros____(0, 0)cconstexpr_32__(0, 1)cconstexpr_4__(1,)cconstexpr_fp32_"() : () -> tensor<32x4xf32> loc(#loc386)
    %c0_i32 = arith.constant 0 : i32 loc(#loc17)
    %c4_i32 = arith.constant 4 : i32 loc(#loc17)
    %0 = arith.bitcast %c0_i32 : i32 to i32 loc(#loc17)
    %1 = arith.bitcast %r0_numel_1 : i32 to i32 loc(#loc17)
    %2 = arith.bitcast %c4_i32 : i32 to i32 loc(#loc17)
    %3 = ub.poison : i32 loc(#loc17)
    %tmp166_weight_17:3 = scf.for %r0_offset = %0 to %1 step %2 iter_args(%tmp166_mean_18 = %tmp166_mean, %tmp166_m2_19 = %tmp166_m2, %tmp166_weight_20 = %tmp166_weight) -> (tensor<32x4xf32>, tensor<32x4xf32>, tensor<32x4xf32>)  : i32 {
      %r0_index = tt.splat %r0_offset : i32 -> tensor<1x4xi32> loc(#loc388)
      %r0_index_21 = arith.addi %r0_index, %r0_base_10 : tensor<1x4xi32> loc(#loc388)
      %r0_mask = arith.constant dense<144> : tensor<1x4xi32> loc(#loc389)
      %r0_mask_22 = arith.cmpi slt, %r0_index_21, %r0_mask : tensor<1x4xi32> loc(#loc389)
      %tmp158 = arith.constant 65536 : i32 loc(#loc390)
      %tmp158_23 = arith.constant 65536 : i32 loc(#loc390)
      %tmp158_24 = arith.constant dense<65536> : tensor<1x4xi32> loc(#loc390)
      %tmp158_25 = arith.muli %tmp158_24, %r0_index_21 : tensor<1x4xi32> loc(#loc390)
      %tmp158_26 = tt.broadcast %xindex_7 : tensor<32x1xi32> -> tensor<32x4xi32> loc(#loc391)
      %tmp158_27 = tt.broadcast %tmp158_25 : tensor<1x4xi32> -> tensor<32x4xi32> loc(#loc391)
      %tmp158_28 = arith.addi %tmp158_26, %tmp158_27 : tensor<32x4xi32> loc(#loc391)
      %tmp158_29 = tt.splat %in_ptr1 : !tt.ptr<bf16> -> tensor<32x4x!tt.ptr<bf16>> loc(#loc392)
      %tmp158_30 = tt.addptr %tmp158_29, %tmp158_28 : tensor<32x4x!tt.ptr<bf16>>, tensor<32x4xi32> loc(#loc392)
      %tmp158_31 = arith.constant 0.000000e+00 : f32 loc(#loc393)
      %tmp158_32 = tt.broadcast %r0_mask_22 : tensor<1x4xi1> -> tensor<32x4xi1> loc(#loc393)
      %tmp158_33 = arith.constant dense<0.000000e+00> : tensor<32x4xf32> loc(#loc393)
      %tmp158_34 = arith.truncf %tmp158_33 : tensor<32x4xf32> to tensor<32x4xbf16> loc(#loc393)
      %tmp158_35 = tt.load %tmp158_30, %tmp158_32, %tmp158_34 evictionPolicy = evict_first : tensor<32x4x!tt.ptr<bf16>> loc(#loc393)
      %tmp158_36 = arith.extf %tmp158_35 : tensor<32x4xbf16> to tensor<32x4xf32> loc(#loc394)
      %tmp159 = tt.splat %in_ptr2 : !tt.ptr<bf16> -> tensor<1x4x!tt.ptr<bf16>> loc(#loc395)
      %tmp159_37 = tt.addptr %tmp159, %r0_index_21 : tensor<1x4x!tt.ptr<bf16>>, tensor<1x4xi32> loc(#loc395)
      %tmp159_38 = arith.constant 0.000000e+00 : f32 loc(#loc396)
      %tmp159_39 = arith.constant dense<0.000000e+00> : tensor<1x4xf32> loc(#loc396)
      %tmp159_40 = arith.truncf %tmp159_39 : tensor<1x4xf32> to tensor<1x4xbf16> loc(#loc396)
      %tmp159_41 = tt.load %tmp159_37, %r0_mask_22, %tmp159_40 evictionPolicy = evict_last : tensor<1x4x!tt.ptr<bf16>> loc(#loc396)
      %tmp159_42 = arith.extf %tmp159_41 : tensor<1x4xbf16> to tensor<1x4xf32> loc(#loc397)
      %tmp162 = arith.constant 8 : i32 loc(#loc398)
      %tmp162_43 = arith.constant 8 : i32 loc(#loc398)
      %tmp162_44 = arith.constant dense<8> : tensor<32x1xi32> loc(#loc398)
      %tmp162_45 = arith.remsi %x1_13, %tmp162_44 : tensor<32x1xi32> loc(#loc398)
      %tmp162_46 = arith.constant 8 : i32 loc(#loc399)
      %tmp162_47 = arith.constant 8 : i32 loc(#loc399)
      %tmp162_48 = arith.constant dense<8> : tensor<32x1xi32> loc(#loc399)
      %tmp162_49 = arith.muli %tmp162_48, %tmp162_45 : tensor<32x1xi32> loc(#loc399)
      %tmp162_50 = arith.constant 64 : i32 loc(#loc400)
      %tmp162_51 = arith.constant 64 : i32 loc(#loc400)
      %tmp162_52 = arith.constant dense<64> : tensor<1x4xi32> loc(#loc400)
      %tmp162_53 = arith.muli %tmp162_52, %r0_index_21 : tensor<1x4xi32> loc(#loc400)
      %tmp162_54 = tt.broadcast %tmp162_49 : tensor<32x1xi32> -> tensor<32x4xi32> loc(#loc401)
      %tmp162_55 = tt.broadcast %tmp162_53 : tensor<1x4xi32> -> tensor<32x4xi32> loc(#loc401)
      %tmp162_56 = arith.addi %tmp162_54, %tmp162_55 : tensor<32x4xi32> loc(#loc401)
      %tmp162_57 = arith.constant 8 : i32 loc(#loc402)
      %tmp162_58 = arith.constant 8 : i32 loc(#loc402)
      %tmp162_59 = arith.constant dense<8> : tensor<32x1xi32> loc(#loc402)
      %tmp162_60 = arith.remsi %x0_16, %tmp162_59 : tensor<32x1xi32> loc(#loc402)
      %tmp162_61 = tt.broadcast %tmp162_60 : tensor<32x1xi32> -> tensor<32x4xi32> loc(#loc403)
      %tmp162_62 = arith.addi %tmp162_56, %tmp162_61 : tensor<32x4xi32> loc(#loc403)
      %tmp162_63 = tt.splat %in_ptr3 : !tt.ptr<f32> -> tensor<32x4x!tt.ptr<f32>> loc(#loc404)
      %tmp162_64 = tt.addptr %tmp162_63, %tmp162_62 : tensor<32x4x!tt.ptr<f32>>, tensor<32x4xi32> loc(#loc404)
      %tmp162_65 = arith.constant 0.000000e+00 : f32 loc(#loc405)
      %tmp162_66 = tt.broadcast %r0_mask_22 : tensor<1x4xi1> -> tensor<32x4xi1> loc(#loc405)
      %tmp162_67 = arith.constant dense<0.000000e+00> : tensor<32x4xf32> loc(#loc405)
      %tmp162_68 = tt.load %tmp162_64, %tmp162_66, %tmp162_67 evictionPolicy = evict_first : tensor<32x4x!tt.ptr<f32>> loc(#loc405)
      %tmp1 = arith.sitofp %x1_13 : tensor<32x1xi32> to tensor<32x1xf32> loc(#loc406)
      %tmp2 = arith.constant 5.000000e-01 : f32 loc(#loc407)
      %tmp2_69 = arith.constant dense<5.000000e-01> : tensor<1x1xf32> loc(#loc407)
      %tmp3 = arith.constant dense<5.000000e-01> : tensor<32x1xf32> loc(#loc408)
      %tmp3_70 = arith.addf %tmp1, %tmp3 : tensor<32x1xf32> loc(#loc408)
      %tmp4 = arith.constant 0.02734375 : f32 loc(#loc409)
      %tmp4_71 = arith.constant dense<0.02734375> : tensor<1x1xf32> loc(#loc409)
      %tmp5 = arith.constant dense<0.02734375> : tensor<32x1xf32> loc(#loc410)
      %tmp5_72 = arith.mulf %tmp3_70, %tmp5 : tensor<32x1xf32> loc(#loc410)
      %tmp6 = arith.constant dense<5.000000e-01> : tensor<32x1xf32> loc(#loc411)
      %tmp6_73 = arith.subf %tmp5_72, %tmp6 : tensor<32x1xf32> loc(#loc411)
      %tmp7 = tt.extern_elementwise %tmp6_73 {libname = "", libpath = "", pure = true, symbol = "__nv_floorf"} : (tensor<32x1xf32>) -> tensor<32x1xf32> loc(#loc412)
      %tmp8 = arith.fptosi %tmp7 : tensor<32x1xf32> to tensor<32x1xi32> loc(#loc413)
      %tmp9 = arith.constant 1 : i64 loc(#loc414)
      %tmp9_74 = arith.constant dense<1> : tensor<1x1xi64> loc(#loc414)
      %tmp10 = arith.extsi %tmp8 : tensor<32x1xi32> to tensor<32x1xi64> loc(#loc415)
      %tmp10_75 = arith.constant dense<1> : tensor<32x1xi64> loc(#loc415)
      %tmp10_76 = arith.subi %tmp10, %tmp10_75 : tensor<32x1xi64> loc(#loc415)
      %tmp11 = arith.constant 0 : i64 loc(#loc416)
      %tmp11_77 = arith.constant dense<0> : tensor<1x1xi64> loc(#loc416)
      %tmp12 = tt.call @torch._inductor.runtime.triton_helpers.maximum__i64S32_1S_i64S1_1S__(%tmp10_76, %tmp11_77) : (tensor<32x1xi64>, tensor<1x1xi64>) -> tensor<32x1xi64> loc(#loc417)
      %tmp13 = arith.constant 6 : i64 loc(#loc418)
      %tmp13_78 = arith.constant dense<6> : tensor<1x1xi64> loc(#loc418)
      %tmp14 = tt.call @torch._inductor.runtime.triton_helpers.minimum__i64S32_1S_i64S1_1S__(%tmp12, %tmp13_78) : (tensor<32x1xi64>, tensor<1x1xi64>) -> tensor<32x1xi64> loc(#loc419)
      %tmp16 = arith.sitofp %x0_16 : tensor<32x1xi32> to tensor<32x1xf32> loc(#loc420)
      %tmp17 = arith.constant dense<5.000000e-01> : tensor<32x1xf32> loc(#loc421)
      %tmp17_79 = arith.addf %tmp16, %tmp17 : tensor<32x1xf32> loc(#loc421)
      %tmp18 = arith.constant dense<0.02734375> : tensor<32x1xf32> loc(#loc422)
      %tmp18_80 = arith.mulf %tmp17_79, %tmp18 : tensor<32x1xf32> loc(#loc422)
      %tmp19 = arith.constant dense<5.000000e-01> : tensor<32x1xf32> loc(#loc423)
      %tmp19_81 = arith.subf %tmp18_80, %tmp19 : tensor<32x1xf32> loc(#loc423)
      %tmp20 = tt.extern_elementwise %tmp19_81 {libname = "", libpath = "", pure = true, symbol = "__nv_floorf"} : (tensor<32x1xf32>) -> tensor<32x1xf32> loc(#loc424)
      %tmp21 = arith.fptosi %tmp20 : tensor<32x1xf32> to tensor<32x1xi32> loc(#loc425)
      %tmp22 = arith.extsi %tmp21 : tensor<32x1xi32> to tensor<32x1xi64> loc(#loc426)
      %tmp22_82 = arith.constant dense<1> : tensor<32x1xi64> loc(#loc426)
      %tmp22_83 = arith.subi %tmp22, %tmp22_82 : tensor<32x1xi64> loc(#loc426)
      %tmp23 = tt.call @torch._inductor.runtime.triton_helpers.maximum__i64S32_1S_i64S1_1S__(%tmp22_83, %tmp11_77) : (tensor<32x1xi64>, tensor<1x1xi64>) -> tensor<32x1xi64> loc(#loc427)
      %tmp24 = tt.call @torch._inductor.runtime.triton_helpers.minimum__i64S32_1S_i64S1_1S__(%tmp23, %tmp13_78) : (tensor<32x1xi64>, tensor<1x1xi64>) -> tensor<32x1xi64> loc(#loc428)
      %tmp25 = arith.constant 7 : i32 loc(#loc429)
      %tmp25_84 = arith.constant 7 : i64 loc(#loc429)
      %tmp25_85 = arith.constant dense<7> : tensor<32x1xi64> loc(#loc429)
      %tmp25_86 = arith.muli %tmp25_85, %tmp14 : tensor<32x1xi64> loc(#loc429)
      %tmp25_87 = arith.addi %tmp24, %tmp25_86 : tensor<32x1xi64> loc(#loc430)
      %tmp25_88 = arith.constant 49 : i32 loc(#loc431)
      %tmp25_89 = arith.constant 49 : i32 loc(#loc431)
      %tmp25_90 = arith.constant dense<49> : tensor<1x4xi32> loc(#loc431)
      %tmp25_91 = arith.muli %tmp25_90, %r0_index_21 : tensor<1x4xi32> loc(#loc431)
      %tmp25_92 = arith.extsi %tmp25_91 : tensor<1x4xi32> to tensor<1x4xi64> loc(#loc432)
      %tmp25_93 = tt.broadcast %tmp25_87 : tensor<32x1xi64> -> tensor<32x4xi64> loc(#loc432)
      %tmp25_94 = tt.broadcast %tmp25_92 : tensor<1x4xi64> -> tensor<32x4xi64> loc(#loc432)
      %tmp25_95 = arith.addi %tmp25_93, %tmp25_94 : tensor<32x4xi64> loc(#loc432)
      %tmp25_96 = tt.splat %in_ptr0 : !tt.ptr<f32> -> tensor<32x4x!tt.ptr<f32>> loc(#loc433)
      %tmp25_97 = tt.addptr %tmp25_96, %tmp25_95 : tensor<32x4x!tt.ptr<f32>>, tensor<32x4xi64> loc(#loc433)
      %tmp25_98 = arith.constant 0.000000e+00 : f32 loc(#loc434)
      %tmp25_99 = tt.broadcast %r0_mask_22 : tensor<1x4xi1> -> tensor<32x4xi1> loc(#loc434)
      %tmp25_100 = arith.constant dense<0.000000e+00> : tensor<32x4xf32> loc(#loc434)
      %tmp25_101 = tt.load %tmp25_97, %tmp25_99, %tmp25_100 evictionPolicy = evict_last : tensor<32x4x!tt.ptr<f32>> loc(#loc434)
      %tmp26 = arith.subf %tmp19_81, %tmp20 : tensor<32x1xf32> loc(#loc435)
      %tmp27 = arith.constant 0.000000e+00 : f32 loc(#loc436)
      %tmp27_102 = arith.constant dense<0.000000e+00> : tensor<1x1xf32> loc(#loc436)
      %tmp28 = tt.call @torch._inductor.runtime.triton_helpers.maximum__fp32S32_1S_fp32S1_1S__(%tmp26, %tmp27_102) : (tensor<32x1xf32>, tensor<1x1xf32>) -> tensor<32x1xf32> loc(#loc437)
      %tmp29 = arith.constant 1.000000e+00 : f32 loc(#loc438)
      %tmp29_103 = arith.constant dense<1.000000e+00> : tensor<1x1xf32> loc(#loc438)
      %tmp30 = tt.call @torch._inductor.runtime.triton_helpers.minimum__fp32S32_1S_fp32S1_1S__(%tmp28, %tmp29_103) : (tensor<32x1xf32>, tensor<1x1xf32>) -> tensor<32x1xf32> loc(#loc439)
      %tmp31 = arith.constant dense<1.000000e+00> : tensor<32x1xf32> loc(#loc440)
      %tmp31_104 = arith.addf %tmp30, %tmp31 : tensor<32x1xf32> loc(#loc440)
      %tmp32 = arith.constant -7.500000e-01 : f32 loc(#loc441)
      %tmp32_105 = arith.constant dense<-7.500000e-01> : tensor<1x1xf32> loc(#loc441)
      %tmp33 = arith.constant dense<-7.500000e-01> : tensor<32x1xf32> loc(#loc442)
      %tmp33_106 = arith.mulf %tmp31_104, %tmp33 : tensor<32x1xf32> loc(#loc442)
      %tmp34 = arith.constant -3.750000e+00 : f32 loc(#loc443)
      %tmp34_107 = arith.constant dense<-3.750000e+00> : tensor<1x1xf32> loc(#loc443)
      %tmp35 = arith.constant dense<-3.750000e+00> : tensor<32x1xf32> loc(#loc444)
      %tmp35_108 = arith.subf %tmp33_106, %tmp35 : tensor<32x1xf32> loc(#loc444)
      %tmp36 = arith.mulf %tmp35_108, %tmp31_104 : tensor<32x1xf32> loc(#loc445)
      %tmp37 = arith.constant -6.000000e+00 : f32 loc(#loc446)
      %tmp37_109 = arith.constant dense<-6.000000e+00> : tensor<1x1xf32> loc(#loc446)
      %tmp38 = arith.constant dense<-6.000000e+00> : tensor<32x1xf32> loc(#loc447)
      %tmp38_110 = arith.addf %tmp36, %tmp38 : tensor<32x1xf32> loc(#loc447)
      %tmp39 = arith.mulf %tmp38_110, %tmp31_104 : tensor<32x1xf32> loc(#loc448)
      %tmp40 = arith.constant -3.000000e+00 : f32 loc(#loc449)
      %tmp40_111 = arith.constant dense<-3.000000e+00> : tensor<1x1xf32> loc(#loc449)
      %tmp41 = arith.constant dense<-3.000000e+00> : tensor<32x1xf32> loc(#loc450)
      %tmp41_112 = arith.subf %tmp39, %tmp41 : tensor<32x1xf32> loc(#loc450)
      %tmp42 = tt.broadcast %tmp41_112 : tensor<32x1xf32> -> tensor<32x4xf32> loc(#loc451)
      %tmp42_113 = arith.mulf %tmp25_101, %tmp42 : tensor<32x4xf32> loc(#loc451)
      %tmp43 = tt.call @torch._inductor.runtime.triton_helpers.maximum__i32S32_1S_i64S1_1S__(%tmp21, %tmp11_77) : (tensor<32x1xi32>, tensor<1x1xi64>) -> tensor<32x1xi64> loc(#loc452)
      %tmp44 = tt.call @torch._inductor.runtime.triton_helpers.minimum__i64S32_1S_i64S1_1S__(%tmp43, %tmp13_78) : (tensor<32x1xi64>, tensor<1x1xi64>) -> tensor<32x1xi64> loc(#loc453)
      %tmp45 = arith.constant 7 : i32 loc(#loc454)
      %tmp45_114 = arith.constant 7 : i64 loc(#loc454)
      %tmp45_115 = arith.constant dense<7> : tensor<32x1xi64> loc(#loc454)
      %tmp45_116 = arith.muli %tmp45_115, %tmp14 : tensor<32x1xi64> loc(#loc454)
      %tmp45_117 = arith.addi %tmp44, %tmp45_116 : tensor<32x1xi64> loc(#loc455)
      %tmp45_118 = arith.constant 49 : i32 loc(#loc456)
      %tmp45_119 = arith.constant 49 : i32 loc(#loc456)
      %tmp45_120 = arith.constant dense<49> : tensor<1x4xi32> loc(#loc456)
      %tmp45_121 = arith.muli %tmp45_120, %r0_index_21 : tensor<1x4xi32> loc(#loc456)
      %tmp45_122 = arith.extsi %tmp45_121 : tensor<1x4xi32> to tensor<1x4xi64> loc(#loc457)
      %tmp45_123 = tt.broadcast %tmp45_117 : tensor<32x1xi64> -> tensor<32x4xi64> loc(#loc457)
      %tmp45_124 = tt.broadcast %tmp45_122 : tensor<1x4xi64> -> tensor<32x4xi64> loc(#loc457)
      %tmp45_125 = arith.addi %tmp45_123, %tmp45_124 : tensor<32x4xi64> loc(#loc457)
      %tmp45_126 = tt.splat %in_ptr0 : !tt.ptr<f32> -> tensor<32x4x!tt.ptr<f32>> loc(#loc458)
      %tmp45_127 = tt.addptr %tmp45_126, %tmp45_125 : tensor<32x4x!tt.ptr<f32>>, tensor<32x4xi64> loc(#loc458)
      %tmp45_128 = arith.constant 0.000000e+00 : f32 loc(#loc459)
      %tmp45_129 = tt.broadcast %r0_mask_22 : tensor<1x4xi1> -> tensor<32x4xi1> loc(#loc459)
      %tmp45_130 = arith.constant dense<0.000000e+00> : tensor<32x4xf32> loc(#loc459)
      %tmp45_131 = tt.load %tmp45_127, %tmp45_129, %tmp45_130 evictionPolicy = evict_last : tensor<32x4x!tt.ptr<f32>> loc(#loc459)
      %tmp46 = arith.constant 1.250000e+00 : f32 loc(#loc460)
      %tmp46_132 = arith.constant dense<1.250000e+00> : tensor<1x1xf32> loc(#loc460)
      %tmp47 = arith.constant dense<1.250000e+00> : tensor<32x1xf32> loc(#loc461)
      %tmp47_133 = arith.mulf %tmp30, %tmp47 : tensor<32x1xf32> loc(#loc461)
      %tmp48 = arith.constant 2.250000e+00 : f32 loc(#loc462)
      %tmp48_134 = arith.constant dense<2.250000e+00> : tensor<1x1xf32> loc(#loc462)
      %tmp49 = arith.constant dense<2.250000e+00> : tensor<32x1xf32> loc(#loc463)
      %tmp49_135 = arith.subf %tmp47_133, %tmp49 : tensor<32x1xf32> loc(#loc463)
      %tmp50 = arith.mulf %tmp49_135, %tmp30 : tensor<32x1xf32> loc(#loc464)
      %tmp51 = arith.mulf %tmp50, %tmp30 : tensor<32x1xf32> loc(#loc465)
      %tmp52 = arith.constant dense<1.000000e+00> : tensor<32x1xf32> loc(#loc466)
      %tmp52_136 = arith.addf %tmp51, %tmp52 : tensor<32x1xf32> loc(#loc466)
      %tmp53 = tt.broadcast %tmp52_136 : tensor<32x1xf32> -> tensor<32x4xf32> loc(#loc467)
      %tmp53_137 = arith.mulf %tmp45_131, %tmp53 : tensor<32x4xf32> loc(#loc467)
      %tmp54 = arith.addf %tmp42_113, %tmp53_137 : tensor<32x4xf32> loc(#loc468)
      %tmp55 = arith.extsi %tmp21 : tensor<32x1xi32> to tensor<32x1xi64> loc(#loc469)
      %tmp55_138 = arith.constant dense<1> : tensor<32x1xi64> loc(#loc469)
      %tmp55_139 = arith.addi %tmp55, %tmp55_138 : tensor<32x1xi64> loc(#loc469)
      %tmp56 = tt.call @torch._inductor.runtime.triton_helpers.maximum__i64S32_1S_i64S1_1S__(%tmp55_139, %tmp11_77) : (tensor<32x1xi64>, tensor<1x1xi64>) -> tensor<32x1xi64> loc(#loc470)
      %tmp57 = tt.call @torch._inductor.runtime.triton_helpers.minimum__i64S32_1S_i64S1_1S__(%tmp56, %tmp13_78) : (tensor<32x1xi64>, tensor<1x1xi64>) -> tensor<32x1xi64> loc(#loc471)
      %tmp58 = arith.constant 7 : i32 loc(#loc472)
      %tmp58_140 = arith.constant 7 : i64 loc(#loc472)
      %tmp58_141 = arith.constant dense<7> : tensor<32x1xi64> loc(#loc472)
      %tmp58_142 = arith.muli %tmp58_141, %tmp14 : tensor<32x1xi64> loc(#loc472)
      %tmp58_143 = arith.addi %tmp57, %tmp58_142 : tensor<32x1xi64> loc(#loc473)
      %tmp58_144 = arith.constant 49 : i32 loc(#loc474)
      %tmp58_145 = arith.constant 49 : i32 loc(#loc474)
      %tmp58_146 = arith.constant dense<49> : tensor<1x4xi32> loc(#loc474)
      %tmp58_147 = arith.muli %tmp58_146, %r0_index_21 : tensor<1x4xi32> loc(#loc474)
      %tmp58_148 = arith.extsi %tmp58_147 : tensor<1x4xi32> to tensor<1x4xi64> loc(#loc475)
      %tmp58_149 = tt.broadcast %tmp58_143 : tensor<32x1xi64> -> tensor<32x4xi64> loc(#loc475)
      %tmp58_150 = tt.broadcast %tmp58_148 : tensor<1x4xi64> -> tensor<32x4xi64> loc(#loc475)
      %tmp58_151 = arith.addi %tmp58_149, %tmp58_150 : tensor<32x4xi64> loc(#loc475)
      %tmp58_152 = tt.splat %in_ptr0 : !tt.ptr<f32> -> tensor<32x4x!tt.ptr<f32>> loc(#loc476)
      %tmp58_153 = tt.addptr %tmp58_152, %tmp58_151 : tensor<32x4x!tt.ptr<f32>>, tensor<32x4xi64> loc(#loc476)
      %tmp58_154 = arith.constant 0.000000e+00 : f32 loc(#loc477)
      %tmp58_155 = tt.broadcast %r0_mask_22 : tensor<1x4xi1> -> tensor<32x4xi1> loc(#loc477)
      %tmp58_156 = arith.constant dense<0.000000e+00> : tensor<32x4xf32> loc(#loc477)
      %tmp58_157 = tt.load %tmp58_153, %tmp58_155, %tmp58_156 evictionPolicy = evict_last : tensor<32x4x!tt.ptr<f32>> loc(#loc477)
      %tmp59 = arith.constant dense<1.000000e+00> : tensor<32x1xf32> loc(#loc478)
      %tmp59_158 = arith.subf %tmp59, %tmp30 : tensor<32x1xf32> loc(#loc478)
      %tmp60 = arith.constant dense<1.250000e+00> : tensor<32x1xf32> loc(#loc479)
      %tmp60_159 = arith.mulf %tmp59_158, %tmp60 : tensor<32x1xf32> loc(#loc479)
      %tmp61 = arith.constant dense<2.250000e+00> : tensor<32x1xf32> loc(#loc480)
      %tmp61_160 = arith.subf %tmp60_159, %tmp61 : tensor<32x1xf32> loc(#loc480)
      %tmp62 = arith.mulf %tmp61_160, %tmp59_158 : tensor<32x1xf32> loc(#loc481)
      %tmp63 = arith.mulf %tmp62, %tmp59_158 : tensor<32x1xf32> loc(#loc482)
      %tmp64 = arith.constant dense<1.000000e+00> : tensor<32x1xf32> loc(#loc483)
      %tmp64_161 = arith.addf %tmp63, %tmp64 : tensor<32x1xf32> loc(#loc483)
      %tmp65 = tt.broadcast %tmp64_161 : tensor<32x1xf32> -> tensor<32x4xf32> loc(#loc484)
      %tmp65_162 = arith.mulf %tmp58_157, %tmp65 : tensor<32x4xf32> loc(#loc484)
      %tmp66 = arith.addf %tmp54, %tmp65_162 : tensor<32x4xf32> loc(#loc485)
      %tmp67 = arith.constant 2 : i64 loc(#loc486)
      %tmp67_163 = arith.constant dense<2> : tensor<1x1xi64> loc(#loc486)
      %tmp68 = arith.extsi %tmp21 : tensor<32x1xi32> to tensor<32x1xi64> loc(#loc487)
      %tmp68_164 = arith.constant dense<2> : tensor<32x1xi64> loc(#loc487)
      %tmp68_165 = arith.addi %tmp68, %tmp68_164 : tensor<32x1xi64> loc(#loc487)
      %tmp69 = tt.call @torch._inductor.runtime.triton_helpers.maximum__i64S32_1S_i64S1_1S__(%tmp68_165, %tmp11_77) : (tensor<32x1xi64>, tensor<1x1xi64>) -> tensor<32x1xi64> loc(#loc488)
      %tmp70 = tt.call @torch._inductor.runtime.triton_helpers.minimum__i64S32_1S_i64S1_1S__(%tmp69, %tmp13_78) : (tensor<32x1xi64>, tensor<1x1xi64>) -> tensor<32x1xi64> loc(#loc489)
      %tmp71 = arith.constant 7 : i32 loc(#loc490)
      %tmp71_166 = arith.constant 7 : i64 loc(#loc490)
      %tmp71_167 = arith.constant dense<7> : tensor<32x1xi64> loc(#loc490)
      %tmp71_168 = arith.muli %tmp71_167, %tmp14 : tensor<32x1xi64> loc(#loc490)
      %tmp71_169 = arith.addi %tmp70, %tmp71_168 : tensor<32x1xi64> loc(#loc491)
      %tmp71_170 = arith.constant 49 : i32 loc(#loc492)
      %tmp71_171 = arith.constant 49 : i32 loc(#loc492)
      %tmp71_172 = arith.constant dense<49> : tensor<1x4xi32> loc(#loc492)
      %tmp71_173 = arith.muli %tmp71_172, %r0_index_21 : tensor<1x4xi32> loc(#loc492)
      %tmp71_174 = arith.extsi %tmp71_173 : tensor<1x4xi32> to tensor<1x4xi64> loc(#loc493)
      %tmp71_175 = tt.broadcast %tmp71_169 : tensor<32x1xi64> -> tensor<32x4xi64> loc(#loc493)
      %tmp71_176 = tt.broadcast %tmp71_174 : tensor<1x4xi64> -> tensor<32x4xi64> loc(#loc493)
      %tmp71_177 = arith.addi %tmp71_175, %tmp71_176 : tensor<32x4xi64> loc(#loc493)
      %tmp71_178 = tt.splat %in_ptr0 : !tt.ptr<f32> -> tensor<32x4x!tt.ptr<f32>> loc(#loc494)
      %tmp71_179 = tt.addptr %tmp71_178, %tmp71_177 : tensor<32x4x!tt.ptr<f32>>, tensor<32x4xi64> loc(#loc494)
      %tmp71_180 = arith.constant 0.000000e+00 : f32 loc(#loc495)
      %tmp71_181 = tt.broadcast %r0_mask_22 : tensor<1x4xi1> -> tensor<32x4xi1> loc(#loc495)
      %tmp71_182 = arith.constant dense<0.000000e+00> : tensor<32x4xf32> loc(#loc495)
      %tmp71_183 = tt.load %tmp71_179, %tmp71_181, %tmp71_182 evictionPolicy = evict_last : tensor<32x4x!tt.ptr<f32>> loc(#loc495)
      %tmp72 = arith.constant 2.000000e+00 : f32 loc(#loc496)
      %tmp72_184 = arith.constant dense<2.000000e+00> : tensor<1x1xf32> loc(#loc496)
      %tmp73 = arith.constant dense<2.000000e+00> : tensor<32x1xf32> loc(#loc497)
      %tmp73_185 = arith.subf %tmp73, %tmp30 : tensor<32x1xf32> loc(#loc497)
      %tmp74 = arith.constant dense<-7.500000e-01> : tensor<32x1xf32> loc(#loc498)
      %tmp74_186 = arith.mulf %tmp73_185, %tmp74 : tensor<32x1xf32> loc(#loc498)
      %tmp75 = arith.constant dense<-3.750000e+00> : tensor<32x1xf32> loc(#loc499)
      %tmp75_187 = arith.subf %tmp74_186, %tmp75 : tensor<32x1xf32> loc(#loc499)
      %tmp76 = arith.mulf %tmp75_187, %tmp73_185 : tensor<32x1xf32> loc(#loc500)
      %tmp77 = arith.constant dense<-6.000000e+00> : tensor<32x1xf32> loc(#loc501)
      %tmp77_188 = arith.addf %tmp76, %tmp77 : tensor<32x1xf32> loc(#loc501)
      %tmp78 = arith.mulf %tmp77_188, %tmp73_185 : tensor<32x1xf32> loc(#loc502)
      %tmp79 = arith.constant dense<-3.000000e+00> : tensor<32x1xf32> loc(#loc503)
      %tmp79_189 = arith.subf %tmp78, %tmp79 : tensor<32x1xf32> loc(#loc503)
      %tmp80 = tt.broadcast %tmp79_189 : tensor<32x1xf32> -> tensor<32x4xf32> loc(#loc504)
      %tmp80_190 = arith.mulf %tmp71_183, %tmp80 : tensor<32x4xf32> loc(#loc504)
      %tmp81 = arith.addf %tmp66, %tmp80_190 : tensor<32x4xf32> loc(#loc505)
      %tmp82 = tt.call @torch._inductor.runtime.triton_helpers.maximum__i32S32_1S_i64S1_1S__(%tmp8, %tmp11_77) : (tensor<32x1xi32>, tensor<1x1xi64>) -> tensor<32x1xi64> loc(#loc506)
      %tmp83 = tt.call @torch._inductor.runtime.triton_helpers.minimum__i64S32_1S_i64S1_1S__(%tmp82, %tmp13_78) : (tensor<32x1xi64>, tensor<1x1xi64>) -> tensor<32x1xi64> loc(#loc507)
      %tmp84 = arith.constant 7 : i32 loc(#loc508)
      %tmp84_191 = arith.constant 7 : i64 loc(#loc508)
      %tmp84_192 = arith.constant dense<7> : tensor<32x1xi64> loc(#loc508)
      %tmp84_193 = arith.muli %tmp84_192, %tmp83 : tensor<32x1xi64> loc(#loc508)
      %tmp84_194 = arith.addi %tmp24, %tmp84_193 : tensor<32x1xi64> loc(#loc509)
      %tmp84_195 = arith.constant 49 : i32 loc(#loc510)
      %tmp84_196 = arith.constant 49 : i32 loc(#loc510)
      %tmp84_197 = arith.constant dense<49> : tensor<1x4xi32> loc(#loc510)
      %tmp84_198 = arith.muli %tmp84_197, %r0_index_21 : tensor<1x4xi32> loc(#loc510)
      %tmp84_199 = arith.extsi %tmp84_198 : tensor<1x4xi32> to tensor<1x4xi64> loc(#loc511)
      %tmp84_200 = tt.broadcast %tmp84_194 : tensor<32x1xi64> -> tensor<32x4xi64> loc(#loc511)
      %tmp84_201 = tt.broadcast %tmp84_199 : tensor<1x4xi64> -> tensor<32x4xi64> loc(#loc511)
      %tmp84_202 = arith.addi %tmp84_200, %tmp84_201 : tensor<32x4xi64> loc(#loc511)
      %tmp84_203 = tt.splat %in_ptr0 : !tt.ptr<f32> -> tensor<32x4x!tt.ptr<f32>> loc(#loc512)
      %tmp84_204 = tt.addptr %tmp84_203, %tmp84_202 : tensor<32x4x!tt.ptr<f32>>, tensor<32x4xi64> loc(#loc512)
      %tmp84_205 = arith.constant 0.000000e+00 : f32 loc(#loc513)
      %tmp84_206 = tt.broadcast %r0_mask_22 : tensor<1x4xi1> -> tensor<32x4xi1> loc(#loc513)
      %tmp84_207 = arith.constant dense<0.000000e+00> : tensor<32x4xf32> loc(#loc513)
      %tmp84_208 = tt.load %tmp84_204, %tmp84_206, %tmp84_207 evictionPolicy = evict_last : tensor<32x4x!tt.ptr<f32>> loc(#loc513)
      %tmp85 = tt.broadcast %tmp41_112 : tensor<32x1xf32> -> tensor<32x4xf32> loc(#loc514)
      %tmp85_209 = arith.mulf %tmp84_208, %tmp85 : tensor<32x4xf32> loc(#loc514)
      %tmp86 = arith.constant 7 : i32 loc(#loc515)
      %tmp86_210 = arith.constant 7 : i64 loc(#loc515)
      %tmp86_211 = arith.constant dense<7> : tensor<32x1xi64> loc(#loc515)
      %tmp86_212 = arith.muli %tmp86_211, %tmp83 : tensor<32x1xi64> loc(#loc515)
      %tmp86_213 = arith.addi %tmp44, %tmp86_212 : tensor<32x1xi64> loc(#loc516)
      %tmp86_214 = arith.constant 49 : i32 loc(#loc517)
      %tmp86_215 = arith.constant 49 : i32 loc(#loc517)
      %tmp86_216 = arith.constant dense<49> : tensor<1x4xi32> loc(#loc517)
      %tmp86_217 = arith.muli %tmp86_216, %r0_index_21 : tensor<1x4xi32> loc(#loc517)
      %tmp86_218 = arith.extsi %tmp86_217 : tensor<1x4xi32> to tensor<1x4xi64> loc(#loc518)
      %tmp86_219 = tt.broadcast %tmp86_213 : tensor<32x1xi64> -> tensor<32x4xi64> loc(#loc518)
      %tmp86_220 = tt.broadcast %tmp86_218 : tensor<1x4xi64> -> tensor<32x4xi64> loc(#loc518)
      %tmp86_221 = arith.addi %tmp86_219, %tmp86_220 : tensor<32x4xi64> loc(#loc518)
      %tmp86_222 = tt.splat %in_ptr0 : !tt.ptr<f32> -> tensor<32x4x!tt.ptr<f32>> loc(#loc519)
      %tmp86_223 = tt.addptr %tmp86_222, %tmp86_221 : tensor<32x4x!tt.ptr<f32>>, tensor<32x4xi64> loc(#loc519)
      %tmp86_224 = arith.constant 0.000000e+00 : f32 loc(#loc520)
      %tmp86_225 = tt.broadcast %r0_mask_22 : tensor<1x4xi1> -> tensor<32x4xi1> loc(#loc520)
      %tmp86_226 = arith.constant dense<0.000000e+00> : tensor<32x4xf32> loc(#loc520)
      %tmp86_227 = tt.load %tmp86_223, %tmp86_225, %tmp86_226 evictionPolicy = evict_last : tensor<32x4x!tt.ptr<f32>> loc(#loc520)
      %tmp87 = tt.broadcast %tmp52_136 : tensor<32x1xf32> -> tensor<32x4xf32> loc(#loc521)
      %tmp87_228 = arith.mulf %tmp86_227, %tmp87 : tensor<32x4xf32> loc(#loc521)
      %tmp88 = arith.addf %tmp85_209, %tmp87_228 : tensor<32x4xf32> loc(#loc522)
      %tmp89 = arith.constant 7 : i32 loc(#loc523)
      %tmp89_229 = arith.constant 7 : i64 loc(#loc523)
      %tmp89_230 = arith.constant dense<7> : tensor<32x1xi64> loc(#loc523)
      %tmp89_231 = arith.muli %tmp89_230, %tmp83 : tensor<32x1xi64> loc(#loc523)
      %tmp89_232 = arith.addi %tmp57, %tmp89_231 : tensor<32x1xi64> loc(#loc524)
      %tmp89_233 = arith.constant 49 : i32 loc(#loc525)
      %tmp89_234 = arith.constant 49 : i32 loc(#loc525)
      %tmp89_235 = arith.constant dense<49> : tensor<1x4xi32> loc(#loc525)
      %tmp89_236 = arith.muli %tmp89_235, %r0_index_21 : tensor<1x4xi32> loc(#loc525)
      %tmp89_237 = arith.extsi %tmp89_236 : tensor<1x4xi32> to tensor<1x4xi64> loc(#loc526)
      %tmp89_238 = tt.broadcast %tmp89_232 : tensor<32x1xi64> -> tensor<32x4xi64> loc(#loc526)
      %tmp89_239 = tt.broadcast %tmp89_237 : tensor<1x4xi64> -> tensor<32x4xi64> loc(#loc526)
      %tmp89_240 = arith.addi %tmp89_238, %tmp89_239 : tensor<32x4xi64> loc(#loc526)
      %tmp89_241 = tt.splat %in_ptr0 : !tt.ptr<f32> -> tensor<32x4x!tt.ptr<f32>> loc(#loc527)
      %tmp89_242 = tt.addptr %tmp89_241, %tmp89_240 : tensor<32x4x!tt.ptr<f32>>, tensor<32x4xi64> loc(#loc527)
      %tmp89_243 = arith.constant 0.000000e+00 : f32 loc(#loc528)
      %tmp89_244 = tt.broadcast %r0_mask_22 : tensor<1x4xi1> -> tensor<32x4xi1> loc(#loc528)
      %tmp89_245 = arith.constant dense<0.000000e+00> : tensor<32x4xf32> loc(#loc528)
      %tmp89_246 = tt.load %tmp89_242, %tmp89_244, %tmp89_245 evictionPolicy = evict_last : tensor<32x4x!tt.ptr<f32>> loc(#loc528)
      %tmp90 = tt.broadcast %tmp64_161 : tensor<32x1xf32> -> tensor<32x4xf32> loc(#loc529)
      %tmp90_247 = arith.mulf %tmp89_246, %tmp90 : tensor<32x4xf32> loc(#loc529)
      %tmp91 = arith.addf %tmp88, %tmp90_247 : tensor<32x4xf32> loc(#loc530)
      %tmp92 = arith.constant 7 : i32 loc(#loc531)
      %tmp92_248 = arith.constant 7 : i64 loc(#loc531)
      %tmp92_249 = arith.constant dense<7> : tensor<32x1xi64> loc(#loc531)
      %tmp92_250 = arith.muli %tmp92_249, %tmp83 : tensor<32x1xi64> loc(#loc531)
      %tmp92_251 = arith.addi %tmp70, %tmp92_250 : tensor<32x1xi64> loc(#loc532)
      %tmp92_252 = arith.constant 49 : i32 loc(#loc533)
      %tmp92_253 = arith.constant 49 : i32 loc(#loc533)
      %tmp92_254 = arith.constant dense<49> : tensor<1x4xi32> loc(#loc533)
      %tmp92_255 = arith.muli %tmp92_254, %r0_index_21 : tensor<1x4xi32> loc(#loc533)
      %tmp92_256 = arith.extsi %tmp92_255 : tensor<1x4xi32> to tensor<1x4xi64> loc(#loc534)
      %tmp92_257 = tt.broadcast %tmp92_251 : tensor<32x1xi64> -> tensor<32x4xi64> loc(#loc534)
      %tmp92_258 = tt.broadcast %tmp92_256 : tensor<1x4xi64> -> tensor<32x4xi64> loc(#loc534)
      %tmp92_259 = arith.addi %tmp92_257, %tmp92_258 : tensor<32x4xi64> loc(#loc534)
      %tmp92_260 = tt.splat %in_ptr0 : !tt.ptr<f32> -> tensor<32x4x!tt.ptr<f32>> loc(#loc535)
      %tmp92_261 = tt.addptr %tmp92_260, %tmp92_259 : tensor<32x4x!tt.ptr<f32>>, tensor<32x4xi64> loc(#loc535)
      %tmp92_262 = arith.constant 0.000000e+00 : f32 loc(#loc536)
      %tmp92_263 = tt.broadcast %r0_mask_22 : tensor<1x4xi1> -> tensor<32x4xi1> loc(#loc536)
      %tmp92_264 = arith.constant dense<0.000000e+00> : tensor<32x4xf32> loc(#loc536)
      %tmp92_265 = tt.load %tmp92_261, %tmp92_263, %tmp92_264 evictionPolicy = evict_last : tensor<32x4x!tt.ptr<f32>> loc(#loc536)
      %tmp93 = tt.broadcast %tmp79_189 : tensor<32x1xf32> -> tensor<32x4xf32> loc(#loc537)
      %tmp93_266 = arith.mulf %tmp92_265, %tmp93 : tensor<32x4xf32> loc(#loc537)
      %tmp94 = arith.addf %tmp91, %tmp93_266 : tensor<32x4xf32> loc(#loc538)
      %tmp95 = arith.subf %tmp6_73, %tmp7 : tensor<32x1xf32> loc(#loc539)
      %tmp96 = tt.call @torch._inductor.runtime.triton_helpers.maximum__fp32S32_1S_fp32S1_1S__(%tmp95, %tmp27_102) : (tensor<32x1xf32>, tensor<1x1xf32>) -> tensor<32x1xf32> loc(#loc540)
      %tmp97 = tt.call @torch._inductor.runtime.triton_helpers.minimum__fp32S32_1S_fp32S1_1S__(%tmp96, %tmp29_103) : (tensor<32x1xf32>, tensor<1x1xf32>) -> tensor<32x1xf32> loc(#loc541)
      %tmp98 = arith.constant dense<1.000000e+00> : tensor<32x1xf32> loc(#loc542)
      %tmp98_267 = arith.addf %tmp97, %tmp98 : tensor<32x1xf32> loc(#loc542)
      %tmp99 = arith.constant dense<-7.500000e-01> : tensor<32x1xf32> loc(#loc543)
      %tmp99_268 = arith.mulf %tmp98_267, %tmp99 : tensor<32x1xf32> loc(#loc543)
      %tmp100 = arith.constant dense<-3.750000e+00> : tensor<32x1xf32> loc(#loc544)
      %tmp100_269 = arith.subf %tmp99_268, %tmp100 : tensor<32x1xf32> loc(#loc544)
      %tmp101 = arith.mulf %tmp100_269, %tmp98_267 : tensor<32x1xf32> loc(#loc545)
      %tmp102 = arith.constant dense<-6.000000e+00> : tensor<32x1xf32> loc(#loc546)
      %tmp102_270 = arith.addf %tmp101, %tmp102 : tensor<32x1xf32> loc(#loc546)
      %tmp103 = arith.mulf %tmp102_270, %tmp98_267 : tensor<32x1xf32> loc(#loc547)
      %tmp104 = arith.constant dense<-3.000000e+00> : tensor<32x1xf32> loc(#loc548)
      %tmp104_271 = arith.subf %tmp103, %tmp104 : tensor<32x1xf32> loc(#loc548)
      %tmp105 = tt.broadcast %tmp104_271 : tensor<32x1xf32> -> tensor<32x4xf32> loc(#loc549)
      %tmp105_272 = arith.mulf %tmp81, %tmp105 : tensor<32x4xf32> loc(#loc549)
      %tmp106 = arith.constant dense<1.250000e+00> : tensor<32x1xf32> loc(#loc550)
      %tmp106_273 = arith.mulf %tmp97, %tmp106 : tensor<32x1xf32> loc(#loc550)
      %tmp107 = arith.constant dense<2.250000e+00> : tensor<32x1xf32> loc(#loc551)
      %tmp107_274 = arith.subf %tmp106_273, %tmp107 : tensor<32x1xf32> loc(#loc551)
      %tmp108 = arith.mulf %tmp107_274, %tmp97 : tensor<32x1xf32> loc(#loc552)
      %tmp109 = arith.mulf %tmp108, %tmp97 : tensor<32x1xf32> loc(#loc553)
      %tmp110 = arith.constant dense<1.000000e+00> : tensor<32x1xf32> loc(#loc554)
      %tmp110_275 = arith.addf %tmp109, %tmp110 : tensor<32x1xf32> loc(#loc554)
      %tmp111 = tt.broadcast %tmp110_275 : tensor<32x1xf32> -> tensor<32x4xf32> loc(#loc555)
      %tmp111_276 = arith.mulf %tmp94, %tmp111 : tensor<32x4xf32> loc(#loc555)
      %tmp112 = arith.addf %tmp105_272, %tmp111_276 : tensor<32x4xf32> loc(#loc556)
      %tmp113 = arith.extsi %tmp8 : tensor<32x1xi32> to tensor<32x1xi64> loc(#loc557)
      %tmp113_277 = arith.constant dense<1> : tensor<32x1xi64> loc(#loc557)
      %tmp113_278 = arith.addi %tmp113, %tmp113_277 : tensor<32x1xi64> loc(#loc557)
      %tmp114 = tt.call @torch._inductor.runtime.triton_helpers.maximum__i64S32_1S_i64S1_1S__(%tmp113_278, %tmp11_77) : (tensor<32x1xi64>, tensor<1x1xi64>) -> tensor<32x1xi64> loc(#loc558)
      %tmp115 = tt.call @torch._inductor.runtime.triton_helpers.minimum__i64S32_1S_i64S1_1S__(%tmp114, %tmp13_78) : (tensor<32x1xi64>, tensor<1x1xi64>) -> tensor<32x1xi64> loc(#loc559)
      %tmp116 = arith.constant 7 : i32 loc(#loc560)
      %tmp116_279 = arith.constant 7 : i64 loc(#loc560)
      %tmp116_280 = arith.constant dense<7> : tensor<32x1xi64> loc(#loc560)
      %tmp116_281 = arith.muli %tmp116_280, %tmp115 : tensor<32x1xi64> loc(#loc560)
      %tmp116_282 = arith.addi %tmp24, %tmp116_281 : tensor<32x1xi64> loc(#loc561)
      %tmp116_283 = arith.constant 49 : i32 loc(#loc562)
      %tmp116_284 = arith.constant 49 : i32 loc(#loc562)
      %tmp116_285 = arith.constant dense<49> : tensor<1x4xi32> loc(#loc562)
      %tmp116_286 = arith.muli %tmp116_285, %r0_index_21 : tensor<1x4xi32> loc(#loc562)
      %tmp116_287 = arith.extsi %tmp116_286 : tensor<1x4xi32> to tensor<1x4xi64> loc(#loc563)
      %tmp116_288 = tt.broadcast %tmp116_282 : tensor<32x1xi64> -> tensor<32x4xi64> loc(#loc563)
      %tmp116_289 = tt.broadcast %tmp116_287 : tensor<1x4xi64> -> tensor<32x4xi64> loc(#loc563)
      %tmp116_290 = arith.addi %tmp116_288, %tmp116_289 : tensor<32x4xi64> loc(#loc563)
      %tmp116_291 = tt.splat %in_ptr0 : !tt.ptr<f32> -> tensor<32x4x!tt.ptr<f32>> loc(#loc564)
      %tmp116_292 = tt.addptr %tmp116_291, %tmp116_290 : tensor<32x4x!tt.ptr<f32>>, tensor<32x4xi64> loc(#loc564)
      %tmp116_293 = arith.constant 0.000000e+00 : f32 loc(#loc565)
      %tmp116_294 = tt.broadcast %r0_mask_22 : tensor<1x4xi1> -> tensor<32x4xi1> loc(#loc565)
      %tmp116_295 = arith.constant dense<0.000000e+00> : tensor<32x4xf32> loc(#loc565)
      %tmp116_296 = tt.load %tmp116_292, %tmp116_294, %tmp116_295 evictionPolicy = evict_last : tensor<32x4x!tt.ptr<f32>> loc(#loc565)
      %tmp117 = tt.broadcast %tmp41_112 : tensor<32x1xf32> -> tensor<32x4xf32> loc(#loc566)
      %tmp117_297 = arith.mulf %tmp116_296, %tmp117 : tensor<32x4xf32> loc(#loc566)
      %tmp118 = arith.constant 7 : i32 loc(#loc567)
      %tmp118_298 = arith.constant 7 : i64 loc(#loc567)
      %tmp118_299 = arith.constant dense<7> : tensor<32x1xi64> loc(#loc567)
      %tmp118_300 = arith.muli %tmp118_299, %tmp115 : tensor<32x1xi64> loc(#loc567)
      %tmp118_301 = arith.addi %tmp44, %tmp118_300 : tensor<32x1xi64> loc(#loc568)
      %tmp118_302 = arith.constant 49 : i32 loc(#loc569)
      %tmp118_303 = arith.constant 49 : i32 loc(#loc569)
      %tmp118_304 = arith.constant dense<49> : tensor<1x4xi32> loc(#loc569)
      %tmp118_305 = arith.muli %tmp118_304, %r0_index_21 : tensor<1x4xi32> loc(#loc569)
      %tmp118_306 = arith.extsi %tmp118_305 : tensor<1x4xi32> to tensor<1x4xi64> loc(#loc570)
      %tmp118_307 = tt.broadcast %tmp118_301 : tensor<32x1xi64> -> tensor<32x4xi64> loc(#loc570)
      %tmp118_308 = tt.broadcast %tmp118_306 : tensor<1x4xi64> -> tensor<32x4xi64> loc(#loc570)
      %tmp118_309 = arith.addi %tmp118_307, %tmp118_308 : tensor<32x4xi64> loc(#loc570)
      %tmp118_310 = tt.splat %in_ptr0 : !tt.ptr<f32> -> tensor<32x4x!tt.ptr<f32>> loc(#loc571)
      %tmp118_311 = tt.addptr %tmp118_310, %tmp118_309 : tensor<32x4x!tt.ptr<f32>>, tensor<32x4xi64> loc(#loc571)
      %tmp118_312 = arith.constant 0.000000e+00 : f32 loc(#loc572)
      %tmp118_313 = tt.broadcast %r0_mask_22 : tensor<1x4xi1> -> tensor<32x4xi1> loc(#loc572)
      %tmp118_314 = arith.constant dense<0.000000e+00> : tensor<32x4xf32> loc(#loc572)
      %tmp118_315 = tt.load %tmp118_311, %tmp118_313, %tmp118_314 evictionPolicy = evict_last : tensor<32x4x!tt.ptr<f32>> loc(#loc572)
      %tmp119 = tt.broadcast %tmp52_136 : tensor<32x1xf32> -> tensor<32x4xf32> loc(#loc573)
      %tmp119_316 = arith.mulf %tmp118_315, %tmp119 : tensor<32x4xf32> loc(#loc573)
      %tmp120 = arith.addf %tmp117_297, %tmp119_316 : tensor<32x4xf32> loc(#loc574)
      %tmp121 = arith.constant 7 : i32 loc(#loc575)
      %tmp121_317 = arith.constant 7 : i64 loc(#loc575)
      %tmp121_318 = arith.constant dense<7> : tensor<32x1xi64> loc(#loc575)
      %tmp121_319 = arith.muli %tmp121_318, %tmp115 : tensor<32x1xi64> loc(#loc575)
      %tmp121_320 = arith.addi %tmp57, %tmp121_319 : tensor<32x1xi64> loc(#loc576)
      %tmp121_321 = arith.constant 49 : i32 loc(#loc577)
      %tmp121_322 = arith.constant 49 : i32 loc(#loc577)
      %tmp121_323 = arith.constant dense<49> : tensor<1x4xi32> loc(#loc577)
      %tmp121_324 = arith.muli %tmp121_323, %r0_index_21 : tensor<1x4xi32> loc(#loc577)
      %tmp121_325 = arith.extsi %tmp121_324 : tensor<1x4xi32> to tensor<1x4xi64> loc(#loc578)
      %tmp121_326 = tt.broadcast %tmp121_320 : tensor<32x1xi64> -> tensor<32x4xi64> loc(#loc578)
      %tmp121_327 = tt.broadcast %tmp121_325 : tensor<1x4xi64> -> tensor<32x4xi64> loc(#loc578)
      %tmp121_328 = arith.addi %tmp121_326, %tmp121_327 : tensor<32x4xi64> loc(#loc578)
      %tmp121_329 = tt.splat %in_ptr0 : !tt.ptr<f32> -> tensor<32x4x!tt.ptr<f32>> loc(#loc579)
      %tmp121_330 = tt.addptr %tmp121_329, %tmp121_328 : tensor<32x4x!tt.ptr<f32>>, tensor<32x4xi64> loc(#loc579)
      %tmp121_331 = arith.constant 0.000000e+00 : f32 loc(#loc580)
      %tmp121_332 = tt.broadcast %r0_mask_22 : tensor<1x4xi1> -> tensor<32x4xi1> loc(#loc580)
      %tmp121_333 = arith.constant dense<0.000000e+00> : tensor<32x4xf32> loc(#loc580)
      %tmp121_334 = tt.load %tmp121_330, %tmp121_332, %tmp121_333 evictionPolicy = evict_last : tensor<32x4x!tt.ptr<f32>> loc(#loc580)
      %tmp122 = tt.broadcast %tmp64_161 : tensor<32x1xf32> -> tensor<32x4xf32> loc(#loc581)
      %tmp122_335 = arith.mulf %tmp121_334, %tmp122 : tensor<32x4xf32> loc(#loc581)
      %tmp123 = arith.addf %tmp120, %tmp122_335 : tensor<32x4xf32> loc(#loc582)
      %tmp124 = arith.constant 7 : i32 loc(#loc583)
      %tmp124_336 = arith.constant 7 : i64 loc(#loc583)
      %tmp124_337 = arith.constant dense<7> : tensor<32x1xi64> loc(#loc583)
      %tmp124_338 = arith.muli %tmp124_337, %tmp115 : tensor<32x1xi64> loc(#loc583)
      %tmp124_339 = arith.addi %tmp70, %tmp124_338 : tensor<32x1xi64> loc(#loc584)
      %tmp124_340 = arith.constant 49 : i32 loc(#loc585)
      %tmp124_341 = arith.constant 49 : i32 loc(#loc585)
      %tmp124_342 = arith.constant dense<49> : tensor<1x4xi32> loc(#loc585)
      %tmp124_343 = arith.muli %tmp124_342, %r0_index_21 : tensor<1x4xi32> loc(#loc585)
      %tmp124_344 = arith.extsi %tmp124_343 : tensor<1x4xi32> to tensor<1x4xi64> loc(#loc586)
      %tmp124_345 = tt.broadcast %tmp124_339 : tensor<32x1xi64> -> tensor<32x4xi64> loc(#loc586)
      %tmp124_346 = tt.broadcast %tmp124_344 : tensor<1x4xi64> -> tensor<32x4xi64> loc(#loc586)
      %tmp124_347 = arith.addi %tmp124_345, %tmp124_346 : tensor<32x4xi64> loc(#loc586)
      %tmp124_348 = tt.splat %in_ptr0 : !tt.ptr<f32> -> tensor<32x4x!tt.ptr<f32>> loc(#loc587)
      %tmp124_349 = tt.addptr %tmp124_348, %tmp124_347 : tensor<32x4x!tt.ptr<f32>>, tensor<32x4xi64> loc(#loc587)
      %tmp124_350 = arith.constant 0.000000e+00 : f32 loc(#loc588)
      %tmp124_351 = tt.broadcast %r0_mask_22 : tensor<1x4xi1> -> tensor<32x4xi1> loc(#loc588)
      %tmp124_352 = arith.constant dense<0.000000e+00> : tensor<32x4xf32> loc(#loc588)
      %tmp124_353 = tt.load %tmp124_349, %tmp124_351, %tmp124_352 evictionPolicy = evict_last : tensor<32x4x!tt.ptr<f32>> loc(#loc588)
      %tmp125 = tt.broadcast %tmp79_189 : tensor<32x1xf32> -> tensor<32x4xf32> loc(#loc589)
      %tmp125_354 = arith.mulf %tmp124_353, %tmp125 : tensor<32x4xf32> loc(#loc589)
      %tmp126 = arith.addf %tmp123, %tmp125_354 : tensor<32x4xf32> loc(#loc590)
      %tmp127 = arith.extsi %tmp8 : tensor<32x1xi32> to tensor<32x1xi64> loc(#loc591)
      %tmp127_355 = arith.constant dense<2> : tensor<32x1xi64> loc(#loc591)
      %tmp127_356 = arith.addi %tmp127, %tmp127_355 : tensor<32x1xi64> loc(#loc591)
      %tmp128 = tt.call @torch._inductor.runtime.triton_helpers.maximum__i64S32_1S_i64S1_1S__(%tmp127_356, %tmp11_77) : (tensor<32x1xi64>, tensor<1x1xi64>) -> tensor<32x1xi64> loc(#loc592)
      %tmp129 = tt.call @torch._inductor.runtime.triton_helpers.minimum__i64S32_1S_i64S1_1S__(%tmp128, %tmp13_78) : (tensor<32x1xi64>, tensor<1x1xi64>) -> tensor<32x1xi64> loc(#loc593)
      %tmp130 = arith.constant 7 : i32 loc(#loc594)
      %tmp130_357 = arith.constant 7 : i64 loc(#loc594)
      %tmp130_358 = arith.constant dense<7> : tensor<32x1xi64> loc(#loc594)
      %tmp130_359 = arith.muli %tmp130_358, %tmp129 : tensor<32x1xi64> loc(#loc594)
      %tmp130_360 = arith.addi %tmp24, %tmp130_359 : tensor<32x1xi64> loc(#loc595)
      %tmp130_361 = arith.constant 49 : i32 loc(#loc596)
      %tmp130_362 = arith.constant 49 : i32 loc(#loc596)
      %tmp130_363 = arith.constant dense<49> : tensor<1x4xi32> loc(#loc596)
      %tmp130_364 = arith.muli %tmp130_363, %r0_index_21 : tensor<1x4xi32> loc(#loc596)
      %tmp130_365 = arith.extsi %tmp130_364 : tensor<1x4xi32> to tensor<1x4xi64> loc(#loc597)
      %tmp130_366 = tt.broadcast %tmp130_360 : tensor<32x1xi64> -> tensor<32x4xi64> loc(#loc597)
      %tmp130_367 = tt.broadcast %tmp130_365 : tensor<1x4xi64> -> tensor<32x4xi64> loc(#loc597)
      %tmp130_368 = arith.addi %tmp130_366, %tmp130_367 : tensor<32x4xi64> loc(#loc597)
      %tmp130_369 = tt.splat %in_ptr0 : !tt.ptr<f32> -> tensor<32x4x!tt.ptr<f32>> loc(#loc598)
      %tmp130_370 = tt.addptr %tmp130_369, %tmp130_368 : tensor<32x4x!tt.ptr<f32>>, tensor<32x4xi64> loc(#loc598)
      %tmp130_371 = arith.constant 0.000000e+00 : f32 loc(#loc599)
      %tmp130_372 = tt.broadcast %r0_mask_22 : tensor<1x4xi1> -> tensor<32x4xi1> loc(#loc599)
      %tmp130_373 = arith.constant dense<0.000000e+00> : tensor<32x4xf32> loc(#loc599)
      %tmp130_374 = tt.load %tmp130_370, %tmp130_372, %tmp130_373 evictionPolicy = evict_last : tensor<32x4x!tt.ptr<f32>> loc(#loc599)
      %tmp131 = tt.broadcast %tmp41_112 : tensor<32x1xf32> -> tensor<32x4xf32> loc(#loc600)
      %tmp131_375 = arith.mulf %tmp130_374, %tmp131 : tensor<32x4xf32> loc(#loc600)
      %tmp132 = arith.constant 7 : i32 loc(#loc601)
      %tmp132_376 = arith.constant 7 : i64 loc(#loc601)
      %tmp132_377 = arith.constant dense<7> : tensor<32x1xi64> loc(#loc601)
      %tmp132_378 = arith.muli %tmp132_377, %tmp129 : tensor<32x1xi64> loc(#loc601)
      %tmp132_379 = arith.addi %tmp44, %tmp132_378 : tensor<32x1xi64> loc(#loc602)
      %tmp132_380 = arith.constant 49 : i32 loc(#loc603)
      %tmp132_381 = arith.constant 49 : i32 loc(#loc603)
      %tmp132_382 = arith.constant dense<49> : tensor<1x4xi32> loc(#loc603)
      %tmp132_383 = arith.muli %tmp132_382, %r0_index_21 : tensor<1x4xi32> loc(#loc603)
      %tmp132_384 = arith.extsi %tmp132_383 : tensor<1x4xi32> to tensor<1x4xi64> loc(#loc604)
      %tmp132_385 = tt.broadcast %tmp132_379 : tensor<32x1xi64> -> tensor<32x4xi64> loc(#loc604)
      %tmp132_386 = tt.broadcast %tmp132_384 : tensor<1x4xi64> -> tensor<32x4xi64> loc(#loc604)
      %tmp132_387 = arith.addi %tmp132_385, %tmp132_386 : tensor<32x4xi64> loc(#loc604)
      %tmp132_388 = tt.splat %in_ptr0 : !tt.ptr<f32> -> tensor<32x4x!tt.ptr<f32>> loc(#loc605)
      %tmp132_389 = tt.addptr %tmp132_388, %tmp132_387 : tensor<32x4x!tt.ptr<f32>>, tensor<32x4xi64> loc(#loc605)
      %tmp132_390 = arith.constant 0.000000e+00 : f32 loc(#loc606)
      %tmp132_391 = tt.broadcast %r0_mask_22 : tensor<1x4xi1> -> tensor<32x4xi1> loc(#loc606)
      %tmp132_392 = arith.constant dense<0.000000e+00> : tensor<32x4xf32> loc(#loc606)
      %tmp132_393 = tt.load %tmp132_389, %tmp132_391, %tmp132_392 evictionPolicy = evict_last : tensor<32x4x!tt.ptr<f32>> loc(#loc606)
      %tmp133 = tt.broadcast %tmp52_136 : tensor<32x1xf32> -> tensor<32x4xf32> loc(#loc607)
      %tmp133_394 = arith.mulf %tmp132_393, %tmp133 : tensor<32x4xf32> loc(#loc607)
      %tmp134 = arith.addf %tmp131_375, %tmp133_394 : tensor<32x4xf32> loc(#loc608)
      %tmp135 = arith.constant 7 : i32 loc(#loc609)
      %tmp135_395 = arith.constant 7 : i64 loc(#loc609)
      %tmp135_396 = arith.constant dense<7> : tensor<32x1xi64> loc(#loc609)
      %tmp135_397 = arith.muli %tmp135_396, %tmp129 : tensor<32x1xi64> loc(#loc609)
      %tmp135_398 = arith.addi %tmp57, %tmp135_397 : tensor<32x1xi64> loc(#loc610)
      %tmp135_399 = arith.constant 49 : i32 loc(#loc611)
      %tmp135_400 = arith.constant 49 : i32 loc(#loc611)
      %tmp135_401 = arith.constant dense<49> : tensor<1x4xi32> loc(#loc611)
      %tmp135_402 = arith.muli %tmp135_401, %r0_index_21 : tensor<1x4xi32> loc(#loc611)
      %tmp135_403 = arith.extsi %tmp135_402 : tensor<1x4xi32> to tensor<1x4xi64> loc(#loc612)
      %tmp135_404 = tt.broadcast %tmp135_398 : tensor<32x1xi64> -> tensor<32x4xi64> loc(#loc612)
      %tmp135_405 = tt.broadcast %tmp135_403 : tensor<1x4xi64> -> tensor<32x4xi64> loc(#loc612)
      %tmp135_406 = arith.addi %tmp135_404, %tmp135_405 : tensor<32x4xi64> loc(#loc612)
      %tmp135_407 = tt.splat %in_ptr0 : !tt.ptr<f32> -> tensor<32x4x!tt.ptr<f32>> loc(#loc613)
      %tmp135_408 = tt.addptr %tmp135_407, %tmp135_406 : tensor<32x4x!tt.ptr<f32>>, tensor<32x4xi64> loc(#loc613)
      %tmp135_409 = arith.constant 0.000000e+00 : f32 loc(#loc614)
      %tmp135_410 = tt.broadcast %r0_mask_22 : tensor<1x4xi1> -> tensor<32x4xi1> loc(#loc614)
      %tmp135_411 = arith.constant dense<0.000000e+00> : tensor<32x4xf32> loc(#loc614)
      %tmp135_412 = tt.load %tmp135_408, %tmp135_410, %tmp135_411 evictionPolicy = evict_last : tensor<32x4x!tt.ptr<f32>> loc(#loc614)
      %tmp136 = tt.broadcast %tmp64_161 : tensor<32x1xf32> -> tensor<32x4xf32> loc(#loc615)
      %tmp136_413 = arith.mulf %tmp135_412, %tmp136 : tensor<32x4xf32> loc(#loc615)
      %tmp137 = arith.addf %tmp134, %tmp136_413 : tensor<32x4xf32> loc(#loc616)
      %tmp138 = arith.constant 7 : i32 loc(#loc617)
      %tmp138_414 = arith.constant 7 : i64 loc(#loc617)
      %tmp138_415 = arith.constant dense<7> : tensor<32x1xi64> loc(#loc617)
      %tmp138_416 = arith.muli %tmp138_415, %tmp129 : tensor<32x1xi64> loc(#loc617)
      %tmp138_417 = arith.addi %tmp70, %tmp138_416 : tensor<32x1xi64> loc(#loc618)
      %tmp138_418 = arith.constant 49 : i32 loc(#loc619)
      %tmp138_419 = arith.constant 49 : i32 loc(#loc619)
      %tmp138_420 = arith.constant dense<49> : tensor<1x4xi32> loc(#loc619)
      %tmp138_421 = arith.muli %tmp138_420, %r0_index_21 : tensor<1x4xi32> loc(#loc619)
      %tmp138_422 = arith.extsi %tmp138_421 : tensor<1x4xi32> to tensor<1x4xi64> loc(#loc620)
      %tmp138_423 = tt.broadcast %tmp138_417 : tensor<32x1xi64> -> tensor<32x4xi64> loc(#loc620)
      %tmp138_424 = tt.broadcast %tmp138_422 : tensor<1x4xi64> -> tensor<32x4xi64> loc(#loc620)
      %tmp138_425 = arith.addi %tmp138_423, %tmp138_424 : tensor<32x4xi64> loc(#loc620)
      %tmp138_426 = tt.splat %in_ptr0 : !tt.ptr<f32> -> tensor<32x4x!tt.ptr<f32>> loc(#loc621)
      %tmp138_427 = tt.addptr %tmp138_426, %tmp138_425 : tensor<32x4x!tt.ptr<f32>>, tensor<32x4xi64> loc(#loc621)
      %tmp138_428 = arith.constant 0.000000e+00 : f32 loc(#loc622)
      %tmp138_429 = tt.broadcast %r0_mask_22 : tensor<1x4xi1> -> tensor<32x4xi1> loc(#loc622)
      %tmp138_430 = arith.constant dense<0.000000e+00> : tensor<32x4xf32> loc(#loc622)
      %tmp138_431 = tt.load %tmp138_427, %tmp138_429, %tmp138_430 evictionPolicy = evict_last : tensor<32x4x!tt.ptr<f32>> loc(#loc622)
      %tmp139 = tt.broadcast %tmp79_189 : tensor<32x1xf32> -> tensor<32x4xf32> loc(#loc623)
      %tmp139_432 = arith.mulf %tmp138_431, %tmp139 : tensor<32x4xf32> loc(#loc623)
      %tmp140 = arith.addf %tmp137, %tmp139_432 : tensor<32x4xf32> loc(#loc624)
      %tmp141 = arith.constant dense<1.000000e+00> : tensor<32x1xf32> loc(#loc625)
      %tmp141_433 = arith.subf %tmp141, %tmp97 : tensor<32x1xf32> loc(#loc625)
      %tmp142 = arith.constant dense<1.250000e+00> : tensor<32x1xf32> loc(#loc626)
      %tmp142_434 = arith.mulf %tmp141_433, %tmp142 : tensor<32x1xf32> loc(#loc626)
      %tmp143 = arith.constant dense<2.250000e+00> : tensor<32x1xf32> loc(#loc627)
      %tmp143_435 = arith.subf %tmp142_434, %tmp143 : tensor<32x1xf32> loc(#loc627)
      %tmp144 = arith.mulf %tmp143_435, %tmp141_433 : tensor<32x1xf32> loc(#loc628)
      %tmp145 = arith.mulf %tmp144, %tmp141_433 : tensor<32x1xf32> loc(#loc629)
      %tmp146 = arith.constant dense<1.000000e+00> : tensor<32x1xf32> loc(#loc630)
      %tmp146_436 = arith.addf %tmp145, %tmp146 : tensor<32x1xf32> loc(#loc630)
      %tmp147 = tt.broadcast %tmp146_436 : tensor<32x1xf32> -> tensor<32x4xf32> loc(#loc631)
      %tmp147_437 = arith.mulf %tmp126, %tmp147 : tensor<32x4xf32> loc(#loc631)
      %tmp148 = arith.addf %tmp112, %tmp147_437 : tensor<32x4xf32> loc(#loc632)
      %tmp149 = arith.constant dense<2.000000e+00> : tensor<32x1xf32> loc(#loc633)
      %tmp149_438 = arith.subf %tmp149, %tmp97 : tensor<32x1xf32> loc(#loc633)
      %tmp150 = arith.constant dense<-7.500000e-01> : tensor<32x1xf32> loc(#loc634)
      %tmp150_439 = arith.mulf %tmp149_438, %tmp150 : tensor<32x1xf32> loc(#loc634)
      %tmp151 = arith.constant dense<-3.750000e+00> : tensor<32x1xf32> loc(#loc635)
      %tmp151_440 = arith.subf %tmp150_439, %tmp151 : tensor<32x1xf32> loc(#loc635)
      %tmp152 = arith.mulf %tmp151_440, %tmp149_438 : tensor<32x1xf32> loc(#loc636)
      %tmp153 = arith.constant dense<-6.000000e+00> : tensor<32x1xf32> loc(#loc637)
      %tmp153_441 = arith.addf %tmp152, %tmp153 : tensor<32x1xf32> loc(#loc637)
      %tmp154 = arith.mulf %tmp153_441, %tmp149_438 : tensor<32x1xf32> loc(#loc638)
      %tmp155 = arith.constant dense<-3.000000e+00> : tensor<32x1xf32> loc(#loc639)
      %tmp155_442 = arith.subf %tmp154, %tmp155 : tensor<32x1xf32> loc(#loc639)
      %tmp156 = tt.broadcast %tmp155_442 : tensor<32x1xf32> -> tensor<32x4xf32> loc(#loc640)
      %tmp156_443 = arith.mulf %tmp140, %tmp156 : tensor<32x4xf32> loc(#loc640)
      %tmp157 = arith.addf %tmp148, %tmp156_443 : tensor<32x4xf32> loc(#loc641)
      %tmp160 = tt.broadcast %tmp159_42 : tensor<1x4xf32> -> tensor<32x4xf32> loc(#loc642)
      %tmp160_444 = arith.addf %tmp158_36, %tmp160 : tensor<32x4xf32> loc(#loc642)
      %tmp163 = arith.addf %tmp157, %tmp162_68 : tensor<32x4xf32> loc(#loc643)
      %tmp164 = arith.addf %tmp160_444, %tmp163 : tensor<32x4xf32> loc(#loc644)
      %c0_i32_445 = arith.constant 0 : i32 loc(#loc275)
      %9 = arith.cmpi eq, %r0_offset, %c0_i32_445 : i32 loc(#loc275)
      %10:3 = tt.call @torch._inductor.runtime.triton_helpers.welford_reduce__fp32S32_4S_fp32S32_4S_fp32S32_4S_fp32S32_4S_u1__(%tmp164, %tmp166_mean_18, %tmp166_m2_19, %tmp166_weight_20, %9) : (tensor<32x4xf32>, tensor<32x4xf32>, tensor<32x4xf32>, tensor<32x4xf32>, i1) -> (tensor<32x4xf32>, tensor<32x4xf32>, tensor<32x4xf32>) loc(#loc276)
      %tmp166_mean_446 = tt.broadcast %r0_mask_22 : tensor<1x4xi1> -> tensor<32x4xi1> loc(#loc645)
      %tmp166_mean_447 = arith.select %tmp166_mean_446, %10#0, %tmp166_mean_18 : tensor<32x4xi1>, tensor<32x4xf32> loc(#loc645)
      %tmp166_m2_448 = tt.broadcast %r0_mask_22 : tensor<1x4xi1> -> tensor<32x4xi1> loc(#loc646)
      %tmp166_m2_449 = arith.select %tmp166_m2_448, %10#1, %tmp166_m2_19 : tensor<32x4xi1>, tensor<32x4xf32> loc(#loc646)
      %tmp166_weight_450 = tt.broadcast %r0_mask_22 : tensor<1x4xi1> -> tensor<32x4xi1> loc(#loc647)
      %tmp166_weight_451 = arith.select %tmp166_weight_450, %10#2, %tmp166_weight_20 : tensor<32x4xi1>, tensor<32x4xf32> loc(#loc647)
      %c65536_i32 = arith.constant 65536 : i32 loc(#loc280)
      %c65536_i32_452 = arith.constant 65536 : i32 loc(#loc280)
      %cst = arith.constant dense<65536> : tensor<1x4xi32> loc(#loc280)
      %11 = arith.muli %cst, %r0_index_21 : tensor<1x4xi32> loc(#loc280)
      %12 = tt.broadcast %xindex_7 : tensor<32x1xi32> -> tensor<32x4xi32> loc(#loc281)
      %13 = tt.broadcast %11 : tensor<1x4xi32> -> tensor<32x4xi32> loc(#loc281)
      %14 = arith.addi %12, %13 : tensor<32x4xi32> loc(#loc281)
      %15 = tt.splat %in_out_ptr0 : !tt.ptr<f32> -> tensor<32x4x!tt.ptr<f32>> loc(#loc282)
      %16 = tt.addptr %15, %14 : tensor<32x4x!tt.ptr<f32>>, tensor<32x4xi32> loc(#loc282)
      %17 = tt.broadcast %r0_mask_22 : tensor<1x4xi1> -> tensor<32x4xi1> loc(#loc283)
      tt.store %16, %tmp157, %17 : tensor<32x4x!tt.ptr<f32>> loc(#loc283)
      scf.yield %tmp166_mean_447, %tmp166_m2_449, %tmp166_weight_451 : tensor<32x4xf32>, tensor<32x4xf32>, tensor<32x4xf32> loc(#loc284)
    } loc(#loc703)
    %4:3 = tt.call @"torch._inductor.runtime.triton_helpers.welford__fp32S32_4S_fp32S32_4S_fp32S32_4S__(3,)cconstexpr_1_"(%tmp166_weight_17#0, %tmp166_weight_17#1, %tmp166_weight_17#2) : (tensor<32x4xf32>, tensor<32x4xf32>, tensor<32x4xf32>) -> (tensor<32xf32>, tensor<32xf32>, tensor<32xf32>) loc(#loc285)
    %tmp166 = tt.expand_dims %4#0 {axis = 1 : i32} : tensor<32xf32> -> tensor<32x1xf32> loc(#loc648)
    %tmp170 = tt.expand_dims %4#1 {axis = 1 : i32} : tensor<32xf32> -> tensor<32x1xf32> loc(#loc649)
    %tmp171 = tt.expand_dims %4#2 {axis = 1 : i32} : tensor<32xf32> -> tensor<32x1xf32> loc(#loc650)
    %5 = tt.splat %out_ptr0 : !tt.ptr<f32> -> tensor<32x1x!tt.ptr<f32>> loc(#loc289)
    %6 = tt.addptr %5, %xindex_7 : tensor<32x1x!tt.ptr<f32>>, tensor<32x1xi32> loc(#loc289)
    tt.store %6, %tmp166 : tensor<32x1x!tt.ptr<f32>> loc(#loc290)
    %7 = tt.splat %out_ptr1 : !tt.ptr<f32> -> tensor<32x1x!tt.ptr<f32>> loc(#loc291)
    %8 = tt.addptr %7, %xindex_7 : tensor<32x1x!tt.ptr<f32>>, tensor<32x1xi32> loc(#loc291)
    tt.store %8, %tmp170 : tensor<32x1x!tt.ptr<f32>> loc(#loc292)
    tt.return loc(#loc293)
  } loc(#loc)
  tt.func private @"triton.language.standard.zeros____(0, 0)cconstexpr_32__(0, 1)cconstexpr_4__(1,)cconstexpr_fp32_"() -> tensor<32x4xf32> attributes {noinline = false} {
    %cst = arith.constant 0.000000e+00 : f32 loc(#loc295)
    %cst_0 = arith.constant dense<0.000000e+00> : tensor<32x4xf32> loc(#loc295)
    tt.return %cst_0 : tensor<32x4xf32> loc(#loc296)
  ^bb1:  // no predecessors
    %0 = ub.poison : tensor<32x4xf32> loc(#loc297)
    tt.return %0 : tensor<32x4xf32> loc(#loc297)
  } loc(#loc294)
  tt.func private @torch._inductor.runtime.triton_helpers.maximum__i64S32_1S_i64S1_1S__(%a: tensor<32x1xi64> loc("a"(#loc298)), %b: tensor<1x1xi64> loc("b"(#loc298))) -> tensor<32x1xi64> attributes {noinline = false} {
    %mask = tt.broadcast %b : tensor<1x1xi64> -> tensor<32x1xi64> loc(#loc653)
    %mask_0 = arith.cmpi sgt, %a, %mask : tensor<32x1xi64> loc(#loc693)
    %0 = tt.call @torch._inductor.runtime.triton_helpers.is_floating__i64S32_1S__(%a) : (tensor<32x1xi64>) -> i1 loc(#loc300)
    %1 = scf.if %0 -> (tensor<32x1xi1>) {
      %mask_1 = arith.cmpi ne, %a, %a : tensor<32x1xi64> loc(#loc654)
      %mask_2 = arith.ori %mask_0, %mask_1 : tensor<32x1xi1> loc(#loc694)
      scf.yield %mask_2 : tensor<32x1xi1> loc(#loc694)
    } else {
      scf.yield %mask_0 : tensor<32x1xi1> loc(#loc301)
    } loc(#loc301)
    %2 = tt.broadcast %b : tensor<1x1xi64> -> tensor<32x1xi64> loc(#loc304)
    %3 = arith.select %1, %a, %2 : tensor<32x1xi1>, tensor<32x1xi64> loc(#loc304)
    tt.return %3 : tensor<32x1xi64> loc(#loc305)
  ^bb1:  // no predecessors
    %4 = ub.poison : tensor<32x1xi64> loc(#loc306)
    tt.return %4 : tensor<32x1xi64> loc(#loc306)
  } loc(#loc298)
  tt.func private @torch._inductor.runtime.triton_helpers.is_floating__i64S32_1S__(%x: tensor<32x1xi64> loc("x"(#loc307))) -> i1 attributes {noinline = false} {
    %0 = tt.call @torch._inductor.runtime.triton_helpers.promote_to_tensor__i64S32_1S__(%x) : (tensor<32x1xi64>) -> tensor<32x1xi64> loc(#loc308)
    %false = arith.constant false loc(#loc309)
    tt.return %false : i1 loc(#loc309)
  ^bb1:  // no predecessors
    %1 = ub.poison : i1 loc(#loc310)
    tt.return %1 : i1 loc(#loc310)
  } loc(#loc307)
  tt.func private @torch._inductor.runtime.triton_helpers.promote_to_tensor__i64S32_1S__(%x: tensor<32x1xi64> loc("x"(#loc311))) -> tensor<32x1xi64> attributes {noinline = false} {
    %0 = tt.call @"triton.language.standard.zeros____(0, 0)cconstexpr_1__(1,)cconstexpr_int1_"() : () -> tensor<1xi1> loc(#loc312)
    %1 = arith.extui %0 : tensor<1xi1> to tensor<1xi64> loc(#loc313)
    %2 = tt.expand_dims %1 {axis = 0 : i32} : tensor<1xi64> -> tensor<1x1xi64> loc(#loc313)
    %3 = tt.broadcast %2 : tensor<1x1xi64> -> tensor<32x1xi64> loc(#loc313)
    %4 = arith.addi %x, %3 : tensor<32x1xi64> loc(#loc313)
    tt.return %4 : tensor<32x1xi64> loc(#loc314)
  ^bb1:  // no predecessors
    %5 = ub.poison : tensor<32x1xi64> loc(#loc315)
    tt.return %5 : tensor<32x1xi64> loc(#loc315)
  } loc(#loc311)
  tt.func private @"triton.language.standard.zeros____(0, 0)cconstexpr_1__(1,)cconstexpr_int1_"() -> tensor<1xi1> attributes {noinline = false} {
    %false = arith.constant false loc(#loc295)
    %cst = arith.constant dense<false> : tensor<1xi1> loc(#loc295)
    tt.return %cst : tensor<1xi1> loc(#loc296)
  ^bb1:  // no predecessors
    %0 = ub.poison : tensor<1xi1> loc(#loc297)
    tt.return %0 : tensor<1xi1> loc(#loc297)
  } loc(#loc294)
  tt.func private @torch._inductor.runtime.triton_helpers.minimum__i64S32_1S_i64S1_1S__(%a: tensor<32x1xi64> loc("a"(#loc316)), %b: tensor<1x1xi64> loc("b"(#loc316))) -> tensor<32x1xi64> attributes {noinline = false} {
    %mask = tt.broadcast %b : tensor<1x1xi64> -> tensor<32x1xi64> loc(#loc660)
    %mask_0 = arith.cmpi slt, %a, %mask : tensor<32x1xi64> loc(#loc695)
    %0 = tt.call @torch._inductor.runtime.triton_helpers.is_floating__i64S32_1S__(%a) : (tensor<32x1xi64>) -> i1 loc(#loc318)
    %1 = scf.if %0 -> (tensor<32x1xi1>) {
      %mask_1 = arith.cmpi ne, %a, %a : tensor<32x1xi64> loc(#loc661)
      %mask_2 = arith.ori %mask_0, %mask_1 : tensor<32x1xi1> loc(#loc696)
      scf.yield %mask_2 : tensor<32x1xi1> loc(#loc696)
    } else {
      scf.yield %mask_0 : tensor<32x1xi1> loc(#loc319)
    } loc(#loc319)
    %2 = tt.broadcast %b : tensor<1x1xi64> -> tensor<32x1xi64> loc(#loc322)
    %3 = arith.select %1, %a, %2 : tensor<32x1xi1>, tensor<32x1xi64> loc(#loc322)
    tt.return %3 : tensor<32x1xi64> loc(#loc323)
  ^bb1:  // no predecessors
    %4 = ub.poison : tensor<32x1xi64> loc(#loc324)
    tt.return %4 : tensor<32x1xi64> loc(#loc324)
  } loc(#loc316)
  tt.func private @torch._inductor.runtime.triton_helpers.maximum__fp32S32_1S_fp32S1_1S__(%a: tensor<32x1xf32> loc("a"(#loc298)), %b: tensor<1x1xf32> loc("b"(#loc298))) -> tensor<32x1xf32> attributes {noinline = false} {
    %mask = tt.broadcast %b : tensor<1x1xf32> -> tensor<32x1xf32> loc(#loc653)
    %mask_0 = arith.cmpf ogt, %a, %mask : tensor<32x1xf32> loc(#loc693)
    %0 = tt.call @torch._inductor.runtime.triton_helpers.is_floating__fp32S32_1S__(%a) : (tensor<32x1xf32>) -> i1 loc(#loc300)
    %1 = scf.if %0 -> (tensor<32x1xi1>) {
      %mask_1 = arith.cmpf une, %a, %a : tensor<32x1xf32> loc(#loc654)
      %mask_2 = arith.ori %mask_0, %mask_1 : tensor<32x1xi1> loc(#loc694)
      scf.yield %mask_2 : tensor<32x1xi1> loc(#loc694)
    } else {
      scf.yield %mask_0 : tensor<32x1xi1> loc(#loc301)
    } loc(#loc301)
    %2 = tt.broadcast %b : tensor<1x1xf32> -> tensor<32x1xf32> loc(#loc304)
    %3 = arith.select %1, %a, %2 : tensor<32x1xi1>, tensor<32x1xf32> loc(#loc304)
    tt.return %3 : tensor<32x1xf32> loc(#loc305)
  ^bb1:  // no predecessors
    %4 = ub.poison : tensor<32x1xf32> loc(#loc306)
    tt.return %4 : tensor<32x1xf32> loc(#loc306)
  } loc(#loc298)
  tt.func private @torch._inductor.runtime.triton_helpers.is_floating__fp32S32_1S__(%x: tensor<32x1xf32> loc("x"(#loc307))) -> i1 attributes {noinline = false} {
    %0 = tt.call @torch._inductor.runtime.triton_helpers.promote_to_tensor__fp32S32_1S__(%x) : (tensor<32x1xf32>) -> tensor<32x1xf32> loc(#loc308)
    %true = arith.constant true loc(#loc309)
    tt.return %true : i1 loc(#loc309)
  ^bb1:  // no predecessors
    %1 = ub.poison : i1 loc(#loc310)
    tt.return %1 : i1 loc(#loc310)
  } loc(#loc307)
  tt.func private @torch._inductor.runtime.triton_helpers.promote_to_tensor__fp32S32_1S__(%x: tensor<32x1xf32> loc("x"(#loc311))) -> tensor<32x1xf32> attributes {noinline = false} {
    %0 = tt.call @"triton.language.standard.zeros____(0, 0)cconstexpr_1__(1,)cconstexpr_int1_"() : () -> tensor<1xi1> loc(#loc312)
    %1 = arith.uitofp %0 : tensor<1xi1> to tensor<1xf32> loc(#loc313)
    %2 = tt.expand_dims %1 {axis = 0 : i32} : tensor<1xf32> -> tensor<1x1xf32> loc(#loc313)
    %3 = tt.broadcast %2 : tensor<1x1xf32> -> tensor<32x1xf32> loc(#loc313)
    %4 = arith.addf %x, %3 : tensor<32x1xf32> loc(#loc313)
    tt.return %4 : tensor<32x1xf32> loc(#loc314)
  ^bb1:  // no predecessors
    %5 = ub.poison : tensor<32x1xf32> loc(#loc315)
    tt.return %5 : tensor<32x1xf32> loc(#loc315)
  } loc(#loc311)
  tt.func private @torch._inductor.runtime.triton_helpers.minimum__fp32S32_1S_fp32S1_1S__(%a: tensor<32x1xf32> loc("a"(#loc316)), %b: tensor<1x1xf32> loc("b"(#loc316))) -> tensor<32x1xf32> attributes {noinline = false} {
    %mask = tt.broadcast %b : tensor<1x1xf32> -> tensor<32x1xf32> loc(#loc660)
    %mask_0 = arith.cmpf olt, %a, %mask : tensor<32x1xf32> loc(#loc695)
    %0 = tt.call @torch._inductor.runtime.triton_helpers.is_floating__fp32S32_1S__(%a) : (tensor<32x1xf32>) -> i1 loc(#loc318)
    %1 = scf.if %0 -> (tensor<32x1xi1>) {
      %mask_1 = arith.cmpf une, %a, %a : tensor<32x1xf32> loc(#loc661)
      %mask_2 = arith.ori %mask_0, %mask_1 : tensor<32x1xi1> loc(#loc696)
      scf.yield %mask_2 : tensor<32x1xi1> loc(#loc696)
    } else {
      scf.yield %mask_0 : tensor<32x1xi1> loc(#loc319)
    } loc(#loc319)
    %2 = tt.broadcast %b : tensor<1x1xf32> -> tensor<32x1xf32> loc(#loc322)
    %3 = arith.select %1, %a, %2 : tensor<32x1xi1>, tensor<32x1xf32> loc(#loc322)
    tt.return %3 : tensor<32x1xf32> loc(#loc323)
  ^bb1:  // no predecessors
    %4 = ub.poison : tensor<32x1xf32> loc(#loc324)
    tt.return %4 : tensor<32x1xf32> loc(#loc324)
  } loc(#loc316)
  tt.func private @torch._inductor.runtime.triton_helpers.maximum__i32S32_1S_i64S1_1S__(%a: tensor<32x1xi32> loc("a"(#loc298)), %b: tensor<1x1xi64> loc("b"(#loc298))) -> tensor<32x1xi64> attributes {noinline = false} {
    %mask = arith.extsi %a : tensor<32x1xi32> to tensor<32x1xi64> loc(#loc653)
    %mask_0 = tt.broadcast %b : tensor<1x1xi64> -> tensor<32x1xi64> loc(#loc653)
    %mask_1 = arith.cmpi sgt, %mask, %mask_0 : tensor<32x1xi64> loc(#loc693)
    %0 = tt.call @torch._inductor.runtime.triton_helpers.is_floating__i32S32_1S__(%a) : (tensor<32x1xi32>) -> i1 loc(#loc300)
    %1 = scf.if %0 -> (tensor<32x1xi1>) {
      %mask_2 = arith.cmpi ne, %a, %a : tensor<32x1xi32> loc(#loc654)
      %mask_3 = arith.ori %mask_1, %mask_2 : tensor<32x1xi1> loc(#loc694)
      scf.yield %mask_3 : tensor<32x1xi1> loc(#loc694)
    } else {
      scf.yield %mask_1 : tensor<32x1xi1> loc(#loc301)
    } loc(#loc301)
    %2 = arith.extsi %a : tensor<32x1xi32> to tensor<32x1xi64> loc(#loc304)
    %3 = tt.broadcast %b : tensor<1x1xi64> -> tensor<32x1xi64> loc(#loc304)
    %4 = arith.select %1, %2, %3 : tensor<32x1xi1>, tensor<32x1xi64> loc(#loc304)
    tt.return %4 : tensor<32x1xi64> loc(#loc305)
  ^bb1:  // no predecessors
    %5 = ub.poison : tensor<32x1xi64> loc(#loc306)
    tt.return %5 : tensor<32x1xi64> loc(#loc306)
  } loc(#loc298)
  tt.func private @torch._inductor.runtime.triton_helpers.is_floating__i32S32_1S__(%x: tensor<32x1xi32> loc("x"(#loc307))) -> i1 attributes {noinline = false} {
    %0 = tt.call @torch._inductor.runtime.triton_helpers.promote_to_tensor__i32S32_1S__(%x) : (tensor<32x1xi32>) -> tensor<32x1xi32> loc(#loc308)
    %false = arith.constant false loc(#loc309)
    tt.return %false : i1 loc(#loc309)
  ^bb1:  // no predecessors
    %1 = ub.poison : i1 loc(#loc310)
    tt.return %1 : i1 loc(#loc310)
  } loc(#loc307)
  tt.func private @torch._inductor.runtime.triton_helpers.promote_to_tensor__i32S32_1S__(%x: tensor<32x1xi32> loc("x"(#loc311))) -> tensor<32x1xi32> attributes {noinline = false} {
    %0 = tt.call @"triton.language.standard.zeros____(0, 0)cconstexpr_1__(1,)cconstexpr_int1_"() : () -> tensor<1xi1> loc(#loc312)
    %1 = arith.extui %0 : tensor<1xi1> to tensor<1xi32> loc(#loc313)
    %2 = tt.expand_dims %1 {axis = 0 : i32} : tensor<1xi32> -> tensor<1x1xi32> loc(#loc313)
    %3 = tt.broadcast %2 : tensor<1x1xi32> -> tensor<32x1xi32> loc(#loc313)
    %4 = arith.addi %x, %3 : tensor<32x1xi32> loc(#loc313)
    tt.return %4 : tensor<32x1xi32> loc(#loc314)
  ^bb1:  // no predecessors
    %5 = ub.poison : tensor<32x1xi32> loc(#loc315)
    tt.return %5 : tensor<32x1xi32> loc(#loc315)
  } loc(#loc311)
  tt.func private @torch._inductor.runtime.triton_helpers.welford_reduce__fp32S32_4S_fp32S32_4S_fp32S32_4S_fp32S32_4S_u1__(%new_mean: tensor<32x4xf32> loc("new_mean"(#loc663)), %mean: tensor<32x4xf32> loc("mean"(#loc325)), %m2: tensor<32x4xf32> loc("m2"(#loc325)), %weight: tensor<32x4xf32> loc("weight"(#loc325)), %first_iteration: i1 loc("first_iteration"(#loc325))) -> (tensor<32x4xf32>, tensor<32x4xf32>, tensor<32x4xf32>) attributes {noinline = false} {
    %0:3 = scf.if %first_iteration -> (tensor<32x4xf32>, tensor<32x4xf32>, tensor<32x4xf32>) {
      %new_weight = arith.constant 1.000000e+00 : f32 loc(#loc668)
      %new_weight_0 = arith.constant dense<1.000000e+00> : tensor<32x4xf32> loc(#loc698)
      %new_m2 = tt.call @triton.language.standard.zeros_like__fp32S32_4S__(%m2) : (tensor<32x4xf32>) -> tensor<32x4xf32> loc(#loc699)
      scf.yield %new_m2, %new_mean, %new_weight_0 : tensor<32x4xf32>, tensor<32x4xf32>, tensor<32x4xf32> loc(#loc699)
    } else {
      %delta = arith.subf %new_mean, %mean : tensor<32x4xf32> loc(#loc670)
      %new_weight = arith.constant 1 : i32 loc(#loc671)
      %new_weight_0 = arith.constant 1.000000e+00 : f32 loc(#loc671)
      %new_weight_1 = arith.constant dense<1.000000e+00> : tensor<32x4xf32> loc(#loc671)
      %new_weight_2 = arith.addf %weight, %new_weight_1 : tensor<32x4xf32> loc(#loc700)
      %new_mean_3 = arith.divf %delta, %new_weight_2 : tensor<32x4xf32> loc(#loc672)
      %new_mean_4 = arith.addf %mean, %new_mean_3 : tensor<32x4xf32> loc(#loc701)
      %new_m2 = arith.subf %new_mean, %new_mean_4 : tensor<32x4xf32> loc(#loc674)
      %new_m2_5 = arith.mulf %delta, %new_m2 : tensor<32x4xf32> loc(#loc675)
      %new_m2_6 = arith.addf %m2, %new_m2_5 : tensor<32x4xf32> loc(#loc702)
      scf.yield %new_m2_6, %new_mean_4, %new_weight_2 : tensor<32x4xf32>, tensor<32x4xf32>, tensor<32x4xf32> loc(#loc676)
    } loc(#loc326)
    tt.return %0#1, %0#0, %0#2 : tensor<32x4xf32>, tensor<32x4xf32>, tensor<32x4xf32> loc(#loc336)
  ^bb1:  // no predecessors
    %1 = ub.poison : tensor<32x4xf32> loc(#loc337)
    %2 = ub.poison : tensor<32x4xf32> loc(#loc337)
    %3 = ub.poison : tensor<32x4xf32> loc(#loc337)
    tt.return %1, %2, %3 : tensor<32x4xf32>, tensor<32x4xf32>, tensor<32x4xf32> loc(#loc337)
  } loc(#loc325)
  tt.func private @triton.language.standard.zeros_like__fp32S32_4S__(%input: tensor<32x4xf32> loc("input"(#loc338))) -> tensor<32x4xf32> attributes {noinline = false} {
    %0 = tt.call @"triton.language.standard.zeros____(0, 0)cconstexpr_32__(0, 1)cconstexpr_4__(1,)cconstexpr_fp32_"() : () -> tensor<32x4xf32> loc(#loc339)
    tt.return %0 : tensor<32x4xf32> loc(#loc340)
  ^bb1:  // no predecessors
    %1 = ub.poison : tensor<32x4xf32> loc(#loc341)
    tt.return %1 : tensor<32x4xf32> loc(#loc341)
  } loc(#loc338)
  tt.func private @"torch._inductor.runtime.triton_helpers.welford__fp32S32_4S_fp32S32_4S_fp32S32_4S__(3,)cconstexpr_1_"(%mean: tensor<32x4xf32> loc("mean"(#loc342)), %m2: tensor<32x4xf32> loc("m2"(#loc342)), %weight: tensor<32x4xf32> loc("weight"(#loc342))) -> (tensor<32xf32>, tensor<32xf32>, tensor<32xf32>) attributes {noinline = false} {
    %0:3 = "tt.reduce"(%mean, %m2, %weight) <{axis = 1 : i32}> ({
    ^bb0(%arg3: f32 loc(unknown), %arg4: f32 loc(unknown), %arg5: f32 loc(unknown), %arg6: f32 loc(unknown), %arg7: f32 loc(unknown), %arg8: f32 loc(unknown)):
      %4:3 = tt.call @torch._inductor.runtime.triton_helpers.welford_combine__fp32_fp32_fp32_fp32_fp32_fp32__(%arg3, %arg4, %arg5, %arg6, %arg7, %arg8) : (f32, f32, f32, f32, f32, f32) -> (f32, f32, f32) loc(#loc343)
      tt.reduce.return %4#0, %4#1, %4#2 : f32, f32, f32 loc(#loc343)
    }) : (tensor<32x4xf32>, tensor<32x4xf32>, tensor<32x4xf32>) -> (tensor<32xf32>, tensor<32xf32>, tensor<32xf32>) loc(#loc343)
    tt.return %0#0, %0#1, %0#2 : tensor<32xf32>, tensor<32xf32>, tensor<32xf32> loc(#loc345)
  ^bb1:  // no predecessors
    %1 = ub.poison : tensor<32xf32> loc(#loc346)
    %2 = ub.poison : tensor<32xf32> loc(#loc346)
    %3 = ub.poison : tensor<32xf32> loc(#loc346)
    tt.return %1, %2, %3 : tensor<32xf32>, tensor<32xf32>, tensor<32xf32> loc(#loc346)
  } loc(#loc342)
  tt.func private @torch._inductor.runtime.triton_helpers.welford_combine__fp32_fp32_fp32_fp32_fp32_fp32__(%mean_1: f32 loc("mean_1"(#loc347)), %m2_1: f32 loc("m2_1"(#loc347)), %weight_1: f32 loc("weight_1"(#loc347)), %mean_2: f32 loc("mean_2"(#loc347)), %m2_2: f32 loc("m2_2"(#loc347)), %weight_2: f32 loc("weight_2"(#loc347))) -> (f32, f32, f32) attributes {noinline = false} {
    %delta = arith.subf %mean_2, %mean_1 : f32 loc(#loc687)
    %new_weight = arith.addf %weight_1, %weight_2 : f32 loc(#loc688)
    %w2_over_w = arith.constant 0.000000e+00 : f32 loc(#loc689)
    %w2_over_w_0 = arith.cmpf oeq, %new_weight, %w2_over_w : f32 loc(#loc689)
    %w2_over_w_1 = arith.divf %weight_2, %new_weight : f32 loc(#loc690)
    %w2_over_w_2 = arith.constant 0.000000e+00 : f32 loc(#loc691)
    %w2_over_w_3 = arith.constant 0.000000e+00 : f32 loc(#loc691)
    %w2_over_w_4 = arith.select %w2_over_w_0, %w2_over_w_3, %w2_over_w_1 : f32 loc(#loc691)
    %0 = arith.mulf %delta, %w2_over_w_4 : f32 loc(#loc353)
    %1 = arith.addf %mean_1, %0 : f32 loc(#loc354)
    %2 = arith.addf %m2_1, %m2_2 : f32 loc(#loc355)
    %3 = arith.mulf %delta, %delta : f32 loc(#loc356)
    %4 = arith.mulf %3, %weight_1 : f32 loc(#loc357)
    %5 = arith.mulf %4, %w2_over_w_4 : f32 loc(#loc358)
    %6 = arith.addf %2, %5 : f32 loc(#loc359)
    tt.return %1, %6, %new_weight : f32, f32, f32 loc(#loc360)
  ^bb1:  // no predecessors
    %7 = ub.poison : f32 loc(#loc361)
    %8 = ub.poison : f32 loc(#loc361)
    %9 = ub.poison : f32 loc(#loc361)
    tt.return %7, %8, %9 : f32, f32, f32 loc(#loc361)
  } loc(#loc347)
} loc(#loc)
#loc1 = loc("/home/Shuai/AIAA3201_Project/AIAA-3102-Proj_3/.tmp/torchinductor_Shuai/3o/c3ofdj6lglcgrs46g5iivrhzdk5lby2m4phx6raxjtj6gsxfc4vx.py":19:13)
#loc2 = loc("/home/Shuai/AIAA3201_Project/AIAA-3102-Proj_3/.tmp/torchinductor_Shuai/3o/c3ofdj6lglcgrs46g5iivrhzdk5lby2m4phx6raxjtj6gsxfc4vx.py":20:15)
#loc3 = loc("/home/Shuai/AIAA3201_Project/AIAA-3102-Proj_3/.tmp/torchinductor_Shuai/3o/c3ofdj6lglcgrs46g5iivrhzdk5lby2m4phx6raxjtj6gsxfc4vx.py":23:28)
#loc4 = loc("/home/Shuai/AIAA3201_Project/AIAA-3102-Proj_3/.tmp/torchinductor_Shuai/3o/c3ofdj6lglcgrs46g5iivrhzdk5lby2m4phx6raxjtj6gsxfc4vx.py":23:33)
#loc5 = loc("/home/Shuai/AIAA3201_Project/AIAA-3102-Proj_3/.tmp/torchinductor_Shuai/3o/c3ofdj6lglcgrs46g5iivrhzdk5lby2m4phx6raxjtj6gsxfc4vx.py":24:36)
#loc6 = loc("/home/Shuai/AIAA3201_Project/AIAA-3102-Proj_3/.tmp/torchinductor_Shuai/3o/c3ofdj6lglcgrs46g5iivrhzdk5lby2m4phx6raxjtj6gsxfc4vx.py":24:44)
#loc7 = loc("/home/Shuai/AIAA3201_Project/AIAA-3102-Proj_3/.tmp/torchinductor_Shuai/3o/c3ofdj6lglcgrs46g5iivrhzdk5lby2m4phx6raxjtj6gsxfc4vx.py":24:23)
#loc8 = loc("/home/Shuai/AIAA3201_Project/AIAA-3102-Proj_3/.tmp/torchinductor_Shuai/3o/c3ofdj6lglcgrs46g5iivrhzdk5lby2m4phx6raxjtj6gsxfc4vx.py":25:36)
#loc9 = loc("/home/Shuai/AIAA3201_Project/AIAA-3102-Proj_3/.tmp/torchinductor_Shuai/3o/c3ofdj6lglcgrs46g5iivrhzdk5lby2m4phx6raxjtj6gsxfc4vx.py":25:45)
#loc10 = loc("/home/Shuai/AIAA3201_Project/AIAA-3102-Proj_3/.tmp/torchinductor_Shuai/3o/c3ofdj6lglcgrs46g5iivrhzdk5lby2m4phx6raxjtj6gsxfc4vx.py":26:27)
#loc11 = loc("/home/Shuai/AIAA3201_Project/AIAA-3102-Proj_3/.tmp/torchinductor_Shuai/3o/c3ofdj6lglcgrs46g5iivrhzdk5lby2m4phx6raxjtj6gsxfc4vx.py":26:37)
#loc12 = loc("/home/Shuai/AIAA3201_Project/AIAA-3102-Proj_3/.tmp/torchinductor_Shuai/3o/c3ofdj6lglcgrs46g5iivrhzdk5lby2m4phx6raxjtj6gsxfc4vx.py":28:19)
#loc13 = loc("/home/Shuai/AIAA3201_Project/AIAA-3102-Proj_3/.tmp/torchinductor_Shuai/3o/c3ofdj6lglcgrs46g5iivrhzdk5lby2m4phx6raxjtj6gsxfc4vx.py":29:19)
#loc14 = loc("/home/Shuai/AIAA3201_Project/AIAA-3102-Proj_3/.tmp/torchinductor_Shuai/3o/c3ofdj6lglcgrs46g5iivrhzdk5lby2m4phx6raxjtj6gsxfc4vx.py":31:47)
#loc15 = loc("/home/Shuai/AIAA3201_Project/AIAA-3102-Proj_3/.tmp/torchinductor_Shuai/3o/c3ofdj6lglcgrs46g5iivrhzdk5lby2m4phx6raxjtj6gsxfc4vx.py":32:45)
#loc16 = loc("/home/Shuai/AIAA3201_Project/AIAA-3102-Proj_3/.tmp/torchinductor_Shuai/3o/c3ofdj6lglcgrs46g5iivrhzdk5lby2m4phx6raxjtj6gsxfc4vx.py":33:49)
#loc17 = loc("/home/Shuai/AIAA3201_Project/AIAA-3102-Proj_3/.tmp/torchinductor_Shuai/3o/c3ofdj6lglcgrs46g5iivrhzdk5lby2m4phx6raxjtj6gsxfc4vx.py":34:43)
#loc18 = loc("/home/Shuai/AIAA3201_Project/AIAA-3102-Proj_3/.tmp/torchinductor_Shuai/3o/c3ofdj6lglcgrs46g5iivrhzdk5lby2m4phx6raxjtj6gsxfc4vx.py":35:31)
#loc19 = loc("/home/Shuai/AIAA3201_Project/AIAA-3102-Proj_3/.tmp/torchinductor_Shuai/3o/c3ofdj6lglcgrs46g5iivrhzdk5lby2m4phx6raxjtj6gsxfc4vx.py":36:29)
#loc20 = loc("/home/Shuai/AIAA3201_Project/AIAA-3102-Proj_3/.tmp/torchinductor_Shuai/3o/c3ofdj6lglcgrs46g5iivrhzdk5lby2m4phx6raxjtj6gsxfc4vx.py":40:47)
#loc21 = loc("/home/Shuai/AIAA3201_Project/AIAA-3102-Proj_3/.tmp/torchinductor_Shuai/3o/c3ofdj6lglcgrs46g5iivrhzdk5lby2m4phx6raxjtj6gsxfc4vx.py":40:41)
#loc22 = loc("/home/Shuai/AIAA3201_Project/AIAA-3102-Proj_3/.tmp/torchinductor_Shuai/3o/c3ofdj6lglcgrs46g5iivrhzdk5lby2m4phx6raxjtj6gsxfc4vx.py":40:36)
#loc23 = loc("/home/Shuai/AIAA3201_Project/AIAA-3102-Proj_3/.tmp/torchinductor_Shuai/3o/c3ofdj6lglcgrs46g5iivrhzdk5lby2m4phx6raxjtj6gsxfc4vx.py":40:54)
#loc24 = loc("/home/Shuai/AIAA3201_Project/AIAA-3102-Proj_3/.tmp/torchinductor_Shuai/3o/c3ofdj6lglcgrs46g5iivrhzdk5lby2m4phx6raxjtj6gsxfc4vx.py":40:108)
#loc25 = loc("/home/Shuai/AIAA3201_Project/AIAA-3102-Proj_3/.tmp/torchinductor_Shuai/3o/c3ofdj6lglcgrs46g5iivrhzdk5lby2m4phx6raxjtj6gsxfc4vx.py":41:36)
#loc26 = loc("/home/Shuai/AIAA3201_Project/AIAA-3102-Proj_3/.tmp/torchinductor_Shuai/3o/c3ofdj6lglcgrs46g5iivrhzdk5lby2m4phx6raxjtj6gsxfc4vx.py":41:43)
#loc27 = loc("/home/Shuai/AIAA3201_Project/AIAA-3102-Proj_3/.tmp/torchinductor_Shuai/3o/c3ofdj6lglcgrs46g5iivrhzdk5lby2m4phx6raxjtj6gsxfc4vx.py":41:96)
#loc28 = loc("/home/Shuai/AIAA3201_Project/AIAA-3102-Proj_3/.tmp/torchinductor_Shuai/3o/c3ofdj6lglcgrs46g5iivrhzdk5lby2m4phx6raxjtj6gsxfc4vx.py":42:45)
#loc29 = loc("/home/Shuai/AIAA3201_Project/AIAA-3102-Proj_3/.tmp/torchinductor_Shuai/3o/c3ofdj6lglcgrs46g5iivrhzdk5lby2m4phx6raxjtj6gsxfc4vx.py":42:40)
#loc30 = loc("/home/Shuai/AIAA3201_Project/AIAA-3102-Proj_3/.tmp/torchinductor_Shuai/3o/c3ofdj6lglcgrs46g5iivrhzdk5lby2m4phx6raxjtj6gsxfc4vx.py":42:54)
#loc31 = loc("/home/Shuai/AIAA3201_Project/AIAA-3102-Proj_3/.tmp/torchinductor_Shuai/3o/c3ofdj6lglcgrs46g5iivrhzdk5lby2m4phx6raxjtj6gsxfc4vx.py":42:51)
#loc32 = loc("/home/Shuai/AIAA3201_Project/AIAA-3102-Proj_3/.tmp/torchinductor_Shuai/3o/c3ofdj6lglcgrs46g5iivrhzdk5lby2m4phx6raxjtj6gsxfc4vx.py":42:68)
#loc33 = loc("/home/Shuai/AIAA3201_Project/AIAA-3102-Proj_3/.tmp/torchinductor_Shuai/3o/c3ofdj6lglcgrs46g5iivrhzdk5lby2m4phx6raxjtj6gsxfc4vx.py":42:63)
#loc34 = loc("/home/Shuai/AIAA3201_Project/AIAA-3102-Proj_3/.tmp/torchinductor_Shuai/3o/c3ofdj6lglcgrs46g5iivrhzdk5lby2m4phx6raxjtj6gsxfc4vx.py":42:36)
#loc35 = loc("/home/Shuai/AIAA3201_Project/AIAA-3102-Proj_3/.tmp/torchinductor_Shuai/3o/c3ofdj6lglcgrs46g5iivrhzdk5lby2m4phx6raxjtj6gsxfc4vx.py":42:74)
#loc36 = loc("/home/Shuai/AIAA3201_Project/AIAA-3102-Proj_3/.tmp/torchinductor_Shuai/3o/c3ofdj6lglcgrs46g5iivrhzdk5lby2m4phx6raxjtj6gsxfc4vx.py":44:23)
#loc37 = loc("/home/Shuai/AIAA3201_Project/AIAA-3102-Proj_3/.tmp/torchinductor_Shuai/3o/c3ofdj6lglcgrs46g5iivrhzdk5lby2m4phx6raxjtj6gsxfc4vx.py":45:36)
#loc38 = loc("/home/Shuai/AIAA3201_Project/AIAA-3102-Proj_3/.tmp/torchinductor_Shuai/3o/c3ofdj6lglcgrs46g5iivrhzdk5lby2m4phx6raxjtj6gsxfc4vx.py":46:22)
#loc39 = loc("/home/Shuai/AIAA3201_Project/AIAA-3102-Proj_3/.tmp/torchinductor_Shuai/3o/c3ofdj6lglcgrs46g5iivrhzdk5lby2m4phx6raxjtj6gsxfc4vx.py":47:43)
#loc40 = loc("/home/Shuai/AIAA3201_Project/AIAA-3102-Proj_3/.tmp/torchinductor_Shuai/3o/c3ofdj6lglcgrs46g5iivrhzdk5lby2m4phx6raxjtj6gsxfc4vx.py":48:22)
#loc41 = loc("/home/Shuai/AIAA3201_Project/AIAA-3102-Proj_3/.tmp/torchinductor_Shuai/3o/c3ofdj6lglcgrs46g5iivrhzdk5lby2m4phx6raxjtj6gsxfc4vx.py":49:22)
#loc42 = loc("/home/Shuai/AIAA3201_Project/AIAA-3102-Proj_3/.tmp/torchinductor_Shuai/3o/c3ofdj6lglcgrs46g5iivrhzdk5lby2m4phx6raxjtj6gsxfc4vx.py":50:31)
#loc43 = loc("/home/Shuai/AIAA3201_Project/AIAA-3102-Proj_3/.tmp/torchinductor_Shuai/3o/c3ofdj6lglcgrs46g5iivrhzdk5lby2m4phx6raxjtj6gsxfc4vx.py":51:23)
#loc44 = loc("/home/Shuai/AIAA3201_Project/AIAA-3102-Proj_3/.tmp/torchinductor_Shuai/3o/c3ofdj6lglcgrs46g5iivrhzdk5lby2m4phx6raxjtj6gsxfc4vx.py":52:34)
#loc45 = loc("/home/Shuai/AIAA3201_Project/AIAA-3102-Proj_3/.tmp/torchinductor_Shuai/3o/c3ofdj6lglcgrs46g5iivrhzdk5lby2m4phx6raxjtj6gsxfc4vx.py":53:23)
#loc46 = loc("/home/Shuai/AIAA3201_Project/AIAA-3102-Proj_3/.tmp/torchinductor_Shuai/3o/c3ofdj6lglcgrs46g5iivrhzdk5lby2m4phx6raxjtj6gsxfc4vx.py":54:35)
#loc47 = loc("/home/Shuai/AIAA3201_Project/AIAA-3102-Proj_3/.tmp/torchinductor_Shuai/3o/c3ofdj6lglcgrs46g5iivrhzdk5lby2m4phx6raxjtj6gsxfc4vx.py":55:46)
#loc48 = loc("/home/Shuai/AIAA3201_Project/AIAA-3102-Proj_3/.tmp/torchinductor_Shuai/3o/c3ofdj6lglcgrs46g5iivrhzdk5lby2m4phx6raxjtj6gsxfc4vx.py":56:35)
#loc49 = loc("/home/Shuai/AIAA3201_Project/AIAA-3102-Proj_3/.tmp/torchinductor_Shuai/3o/c3ofdj6lglcgrs46g5iivrhzdk5lby2m4phx6raxjtj6gsxfc4vx.py":57:46)
#loc50 = loc("/home/Shuai/AIAA3201_Project/AIAA-3102-Proj_3/.tmp/torchinductor_Shuai/3o/c3ofdj6lglcgrs46g5iivrhzdk5lby2m4phx6raxjtj6gsxfc4vx.py":59:25)
#loc51 = loc("/home/Shuai/AIAA3201_Project/AIAA-3102-Proj_3/.tmp/torchinductor_Shuai/3o/c3ofdj6lglcgrs46g5iivrhzdk5lby2m4phx6raxjtj6gsxfc4vx.py":60:24)
#loc52 = loc("/home/Shuai/AIAA3201_Project/AIAA-3102-Proj_3/.tmp/torchinductor_Shuai/3o/c3ofdj6lglcgrs46g5iivrhzdk5lby2m4phx6raxjtj6gsxfc4vx.py":61:24)
#loc53 = loc("/home/Shuai/AIAA3201_Project/AIAA-3102-Proj_3/.tmp/torchinductor_Shuai/3o/c3ofdj6lglcgrs46g5iivrhzdk5lby2m4phx6raxjtj6gsxfc4vx.py":62:24)
#loc54 = loc("/home/Shuai/AIAA3201_Project/AIAA-3102-Proj_3/.tmp/torchinductor_Shuai/3o/c3ofdj6lglcgrs46g5iivrhzdk5lby2m4phx6raxjtj6gsxfc4vx.py":63:32)
#loc55 = loc("/home/Shuai/AIAA3201_Project/AIAA-3102-Proj_3/.tmp/torchinductor_Shuai/3o/c3ofdj6lglcgrs46g5iivrhzdk5lby2m4phx6raxjtj6gsxfc4vx.py":64:25)
#loc56 = loc("/home/Shuai/AIAA3201_Project/AIAA-3102-Proj_3/.tmp/torchinductor_Shuai/3o/c3ofdj6lglcgrs46g5iivrhzdk5lby2m4phx6raxjtj6gsxfc4vx.py":65:24)
#loc57 = loc("/home/Shuai/AIAA3201_Project/AIAA-3102-Proj_3/.tmp/torchinductor_Shuai/3o/c3ofdj6lglcgrs46g5iivrhzdk5lby2m4phx6raxjtj6gsxfc4vx.py":66:46)
#loc58 = loc("/home/Shuai/AIAA3201_Project/AIAA-3102-Proj_3/.tmp/torchinductor_Shuai/3o/c3ofdj6lglcgrs46g5iivrhzdk5lby2m4phx6raxjtj6gsxfc4vx.py":67:46)
#loc59 = loc("/home/Shuai/AIAA3201_Project/AIAA-3102-Proj_3/.tmp/torchinductor_Shuai/3o/c3ofdj6lglcgrs46g5iivrhzdk5lby2m4phx6raxjtj6gsxfc4vx.py":68:45)
#loc60 = loc("/home/Shuai/AIAA3201_Project/AIAA-3102-Proj_3/.tmp/torchinductor_Shuai/3o/c3ofdj6lglcgrs46g5iivrhzdk5lby2m4phx6raxjtj6gsxfc4vx.py":68:43)
#loc61 = loc("/home/Shuai/AIAA3201_Project/AIAA-3102-Proj_3/.tmp/torchinductor_Shuai/3o/c3ofdj6lglcgrs46g5iivrhzdk5lby2m4phx6raxjtj6gsxfc4vx.py":68:56)
#loc62 = loc("/home/Shuai/AIAA3201_Project/AIAA-3102-Proj_3/.tmp/torchinductor_Shuai/3o/c3ofdj6lglcgrs46g5iivrhzdk5lby2m4phx6raxjtj6gsxfc4vx.py":68:53)
#loc63 = loc("/home/Shuai/AIAA3201_Project/AIAA-3102-Proj_3/.tmp/torchinductor_Shuai/3o/c3ofdj6lglcgrs46g5iivrhzdk5lby2m4phx6raxjtj6gsxfc4vx.py":68:35)
#loc64 = loc("/home/Shuai/AIAA3201_Project/AIAA-3102-Proj_3/.tmp/torchinductor_Shuai/3o/c3ofdj6lglcgrs46g5iivrhzdk5lby2m4phx6raxjtj6gsxfc4vx.py":68:63)
#loc65 = loc("/home/Shuai/AIAA3201_Project/AIAA-3102-Proj_3/.tmp/torchinductor_Shuai/3o/c3ofdj6lglcgrs46g5iivrhzdk5lby2m4phx6raxjtj6gsxfc4vx.py":69:24)
#loc66 = loc("/home/Shuai/AIAA3201_Project/AIAA-3102-Proj_3/.tmp/torchinductor_Shuai/3o/c3ofdj6lglcgrs46g5iivrhzdk5lby2m4phx6raxjtj6gsxfc4vx.py":70:37)
#loc67 = loc("/home/Shuai/AIAA3201_Project/AIAA-3102-Proj_3/.tmp/torchinductor_Shuai/3o/c3ofdj6lglcgrs46g5iivrhzdk5lby2m4phx6raxjtj6gsxfc4vx.py":71:46)
#loc68 = loc("/home/Shuai/AIAA3201_Project/AIAA-3102-Proj_3/.tmp/torchinductor_Shuai/3o/c3ofdj6lglcgrs46g5iivrhzdk5lby2m4phx6raxjtj6gsxfc4vx.py":72:37)
#loc69 = loc("/home/Shuai/AIAA3201_Project/AIAA-3102-Proj_3/.tmp/torchinductor_Shuai/3o/c3ofdj6lglcgrs46g5iivrhzdk5lby2m4phx6raxjtj6gsxfc4vx.py":73:46)
#loc70 = loc("/home/Shuai/AIAA3201_Project/AIAA-3102-Proj_3/.tmp/torchinductor_Shuai/3o/c3ofdj6lglcgrs46g5iivrhzdk5lby2m4phx6raxjtj6gsxfc4vx.py":74:24)
#loc71 = loc("/home/Shuai/AIAA3201_Project/AIAA-3102-Proj_3/.tmp/torchinductor_Shuai/3o/c3ofdj6lglcgrs46g5iivrhzdk5lby2m4phx6raxjtj6gsxfc4vx.py":75:39)
#loc72 = loc("/home/Shuai/AIAA3201_Project/AIAA-3102-Proj_3/.tmp/torchinductor_Shuai/3o/c3ofdj6lglcgrs46g5iivrhzdk5lby2m4phx6raxjtj6gsxfc4vx.py":76:24)
#loc73 = loc("/home/Shuai/AIAA3201_Project/AIAA-3102-Proj_3/.tmp/torchinductor_Shuai/3o/c3ofdj6lglcgrs46g5iivrhzdk5lby2m4phx6raxjtj6gsxfc4vx.py":77:39)
#loc74 = loc("/home/Shuai/AIAA3201_Project/AIAA-3102-Proj_3/.tmp/torchinductor_Shuai/3o/c3ofdj6lglcgrs46g5iivrhzdk5lby2m4phx6raxjtj6gsxfc4vx.py":78:24)
#loc75 = loc("/home/Shuai/AIAA3201_Project/AIAA-3102-Proj_3/.tmp/torchinductor_Shuai/3o/c3ofdj6lglcgrs46g5iivrhzdk5lby2m4phx6raxjtj6gsxfc4vx.py":79:24)
#loc76 = loc("/home/Shuai/AIAA3201_Project/AIAA-3102-Proj_3/.tmp/torchinductor_Shuai/3o/c3ofdj6lglcgrs46g5iivrhzdk5lby2m4phx6raxjtj6gsxfc4vx.py":80:38)
#loc77 = loc("/home/Shuai/AIAA3201_Project/AIAA-3102-Proj_3/.tmp/torchinductor_Shuai/3o/c3ofdj6lglcgrs46g5iivrhzdk5lby2m4phx6raxjtj6gsxfc4vx.py":81:24)
#loc78 = loc("/home/Shuai/AIAA3201_Project/AIAA-3102-Proj_3/.tmp/torchinductor_Shuai/3o/c3ofdj6lglcgrs46g5iivrhzdk5lby2m4phx6raxjtj6gsxfc4vx.py":82:24)
#loc79 = loc("/home/Shuai/AIAA3201_Project/AIAA-3102-Proj_3/.tmp/torchinductor_Shuai/3o/c3ofdj6lglcgrs46g5iivrhzdk5lby2m4phx6raxjtj6gsxfc4vx.py":83:38)
#loc80 = loc("/home/Shuai/AIAA3201_Project/AIAA-3102-Proj_3/.tmp/torchinductor_Shuai/3o/c3ofdj6lglcgrs46g5iivrhzdk5lby2m4phx6raxjtj6gsxfc4vx.py":84:24)
#loc81 = loc("/home/Shuai/AIAA3201_Project/AIAA-3102-Proj_3/.tmp/torchinductor_Shuai/3o/c3ofdj6lglcgrs46g5iivrhzdk5lby2m4phx6raxjtj6gsxfc4vx.py":85:24)
#loc82 = loc("/home/Shuai/AIAA3201_Project/AIAA-3102-Proj_3/.tmp/torchinductor_Shuai/3o/c3ofdj6lglcgrs46g5iivrhzdk5lby2m4phx6raxjtj6gsxfc4vx.py":86:46)
#loc83 = loc("/home/Shuai/AIAA3201_Project/AIAA-3102-Proj_3/.tmp/torchinductor_Shuai/3o/c3ofdj6lglcgrs46g5iivrhzdk5lby2m4phx6raxjtj6gsxfc4vx.py":87:46)
#loc84 = loc("/home/Shuai/AIAA3201_Project/AIAA-3102-Proj_3/.tmp/torchinductor_Shuai/3o/c3ofdj6lglcgrs46g5iivrhzdk5lby2m4phx6raxjtj6gsxfc4vx.py":88:45)
#loc85 = loc("/home/Shuai/AIAA3201_Project/AIAA-3102-Proj_3/.tmp/torchinductor_Shuai/3o/c3ofdj6lglcgrs46g5iivrhzdk5lby2m4phx6raxjtj6gsxfc4vx.py":88:43)
#loc86 = loc("/home/Shuai/AIAA3201_Project/AIAA-3102-Proj_3/.tmp/torchinductor_Shuai/3o/c3ofdj6lglcgrs46g5iivrhzdk5lby2m4phx6raxjtj6gsxfc4vx.py":88:56)
#loc87 = loc("/home/Shuai/AIAA3201_Project/AIAA-3102-Proj_3/.tmp/torchinductor_Shuai/3o/c3ofdj6lglcgrs46g5iivrhzdk5lby2m4phx6raxjtj6gsxfc4vx.py":88:53)
#loc88 = loc("/home/Shuai/AIAA3201_Project/AIAA-3102-Proj_3/.tmp/torchinductor_Shuai/3o/c3ofdj6lglcgrs46g5iivrhzdk5lby2m4phx6raxjtj6gsxfc4vx.py":88:35)
#loc89 = loc("/home/Shuai/AIAA3201_Project/AIAA-3102-Proj_3/.tmp/torchinductor_Shuai/3o/c3ofdj6lglcgrs46g5iivrhzdk5lby2m4phx6raxjtj6gsxfc4vx.py":88:63)
#loc90 = loc("/home/Shuai/AIAA3201_Project/AIAA-3102-Proj_3/.tmp/torchinductor_Shuai/3o/c3ofdj6lglcgrs46g5iivrhzdk5lby2m4phx6raxjtj6gsxfc4vx.py":89:38)
#loc91 = loc("/home/Shuai/AIAA3201_Project/AIAA-3102-Proj_3/.tmp/torchinductor_Shuai/3o/c3ofdj6lglcgrs46g5iivrhzdk5lby2m4phx6raxjtj6gsxfc4vx.py":90:24)
#loc92 = loc("/home/Shuai/AIAA3201_Project/AIAA-3102-Proj_3/.tmp/torchinductor_Shuai/3o/c3ofdj6lglcgrs46g5iivrhzdk5lby2m4phx6raxjtj6gsxfc4vx.py":91:38)
#loc93 = loc("/home/Shuai/AIAA3201_Project/AIAA-3102-Proj_3/.tmp/torchinductor_Shuai/3o/c3ofdj6lglcgrs46g5iivrhzdk5lby2m4phx6raxjtj6gsxfc4vx.py":92:24)
#loc94 = loc("/home/Shuai/AIAA3201_Project/AIAA-3102-Proj_3/.tmp/torchinductor_Shuai/3o/c3ofdj6lglcgrs46g5iivrhzdk5lby2m4phx6raxjtj6gsxfc4vx.py":93:24)
#loc95 = loc("/home/Shuai/AIAA3201_Project/AIAA-3102-Proj_3/.tmp/torchinductor_Shuai/3o/c3ofdj6lglcgrs46g5iivrhzdk5lby2m4phx6raxjtj6gsxfc4vx.py":94:24)
#loc96 = loc("/home/Shuai/AIAA3201_Project/AIAA-3102-Proj_3/.tmp/torchinductor_Shuai/3o/c3ofdj6lglcgrs46g5iivrhzdk5lby2m4phx6raxjtj6gsxfc4vx.py":95:24)
#loc97 = loc("/home/Shuai/AIAA3201_Project/AIAA-3102-Proj_3/.tmp/torchinductor_Shuai/3o/c3ofdj6lglcgrs46g5iivrhzdk5lby2m4phx6raxjtj6gsxfc4vx.py":96:24)
#loc98 = loc("/home/Shuai/AIAA3201_Project/AIAA-3102-Proj_3/.tmp/torchinductor_Shuai/3o/c3ofdj6lglcgrs46g5iivrhzdk5lby2m4phx6raxjtj6gsxfc4vx.py":97:24)
#loc99 = loc("/home/Shuai/AIAA3201_Project/AIAA-3102-Proj_3/.tmp/torchinductor_Shuai/3o/c3ofdj6lglcgrs46g5iivrhzdk5lby2m4phx6raxjtj6gsxfc4vx.py":98:24)
#loc100 = loc("/home/Shuai/AIAA3201_Project/AIAA-3102-Proj_3/.tmp/torchinductor_Shuai/3o/c3ofdj6lglcgrs46g5iivrhzdk5lby2m4phx6raxjtj6gsxfc4vx.py":99:46)
#loc101 = loc("/home/Shuai/AIAA3201_Project/AIAA-3102-Proj_3/.tmp/torchinductor_Shuai/3o/c3ofdj6lglcgrs46g5iivrhzdk5lby2m4phx6raxjtj6gsxfc4vx.py":100:46)
#loc102 = loc("/home/Shuai/AIAA3201_Project/AIAA-3102-Proj_3/.tmp/torchinductor_Shuai/3o/c3ofdj6lglcgrs46g5iivrhzdk5lby2m4phx6raxjtj6gsxfc4vx.py":101:45)
#loc103 = loc("/home/Shuai/AIAA3201_Project/AIAA-3102-Proj_3/.tmp/torchinductor_Shuai/3o/c3ofdj6lglcgrs46g5iivrhzdk5lby2m4phx6raxjtj6gsxfc4vx.py":101:43)
#loc104 = loc("/home/Shuai/AIAA3201_Project/AIAA-3102-Proj_3/.tmp/torchinductor_Shuai/3o/c3ofdj6lglcgrs46g5iivrhzdk5lby2m4phx6raxjtj6gsxfc4vx.py":101:56)
#loc105 = loc("/home/Shuai/AIAA3201_Project/AIAA-3102-Proj_3/.tmp/torchinductor_Shuai/3o/c3ofdj6lglcgrs46g5iivrhzdk5lby2m4phx6raxjtj6gsxfc4vx.py":101:53)
#loc106 = loc("/home/Shuai/AIAA3201_Project/AIAA-3102-Proj_3/.tmp/torchinductor_Shuai/3o/c3ofdj6lglcgrs46g5iivrhzdk5lby2m4phx6raxjtj6gsxfc4vx.py":101:35)
#loc107 = loc("/home/Shuai/AIAA3201_Project/AIAA-3102-Proj_3/.tmp/torchinductor_Shuai/3o/c3ofdj6lglcgrs46g5iivrhzdk5lby2m4phx6raxjtj6gsxfc4vx.py":101:63)
#loc108 = loc("/home/Shuai/AIAA3201_Project/AIAA-3102-Proj_3/.tmp/torchinductor_Shuai/3o/c3ofdj6lglcgrs46g5iivrhzdk5lby2m4phx6raxjtj6gsxfc4vx.py":102:24)
#loc109 = loc("/home/Shuai/AIAA3201_Project/AIAA-3102-Proj_3/.tmp/torchinductor_Shuai/3o/c3ofdj6lglcgrs46g5iivrhzdk5lby2m4phx6raxjtj6gsxfc4vx.py":103:24)
#loc110 = loc("/home/Shuai/AIAA3201_Project/AIAA-3102-Proj_3/.tmp/torchinductor_Shuai/3o/c3ofdj6lglcgrs46g5iivrhzdk5lby2m4phx6raxjtj6gsxfc4vx.py":104:24)
#loc111 = loc("/home/Shuai/AIAA3201_Project/AIAA-3102-Proj_3/.tmp/torchinductor_Shuai/3o/c3ofdj6lglcgrs46g5iivrhzdk5lby2m4phx6raxjtj6gsxfc4vx.py":105:24)
#loc112 = loc("/home/Shuai/AIAA3201_Project/AIAA-3102-Proj_3/.tmp/torchinductor_Shuai/3o/c3ofdj6lglcgrs46g5iivrhzdk5lby2m4phx6raxjtj6gsxfc4vx.py":106:24)
#loc113 = loc("/home/Shuai/AIAA3201_Project/AIAA-3102-Proj_3/.tmp/torchinductor_Shuai/3o/c3ofdj6lglcgrs46g5iivrhzdk5lby2m4phx6raxjtj6gsxfc4vx.py":107:24)
#loc114 = loc("/home/Shuai/AIAA3201_Project/AIAA-3102-Proj_3/.tmp/torchinductor_Shuai/3o/c3ofdj6lglcgrs46g5iivrhzdk5lby2m4phx6raxjtj6gsxfc4vx.py":108:24)
#loc115 = loc("/home/Shuai/AIAA3201_Project/AIAA-3102-Proj_3/.tmp/torchinductor_Shuai/3o/c3ofdj6lglcgrs46g5iivrhzdk5lby2m4phx6raxjtj6gsxfc4vx.py":109:24)
#loc116 = loc("/home/Shuai/AIAA3201_Project/AIAA-3102-Proj_3/.tmp/torchinductor_Shuai/3o/c3ofdj6lglcgrs46g5iivrhzdk5lby2m4phx6raxjtj6gsxfc4vx.py":110:35)
#loc117 = loc("/home/Shuai/AIAA3201_Project/AIAA-3102-Proj_3/.tmp/torchinductor_Shuai/3o/c3ofdj6lglcgrs46g5iivrhzdk5lby2m4phx6raxjtj6gsxfc4vx.py":111:24)
#loc118 = loc("/home/Shuai/AIAA3201_Project/AIAA-3102-Proj_3/.tmp/torchinductor_Shuai/3o/c3ofdj6lglcgrs46g5iivrhzdk5lby2m4phx6raxjtj6gsxfc4vx.py":112:46)
#loc119 = loc("/home/Shuai/AIAA3201_Project/AIAA-3102-Proj_3/.tmp/torchinductor_Shuai/3o/c3ofdj6lglcgrs46g5iivrhzdk5lby2m4phx6raxjtj6gsxfc4vx.py":113:46)
#loc120 = loc("/home/Shuai/AIAA3201_Project/AIAA-3102-Proj_3/.tmp/torchinductor_Shuai/3o/c3ofdj6lglcgrs46g5iivrhzdk5lby2m4phx6raxjtj6gsxfc4vx.py":114:45)
#loc121 = loc("/home/Shuai/AIAA3201_Project/AIAA-3102-Proj_3/.tmp/torchinductor_Shuai/3o/c3ofdj6lglcgrs46g5iivrhzdk5lby2m4phx6raxjtj6gsxfc4vx.py":114:43)
#loc122 = loc("/home/Shuai/AIAA3201_Project/AIAA-3102-Proj_3/.tmp/torchinductor_Shuai/3o/c3ofdj6lglcgrs46g5iivrhzdk5lby2m4phx6raxjtj6gsxfc4vx.py":114:56)
#loc123 = loc("/home/Shuai/AIAA3201_Project/AIAA-3102-Proj_3/.tmp/torchinductor_Shuai/3o/c3ofdj6lglcgrs46g5iivrhzdk5lby2m4phx6raxjtj6gsxfc4vx.py":114:53)
#loc124 = loc("/home/Shuai/AIAA3201_Project/AIAA-3102-Proj_3/.tmp/torchinductor_Shuai/3o/c3ofdj6lglcgrs46g5iivrhzdk5lby2m4phx6raxjtj6gsxfc4vx.py":114:35)
#loc125 = loc("/home/Shuai/AIAA3201_Project/AIAA-3102-Proj_3/.tmp/torchinductor_Shuai/3o/c3ofdj6lglcgrs46g5iivrhzdk5lby2m4phx6raxjtj6gsxfc4vx.py":114:63)
#loc126 = loc("/home/Shuai/AIAA3201_Project/AIAA-3102-Proj_3/.tmp/torchinductor_Shuai/3o/c3ofdj6lglcgrs46g5iivrhzdk5lby2m4phx6raxjtj6gsxfc4vx.py":115:37)
#loc127 = loc("/home/Shuai/AIAA3201_Project/AIAA-3102-Proj_3/.tmp/torchinductor_Shuai/3o/c3ofdj6lglcgrs46g5iivrhzdk5lby2m4phx6raxjtj6gsxfc4vx.py":116:24)
#loc128 = loc("/home/Shuai/AIAA3201_Project/AIAA-3102-Proj_3/.tmp/torchinductor_Shuai/3o/c3ofdj6lglcgrs46g5iivrhzdk5lby2m4phx6raxjtj6gsxfc4vx.py":117:24)
#loc129 = loc("/home/Shuai/AIAA3201_Project/AIAA-3102-Proj_3/.tmp/torchinductor_Shuai/3o/c3ofdj6lglcgrs46g5iivrhzdk5lby2m4phx6raxjtj6gsxfc4vx.py":118:24)
#loc130 = loc("/home/Shuai/AIAA3201_Project/AIAA-3102-Proj_3/.tmp/torchinductor_Shuai/3o/c3ofdj6lglcgrs46g5iivrhzdk5lby2m4phx6raxjtj6gsxfc4vx.py":119:24)
#loc131 = loc("/home/Shuai/AIAA3201_Project/AIAA-3102-Proj_3/.tmp/torchinductor_Shuai/3o/c3ofdj6lglcgrs46g5iivrhzdk5lby2m4phx6raxjtj6gsxfc4vx.py":120:24)
#loc132 = loc("/home/Shuai/AIAA3201_Project/AIAA-3102-Proj_3/.tmp/torchinductor_Shuai/3o/c3ofdj6lglcgrs46g5iivrhzdk5lby2m4phx6raxjtj6gsxfc4vx.py":121:24)
#loc133 = loc("/home/Shuai/AIAA3201_Project/AIAA-3102-Proj_3/.tmp/torchinductor_Shuai/3o/c3ofdj6lglcgrs46g5iivrhzdk5lby2m4phx6raxjtj6gsxfc4vx.py":122:24)
#loc134 = loc("/home/Shuai/AIAA3201_Project/AIAA-3102-Proj_3/.tmp/torchinductor_Shuai/3o/c3ofdj6lglcgrs46g5iivrhzdk5lby2m4phx6raxjtj6gsxfc4vx.py":123:24)
#loc135 = loc("/home/Shuai/AIAA3201_Project/AIAA-3102-Proj_3/.tmp/torchinductor_Shuai/3o/c3ofdj6lglcgrs46g5iivrhzdk5lby2m4phx6raxjtj6gsxfc4vx.py":124:24)
#loc136 = loc("/home/Shuai/AIAA3201_Project/AIAA-3102-Proj_3/.tmp/torchinductor_Shuai/3o/c3ofdj6lglcgrs46g5iivrhzdk5lby2m4phx6raxjtj6gsxfc4vx.py":125:45)
#loc137 = loc("/home/Shuai/AIAA3201_Project/AIAA-3102-Proj_3/.tmp/torchinductor_Shuai/3o/c3ofdj6lglcgrs46g5iivrhzdk5lby2m4phx6raxjtj6gsxfc4vx.py":126:46)
#loc138 = loc("/home/Shuai/AIAA3201_Project/AIAA-3102-Proj_3/.tmp/torchinductor_Shuai/3o/c3ofdj6lglcgrs46g5iivrhzdk5lby2m4phx6raxjtj6gsxfc4vx.py":127:45)
#loc139 = loc("/home/Shuai/AIAA3201_Project/AIAA-3102-Proj_3/.tmp/torchinductor_Shuai/3o/c3ofdj6lglcgrs46g5iivrhzdk5lby2m4phx6raxjtj6gsxfc4vx.py":127:43)
#loc140 = loc("/home/Shuai/AIAA3201_Project/AIAA-3102-Proj_3/.tmp/torchinductor_Shuai/3o/c3ofdj6lglcgrs46g5iivrhzdk5lby2m4phx6raxjtj6gsxfc4vx.py":127:56)
#loc141 = loc("/home/Shuai/AIAA3201_Project/AIAA-3102-Proj_3/.tmp/torchinductor_Shuai/3o/c3ofdj6lglcgrs46g5iivrhzdk5lby2m4phx6raxjtj6gsxfc4vx.py":127:53)
#loc142 = loc("/home/Shuai/AIAA3201_Project/AIAA-3102-Proj_3/.tmp/torchinductor_Shuai/3o/c3ofdj6lglcgrs46g5iivrhzdk5lby2m4phx6raxjtj6gsxfc4vx.py":127:35)
#loc143 = loc("/home/Shuai/AIAA3201_Project/AIAA-3102-Proj_3/.tmp/torchinductor_Shuai/3o/c3ofdj6lglcgrs46g5iivrhzdk5lby2m4phx6raxjtj6gsxfc4vx.py":127:63)
#loc144 = loc("/home/Shuai/AIAA3201_Project/AIAA-3102-Proj_3/.tmp/torchinductor_Shuai/3o/c3ofdj6lglcgrs46g5iivrhzdk5lby2m4phx6raxjtj6gsxfc4vx.py":128:24)
#loc145 = loc("/home/Shuai/AIAA3201_Project/AIAA-3102-Proj_3/.tmp/torchinductor_Shuai/3o/c3ofdj6lglcgrs46g5iivrhzdk5lby2m4phx6raxjtj6gsxfc4vx.py":129:45)
#loc146 = loc("/home/Shuai/AIAA3201_Project/AIAA-3102-Proj_3/.tmp/torchinductor_Shuai/3o/c3ofdj6lglcgrs46g5iivrhzdk5lby2m4phx6raxjtj6gsxfc4vx.py":129:43)
#loc147 = loc("/home/Shuai/AIAA3201_Project/AIAA-3102-Proj_3/.tmp/torchinductor_Shuai/3o/c3ofdj6lglcgrs46g5iivrhzdk5lby2m4phx6raxjtj6gsxfc4vx.py":129:56)
#loc148 = loc("/home/Shuai/AIAA3201_Project/AIAA-3102-Proj_3/.tmp/torchinductor_Shuai/3o/c3ofdj6lglcgrs46g5iivrhzdk5lby2m4phx6raxjtj6gsxfc4vx.py":129:53)
#loc149 = loc("/home/Shuai/AIAA3201_Project/AIAA-3102-Proj_3/.tmp/torchinductor_Shuai/3o/c3ofdj6lglcgrs46g5iivrhzdk5lby2m4phx6raxjtj6gsxfc4vx.py":129:35)
#loc150 = loc("/home/Shuai/AIAA3201_Project/AIAA-3102-Proj_3/.tmp/torchinductor_Shuai/3o/c3ofdj6lglcgrs46g5iivrhzdk5lby2m4phx6raxjtj6gsxfc4vx.py":129:63)
#loc151 = loc("/home/Shuai/AIAA3201_Project/AIAA-3102-Proj_3/.tmp/torchinductor_Shuai/3o/c3ofdj6lglcgrs46g5iivrhzdk5lby2m4phx6raxjtj6gsxfc4vx.py":130:24)
#loc152 = loc("/home/Shuai/AIAA3201_Project/AIAA-3102-Proj_3/.tmp/torchinductor_Shuai/3o/c3ofdj6lglcgrs46g5iivrhzdk5lby2m4phx6raxjtj6gsxfc4vx.py":131:24)
#loc153 = loc("/home/Shuai/AIAA3201_Project/AIAA-3102-Proj_3/.tmp/torchinductor_Shuai/3o/c3ofdj6lglcgrs46g5iivrhzdk5lby2m4phx6raxjtj6gsxfc4vx.py":132:45)
#loc154 = loc("/home/Shuai/AIAA3201_Project/AIAA-3102-Proj_3/.tmp/torchinductor_Shuai/3o/c3ofdj6lglcgrs46g5iivrhzdk5lby2m4phx6raxjtj6gsxfc4vx.py":132:43)
#loc155 = loc("/home/Shuai/AIAA3201_Project/AIAA-3102-Proj_3/.tmp/torchinductor_Shuai/3o/c3ofdj6lglcgrs46g5iivrhzdk5lby2m4phx6raxjtj6gsxfc4vx.py":132:56)
#loc156 = loc("/home/Shuai/AIAA3201_Project/AIAA-3102-Proj_3/.tmp/torchinductor_Shuai/3o/c3ofdj6lglcgrs46g5iivrhzdk5lby2m4phx6raxjtj6gsxfc4vx.py":132:53)
#loc157 = loc("/home/Shuai/AIAA3201_Project/AIAA-3102-Proj_3/.tmp/torchinductor_Shuai/3o/c3ofdj6lglcgrs46g5iivrhzdk5lby2m4phx6raxjtj6gsxfc4vx.py":132:35)
#loc158 = loc("/home/Shuai/AIAA3201_Project/AIAA-3102-Proj_3/.tmp/torchinductor_Shuai/3o/c3ofdj6lglcgrs46g5iivrhzdk5lby2m4phx6raxjtj6gsxfc4vx.py":132:63)
#loc159 = loc("/home/Shuai/AIAA3201_Project/AIAA-3102-Proj_3/.tmp/torchinductor_Shuai/3o/c3ofdj6lglcgrs46g5iivrhzdk5lby2m4phx6raxjtj6gsxfc4vx.py":133:24)
#loc160 = loc("/home/Shuai/AIAA3201_Project/AIAA-3102-Proj_3/.tmp/torchinductor_Shuai/3o/c3ofdj6lglcgrs46g5iivrhzdk5lby2m4phx6raxjtj6gsxfc4vx.py":134:24)
#loc161 = loc("/home/Shuai/AIAA3201_Project/AIAA-3102-Proj_3/.tmp/torchinductor_Shuai/3o/c3ofdj6lglcgrs46g5iivrhzdk5lby2m4phx6raxjtj6gsxfc4vx.py":135:45)
#loc162 = loc("/home/Shuai/AIAA3201_Project/AIAA-3102-Proj_3/.tmp/torchinductor_Shuai/3o/c3ofdj6lglcgrs46g5iivrhzdk5lby2m4phx6raxjtj6gsxfc4vx.py":135:43)
#loc163 = loc("/home/Shuai/AIAA3201_Project/AIAA-3102-Proj_3/.tmp/torchinductor_Shuai/3o/c3ofdj6lglcgrs46g5iivrhzdk5lby2m4phx6raxjtj6gsxfc4vx.py":135:56)
#loc164 = loc("/home/Shuai/AIAA3201_Project/AIAA-3102-Proj_3/.tmp/torchinductor_Shuai/3o/c3ofdj6lglcgrs46g5iivrhzdk5lby2m4phx6raxjtj6gsxfc4vx.py":135:53)
#loc165 = loc("/home/Shuai/AIAA3201_Project/AIAA-3102-Proj_3/.tmp/torchinductor_Shuai/3o/c3ofdj6lglcgrs46g5iivrhzdk5lby2m4phx6raxjtj6gsxfc4vx.py":135:35)
#loc166 = loc("/home/Shuai/AIAA3201_Project/AIAA-3102-Proj_3/.tmp/torchinductor_Shuai/3o/c3ofdj6lglcgrs46g5iivrhzdk5lby2m4phx6raxjtj6gsxfc4vx.py":135:63)
#loc167 = loc("/home/Shuai/AIAA3201_Project/AIAA-3102-Proj_3/.tmp/torchinductor_Shuai/3o/c3ofdj6lglcgrs46g5iivrhzdk5lby2m4phx6raxjtj6gsxfc4vx.py":136:24)
#loc168 = loc("/home/Shuai/AIAA3201_Project/AIAA-3102-Proj_3/.tmp/torchinductor_Shuai/3o/c3ofdj6lglcgrs46g5iivrhzdk5lby2m4phx6raxjtj6gsxfc4vx.py":137:24)
#loc169 = loc("/home/Shuai/AIAA3201_Project/AIAA-3102-Proj_3/.tmp/torchinductor_Shuai/3o/c3ofdj6lglcgrs46g5iivrhzdk5lby2m4phx6raxjtj6gsxfc4vx.py":138:23)
#loc170 = loc("/home/Shuai/AIAA3201_Project/AIAA-3102-Proj_3/.tmp/torchinductor_Shuai/3o/c3ofdj6lglcgrs46g5iivrhzdk5lby2m4phx6raxjtj6gsxfc4vx.py":139:46)
#loc171 = loc("/home/Shuai/AIAA3201_Project/AIAA-3102-Proj_3/.tmp/torchinductor_Shuai/3o/c3ofdj6lglcgrs46g5iivrhzdk5lby2m4phx6raxjtj6gsxfc4vx.py":140:46)
#loc172 = loc("/home/Shuai/AIAA3201_Project/AIAA-3102-Proj_3/.tmp/torchinductor_Shuai/3o/c3ofdj6lglcgrs46g5iivrhzdk5lby2m4phx6raxjtj6gsxfc4vx.py":141:24)
#loc173 = loc("/home/Shuai/AIAA3201_Project/AIAA-3102-Proj_3/.tmp/torchinductor_Shuai/3o/c3ofdj6lglcgrs46g5iivrhzdk5lby2m4phx6raxjtj6gsxfc4vx.py":142:24)
#loc174 = loc("/home/Shuai/AIAA3201_Project/AIAA-3102-Proj_3/.tmp/torchinductor_Shuai/3o/c3ofdj6lglcgrs46g5iivrhzdk5lby2m4phx6raxjtj6gsxfc4vx.py":143:25)
#loc175 = loc("/home/Shuai/AIAA3201_Project/AIAA-3102-Proj_3/.tmp/torchinductor_Shuai/3o/c3ofdj6lglcgrs46g5iivrhzdk5lby2m4phx6raxjtj6gsxfc4vx.py":144:26)
#loc176 = loc("/home/Shuai/AIAA3201_Project/AIAA-3102-Proj_3/.tmp/torchinductor_Shuai/3o/c3ofdj6lglcgrs46g5iivrhzdk5lby2m4phx6raxjtj6gsxfc4vx.py":145:26)
#loc177 = loc("/home/Shuai/AIAA3201_Project/AIAA-3102-Proj_3/.tmp/torchinductor_Shuai/3o/c3ofdj6lglcgrs46g5iivrhzdk5lby2m4phx6raxjtj6gsxfc4vx.py":146:26)
#loc178 = loc("/home/Shuai/AIAA3201_Project/AIAA-3102-Proj_3/.tmp/torchinductor_Shuai/3o/c3ofdj6lglcgrs46g5iivrhzdk5lby2m4phx6raxjtj6gsxfc4vx.py":147:26)
#loc179 = loc("/home/Shuai/AIAA3201_Project/AIAA-3102-Proj_3/.tmp/torchinductor_Shuai/3o/c3ofdj6lglcgrs46g5iivrhzdk5lby2m4phx6raxjtj6gsxfc4vx.py":148:25)
#loc180 = loc("/home/Shuai/AIAA3201_Project/AIAA-3102-Proj_3/.tmp/torchinductor_Shuai/3o/c3ofdj6lglcgrs46g5iivrhzdk5lby2m4phx6raxjtj6gsxfc4vx.py":149:25)
#loc181 = loc("/home/Shuai/AIAA3201_Project/AIAA-3102-Proj_3/.tmp/torchinductor_Shuai/3o/c3ofdj6lglcgrs46g5iivrhzdk5lby2m4phx6raxjtj6gsxfc4vx.py":150:26)
#loc182 = loc("/home/Shuai/AIAA3201_Project/AIAA-3102-Proj_3/.tmp/torchinductor_Shuai/3o/c3ofdj6lglcgrs46g5iivrhzdk5lby2m4phx6raxjtj6gsxfc4vx.py":151:26)
#loc183 = loc("/home/Shuai/AIAA3201_Project/AIAA-3102-Proj_3/.tmp/torchinductor_Shuai/3o/c3ofdj6lglcgrs46g5iivrhzdk5lby2m4phx6raxjtj6gsxfc4vx.py":152:26)
#loc184 = loc("/home/Shuai/AIAA3201_Project/AIAA-3102-Proj_3/.tmp/torchinductor_Shuai/3o/c3ofdj6lglcgrs46g5iivrhzdk5lby2m4phx6raxjtj6gsxfc4vx.py":153:26)
#loc185 = loc("/home/Shuai/AIAA3201_Project/AIAA-3102-Proj_3/.tmp/torchinductor_Shuai/3o/c3ofdj6lglcgrs46g5iivrhzdk5lby2m4phx6raxjtj6gsxfc4vx.py":154:25)
#loc186 = loc("/home/Shuai/AIAA3201_Project/AIAA-3102-Proj_3/.tmp/torchinductor_Shuai/3o/c3ofdj6lglcgrs46g5iivrhzdk5lby2m4phx6raxjtj6gsxfc4vx.py":155:26)
#loc187 = loc("/home/Shuai/AIAA3201_Project/AIAA-3102-Proj_3/.tmp/torchinductor_Shuai/3o/c3ofdj6lglcgrs46g5iivrhzdk5lby2m4phx6raxjtj6gsxfc4vx.py":156:24)
#loc188 = loc("/home/Shuai/AIAA3201_Project/AIAA-3102-Proj_3/.tmp/torchinductor_Shuai/3o/c3ofdj6lglcgrs46g5iivrhzdk5lby2m4phx6raxjtj6gsxfc4vx.py":157:48)
#loc189 = loc("/home/Shuai/AIAA3201_Project/AIAA-3102-Proj_3/.tmp/torchinductor_Shuai/3o/c3ofdj6lglcgrs46g5iivrhzdk5lby2m4phx6raxjtj6gsxfc4vx.py":158:48)
#loc190 = loc("/home/Shuai/AIAA3201_Project/AIAA-3102-Proj_3/.tmp/torchinductor_Shuai/3o/c3ofdj6lglcgrs46g5iivrhzdk5lby2m4phx6raxjtj6gsxfc4vx.py":159:46)
#loc191 = loc("/home/Shuai/AIAA3201_Project/AIAA-3102-Proj_3/.tmp/torchinductor_Shuai/3o/c3ofdj6lglcgrs46g5iivrhzdk5lby2m4phx6raxjtj6gsxfc4vx.py":159:44)
#loc192 = loc("/home/Shuai/AIAA3201_Project/AIAA-3102-Proj_3/.tmp/torchinductor_Shuai/3o/c3ofdj6lglcgrs46g5iivrhzdk5lby2m4phx6raxjtj6gsxfc4vx.py":159:58)
#loc193 = loc("/home/Shuai/AIAA3201_Project/AIAA-3102-Proj_3/.tmp/torchinductor_Shuai/3o/c3ofdj6lglcgrs46g5iivrhzdk5lby2m4phx6raxjtj6gsxfc4vx.py":159:55)
#loc194 = loc("/home/Shuai/AIAA3201_Project/AIAA-3102-Proj_3/.tmp/torchinductor_Shuai/3o/c3ofdj6lglcgrs46g5iivrhzdk5lby2m4phx6raxjtj6gsxfc4vx.py":159:36)
#loc195 = loc("/home/Shuai/AIAA3201_Project/AIAA-3102-Proj_3/.tmp/torchinductor_Shuai/3o/c3ofdj6lglcgrs46g5iivrhzdk5lby2m4phx6raxjtj6gsxfc4vx.py":159:65)
#loc196 = loc("/home/Shuai/AIAA3201_Project/AIAA-3102-Proj_3/.tmp/torchinductor_Shuai/3o/c3ofdj6lglcgrs46g5iivrhzdk5lby2m4phx6raxjtj6gsxfc4vx.py":160:26)
#loc197 = loc("/home/Shuai/AIAA3201_Project/AIAA-3102-Proj_3/.tmp/torchinductor_Shuai/3o/c3ofdj6lglcgrs46g5iivrhzdk5lby2m4phx6raxjtj6gsxfc4vx.py":161:46)
#loc198 = loc("/home/Shuai/AIAA3201_Project/AIAA-3102-Proj_3/.tmp/torchinductor_Shuai/3o/c3ofdj6lglcgrs46g5iivrhzdk5lby2m4phx6raxjtj6gsxfc4vx.py":161:44)
#loc199 = loc("/home/Shuai/AIAA3201_Project/AIAA-3102-Proj_3/.tmp/torchinductor_Shuai/3o/c3ofdj6lglcgrs46g5iivrhzdk5lby2m4phx6raxjtj6gsxfc4vx.py":161:58)
#loc200 = loc("/home/Shuai/AIAA3201_Project/AIAA-3102-Proj_3/.tmp/torchinductor_Shuai/3o/c3ofdj6lglcgrs46g5iivrhzdk5lby2m4phx6raxjtj6gsxfc4vx.py":161:55)
#loc201 = loc("/home/Shuai/AIAA3201_Project/AIAA-3102-Proj_3/.tmp/torchinductor_Shuai/3o/c3ofdj6lglcgrs46g5iivrhzdk5lby2m4phx6raxjtj6gsxfc4vx.py":161:36)
#loc202 = loc("/home/Shuai/AIAA3201_Project/AIAA-3102-Proj_3/.tmp/torchinductor_Shuai/3o/c3ofdj6lglcgrs46g5iivrhzdk5lby2m4phx6raxjtj6gsxfc4vx.py":161:65)
#loc203 = loc("/home/Shuai/AIAA3201_Project/AIAA-3102-Proj_3/.tmp/torchinductor_Shuai/3o/c3ofdj6lglcgrs46g5iivrhzdk5lby2m4phx6raxjtj6gsxfc4vx.py":162:26)
#loc204 = loc("/home/Shuai/AIAA3201_Project/AIAA-3102-Proj_3/.tmp/torchinductor_Shuai/3o/c3ofdj6lglcgrs46g5iivrhzdk5lby2m4phx6raxjtj6gsxfc4vx.py":163:26)
#loc205 = loc("/home/Shuai/AIAA3201_Project/AIAA-3102-Proj_3/.tmp/torchinductor_Shuai/3o/c3ofdj6lglcgrs46g5iivrhzdk5lby2m4phx6raxjtj6gsxfc4vx.py":164:46)
#loc206 = loc("/home/Shuai/AIAA3201_Project/AIAA-3102-Proj_3/.tmp/torchinductor_Shuai/3o/c3ofdj6lglcgrs46g5iivrhzdk5lby2m4phx6raxjtj6gsxfc4vx.py":164:44)
#loc207 = loc("/home/Shuai/AIAA3201_Project/AIAA-3102-Proj_3/.tmp/torchinductor_Shuai/3o/c3ofdj6lglcgrs46g5iivrhzdk5lby2m4phx6raxjtj6gsxfc4vx.py":164:58)
#loc208 = loc("/home/Shuai/AIAA3201_Project/AIAA-3102-Proj_3/.tmp/torchinductor_Shuai/3o/c3ofdj6lglcgrs46g5iivrhzdk5lby2m4phx6raxjtj6gsxfc4vx.py":164:55)
#loc209 = loc("/home/Shuai/AIAA3201_Project/AIAA-3102-Proj_3/.tmp/torchinductor_Shuai/3o/c3ofdj6lglcgrs46g5iivrhzdk5lby2m4phx6raxjtj6gsxfc4vx.py":164:36)
#loc210 = loc("/home/Shuai/AIAA3201_Project/AIAA-3102-Proj_3/.tmp/torchinductor_Shuai/3o/c3ofdj6lglcgrs46g5iivrhzdk5lby2m4phx6raxjtj6gsxfc4vx.py":164:65)
#loc211 = loc("/home/Shuai/AIAA3201_Project/AIAA-3102-Proj_3/.tmp/torchinductor_Shuai/3o/c3ofdj6lglcgrs46g5iivrhzdk5lby2m4phx6raxjtj6gsxfc4vx.py":165:26)
#loc212 = loc("/home/Shuai/AIAA3201_Project/AIAA-3102-Proj_3/.tmp/torchinductor_Shuai/3o/c3ofdj6lglcgrs46g5iivrhzdk5lby2m4phx6raxjtj6gsxfc4vx.py":166:26)
#loc213 = loc("/home/Shuai/AIAA3201_Project/AIAA-3102-Proj_3/.tmp/torchinductor_Shuai/3o/c3ofdj6lglcgrs46g5iivrhzdk5lby2m4phx6raxjtj6gsxfc4vx.py":167:46)
#loc214 = loc("/home/Shuai/AIAA3201_Project/AIAA-3102-Proj_3/.tmp/torchinductor_Shuai/3o/c3ofdj6lglcgrs46g5iivrhzdk5lby2m4phx6raxjtj6gsxfc4vx.py":167:44)
#loc215 = loc("/home/Shuai/AIAA3201_Project/AIAA-3102-Proj_3/.tmp/torchinductor_Shuai/3o/c3ofdj6lglcgrs46g5iivrhzdk5lby2m4phx6raxjtj6gsxfc4vx.py":167:58)
#loc216 = loc("/home/Shuai/AIAA3201_Project/AIAA-3102-Proj_3/.tmp/torchinductor_Shuai/3o/c3ofdj6lglcgrs46g5iivrhzdk5lby2m4phx6raxjtj6gsxfc4vx.py":167:55)
#loc217 = loc("/home/Shuai/AIAA3201_Project/AIAA-3102-Proj_3/.tmp/torchinductor_Shuai/3o/c3ofdj6lglcgrs46g5iivrhzdk5lby2m4phx6raxjtj6gsxfc4vx.py":167:36)
#loc218 = loc("/home/Shuai/AIAA3201_Project/AIAA-3102-Proj_3/.tmp/torchinductor_Shuai/3o/c3ofdj6lglcgrs46g5iivrhzdk5lby2m4phx6raxjtj6gsxfc4vx.py":167:65)
#loc219 = loc("/home/Shuai/AIAA3201_Project/AIAA-3102-Proj_3/.tmp/torchinductor_Shuai/3o/c3ofdj6lglcgrs46g5iivrhzdk5lby2m4phx6raxjtj6gsxfc4vx.py":168:26)
#loc220 = loc("/home/Shuai/AIAA3201_Project/AIAA-3102-Proj_3/.tmp/torchinductor_Shuai/3o/c3ofdj6lglcgrs46g5iivrhzdk5lby2m4phx6raxjtj6gsxfc4vx.py":169:26)
#loc221 = loc("/home/Shuai/AIAA3201_Project/AIAA-3102-Proj_3/.tmp/torchinductor_Shuai/3o/c3ofdj6lglcgrs46g5iivrhzdk5lby2m4phx6raxjtj6gsxfc4vx.py":170:24)
#loc222 = loc("/home/Shuai/AIAA3201_Project/AIAA-3102-Proj_3/.tmp/torchinductor_Shuai/3o/c3ofdj6lglcgrs46g5iivrhzdk5lby2m4phx6raxjtj6gsxfc4vx.py":171:48)
#loc223 = loc("/home/Shuai/AIAA3201_Project/AIAA-3102-Proj_3/.tmp/torchinductor_Shuai/3o/c3ofdj6lglcgrs46g5iivrhzdk5lby2m4phx6raxjtj6gsxfc4vx.py":172:48)
#loc224 = loc("/home/Shuai/AIAA3201_Project/AIAA-3102-Proj_3/.tmp/torchinductor_Shuai/3o/c3ofdj6lglcgrs46g5iivrhzdk5lby2m4phx6raxjtj6gsxfc4vx.py":173:46)
#loc225 = loc("/home/Shuai/AIAA3201_Project/AIAA-3102-Proj_3/.tmp/torchinductor_Shuai/3o/c3ofdj6lglcgrs46g5iivrhzdk5lby2m4phx6raxjtj6gsxfc4vx.py":173:44)
#loc226 = loc("/home/Shuai/AIAA3201_Project/AIAA-3102-Proj_3/.tmp/torchinductor_Shuai/3o/c3ofdj6lglcgrs46g5iivrhzdk5lby2m4phx6raxjtj6gsxfc4vx.py":173:58)
#loc227 = loc("/home/Shuai/AIAA3201_Project/AIAA-3102-Proj_3/.tmp/torchinductor_Shuai/3o/c3ofdj6lglcgrs46g5iivrhzdk5lby2m4phx6raxjtj6gsxfc4vx.py":173:55)
#loc228 = loc("/home/Shuai/AIAA3201_Project/AIAA-3102-Proj_3/.tmp/torchinductor_Shuai/3o/c3ofdj6lglcgrs46g5iivrhzdk5lby2m4phx6raxjtj6gsxfc4vx.py":173:36)
#loc229 = loc("/home/Shuai/AIAA3201_Project/AIAA-3102-Proj_3/.tmp/torchinductor_Shuai/3o/c3ofdj6lglcgrs46g5iivrhzdk5lby2m4phx6raxjtj6gsxfc4vx.py":173:65)
#loc230 = loc("/home/Shuai/AIAA3201_Project/AIAA-3102-Proj_3/.tmp/torchinductor_Shuai/3o/c3ofdj6lglcgrs46g5iivrhzdk5lby2m4phx6raxjtj6gsxfc4vx.py":174:26)
#loc231 = loc("/home/Shuai/AIAA3201_Project/AIAA-3102-Proj_3/.tmp/torchinductor_Shuai/3o/c3ofdj6lglcgrs46g5iivrhzdk5lby2m4phx6raxjtj6gsxfc4vx.py":175:46)
#loc232 = loc("/home/Shuai/AIAA3201_Project/AIAA-3102-Proj_3/.tmp/torchinductor_Shuai/3o/c3ofdj6lglcgrs46g5iivrhzdk5lby2m4phx6raxjtj6gsxfc4vx.py":175:44)
#loc233 = loc("/home/Shuai/AIAA3201_Project/AIAA-3102-Proj_3/.tmp/torchinductor_Shuai/3o/c3ofdj6lglcgrs46g5iivrhzdk5lby2m4phx6raxjtj6gsxfc4vx.py":175:58)
#loc234 = loc("/home/Shuai/AIAA3201_Project/AIAA-3102-Proj_3/.tmp/torchinductor_Shuai/3o/c3ofdj6lglcgrs46g5iivrhzdk5lby2m4phx6raxjtj6gsxfc4vx.py":175:55)
#loc235 = loc("/home/Shuai/AIAA3201_Project/AIAA-3102-Proj_3/.tmp/torchinductor_Shuai/3o/c3ofdj6lglcgrs46g5iivrhzdk5lby2m4phx6raxjtj6gsxfc4vx.py":175:36)
#loc236 = loc("/home/Shuai/AIAA3201_Project/AIAA-3102-Proj_3/.tmp/torchinductor_Shuai/3o/c3ofdj6lglcgrs46g5iivrhzdk5lby2m4phx6raxjtj6gsxfc4vx.py":175:65)
#loc237 = loc("/home/Shuai/AIAA3201_Project/AIAA-3102-Proj_3/.tmp/torchinductor_Shuai/3o/c3ofdj6lglcgrs46g5iivrhzdk5lby2m4phx6raxjtj6gsxfc4vx.py":176:26)
#loc238 = loc("/home/Shuai/AIAA3201_Project/AIAA-3102-Proj_3/.tmp/torchinductor_Shuai/3o/c3ofdj6lglcgrs46g5iivrhzdk5lby2m4phx6raxjtj6gsxfc4vx.py":177:26)
#loc239 = loc("/home/Shuai/AIAA3201_Project/AIAA-3102-Proj_3/.tmp/torchinductor_Shuai/3o/c3ofdj6lglcgrs46g5iivrhzdk5lby2m4phx6raxjtj6gsxfc4vx.py":178:46)
#loc240 = loc("/home/Shuai/AIAA3201_Project/AIAA-3102-Proj_3/.tmp/torchinductor_Shuai/3o/c3ofdj6lglcgrs46g5iivrhzdk5lby2m4phx6raxjtj6gsxfc4vx.py":178:44)
#loc241 = loc("/home/Shuai/AIAA3201_Project/AIAA-3102-Proj_3/.tmp/torchinductor_Shuai/3o/c3ofdj6lglcgrs46g5iivrhzdk5lby2m4phx6raxjtj6gsxfc4vx.py":178:58)
#loc242 = loc("/home/Shuai/AIAA3201_Project/AIAA-3102-Proj_3/.tmp/torchinductor_Shuai/3o/c3ofdj6lglcgrs46g5iivrhzdk5lby2m4phx6raxjtj6gsxfc4vx.py":178:55)
#loc243 = loc("/home/Shuai/AIAA3201_Project/AIAA-3102-Proj_3/.tmp/torchinductor_Shuai/3o/c3ofdj6lglcgrs46g5iivrhzdk5lby2m4phx6raxjtj6gsxfc4vx.py":178:36)
#loc244 = loc("/home/Shuai/AIAA3201_Project/AIAA-3102-Proj_3/.tmp/torchinductor_Shuai/3o/c3ofdj6lglcgrs46g5iivrhzdk5lby2m4phx6raxjtj6gsxfc4vx.py":178:65)
#loc245 = loc("/home/Shuai/AIAA3201_Project/AIAA-3102-Proj_3/.tmp/torchinductor_Shuai/3o/c3ofdj6lglcgrs46g5iivrhzdk5lby2m4phx6raxjtj6gsxfc4vx.py":179:26)
#loc246 = loc("/home/Shuai/AIAA3201_Project/AIAA-3102-Proj_3/.tmp/torchinductor_Shuai/3o/c3ofdj6lglcgrs46g5iivrhzdk5lby2m4phx6raxjtj6gsxfc4vx.py":180:26)
#loc247 = loc("/home/Shuai/AIAA3201_Project/AIAA-3102-Proj_3/.tmp/torchinductor_Shuai/3o/c3ofdj6lglcgrs46g5iivrhzdk5lby2m4phx6raxjtj6gsxfc4vx.py":181:46)
#loc248 = loc("/home/Shuai/AIAA3201_Project/AIAA-3102-Proj_3/.tmp/torchinductor_Shuai/3o/c3ofdj6lglcgrs46g5iivrhzdk5lby2m4phx6raxjtj6gsxfc4vx.py":181:44)
#loc249 = loc("/home/Shuai/AIAA3201_Project/AIAA-3102-Proj_3/.tmp/torchinductor_Shuai/3o/c3ofdj6lglcgrs46g5iivrhzdk5lby2m4phx6raxjtj6gsxfc4vx.py":181:58)
#loc250 = loc("/home/Shuai/AIAA3201_Project/AIAA-3102-Proj_3/.tmp/torchinductor_Shuai/3o/c3ofdj6lglcgrs46g5iivrhzdk5lby2m4phx6raxjtj6gsxfc4vx.py":181:55)
#loc251 = loc("/home/Shuai/AIAA3201_Project/AIAA-3102-Proj_3/.tmp/torchinductor_Shuai/3o/c3ofdj6lglcgrs46g5iivrhzdk5lby2m4phx6raxjtj6gsxfc4vx.py":181:36)
#loc252 = loc("/home/Shuai/AIAA3201_Project/AIAA-3102-Proj_3/.tmp/torchinductor_Shuai/3o/c3ofdj6lglcgrs46g5iivrhzdk5lby2m4phx6raxjtj6gsxfc4vx.py":181:65)
#loc253 = loc("/home/Shuai/AIAA3201_Project/AIAA-3102-Proj_3/.tmp/torchinductor_Shuai/3o/c3ofdj6lglcgrs46g5iivrhzdk5lby2m4phx6raxjtj6gsxfc4vx.py":182:26)
#loc254 = loc("/home/Shuai/AIAA3201_Project/AIAA-3102-Proj_3/.tmp/torchinductor_Shuai/3o/c3ofdj6lglcgrs46g5iivrhzdk5lby2m4phx6raxjtj6gsxfc4vx.py":183:26)
#loc255 = loc("/home/Shuai/AIAA3201_Project/AIAA-3102-Proj_3/.tmp/torchinductor_Shuai/3o/c3ofdj6lglcgrs46g5iivrhzdk5lby2m4phx6raxjtj6gsxfc4vx.py":184:25)
#loc256 = loc("/home/Shuai/AIAA3201_Project/AIAA-3102-Proj_3/.tmp/torchinductor_Shuai/3o/c3ofdj6lglcgrs46g5iivrhzdk5lby2m4phx6raxjtj6gsxfc4vx.py":185:26)
#loc257 = loc("/home/Shuai/AIAA3201_Project/AIAA-3102-Proj_3/.tmp/torchinductor_Shuai/3o/c3ofdj6lglcgrs46g5iivrhzdk5lby2m4phx6raxjtj6gsxfc4vx.py":186:26)
#loc258 = loc("/home/Shuai/AIAA3201_Project/AIAA-3102-Proj_3/.tmp/torchinductor_Shuai/3o/c3ofdj6lglcgrs46g5iivrhzdk5lby2m4phx6raxjtj6gsxfc4vx.py":187:26)
#loc259 = loc("/home/Shuai/AIAA3201_Project/AIAA-3102-Proj_3/.tmp/torchinductor_Shuai/3o/c3ofdj6lglcgrs46g5iivrhzdk5lby2m4phx6raxjtj6gsxfc4vx.py":188:26)
#loc260 = loc("/home/Shuai/AIAA3201_Project/AIAA-3102-Proj_3/.tmp/torchinductor_Shuai/3o/c3ofdj6lglcgrs46g5iivrhzdk5lby2m4phx6raxjtj6gsxfc4vx.py":189:26)
#loc261 = loc("/home/Shuai/AIAA3201_Project/AIAA-3102-Proj_3/.tmp/torchinductor_Shuai/3o/c3ofdj6lglcgrs46g5iivrhzdk5lby2m4phx6raxjtj6gsxfc4vx.py":190:26)
#loc262 = loc("/home/Shuai/AIAA3201_Project/AIAA-3102-Proj_3/.tmp/torchinductor_Shuai/3o/c3ofdj6lglcgrs46g5iivrhzdk5lby2m4phx6raxjtj6gsxfc4vx.py":191:26)
#loc263 = loc("/home/Shuai/AIAA3201_Project/AIAA-3102-Proj_3/.tmp/torchinductor_Shuai/3o/c3ofdj6lglcgrs46g5iivrhzdk5lby2m4phx6raxjtj6gsxfc4vx.py":192:25)
#loc264 = loc("/home/Shuai/AIAA3201_Project/AIAA-3102-Proj_3/.tmp/torchinductor_Shuai/3o/c3ofdj6lglcgrs46g5iivrhzdk5lby2m4phx6raxjtj6gsxfc4vx.py":193:26)
#loc265 = loc("/home/Shuai/AIAA3201_Project/AIAA-3102-Proj_3/.tmp/torchinductor_Shuai/3o/c3ofdj6lglcgrs46g5iivrhzdk5lby2m4phx6raxjtj6gsxfc4vx.py":194:26)
#loc266 = loc("/home/Shuai/AIAA3201_Project/AIAA-3102-Proj_3/.tmp/torchinductor_Shuai/3o/c3ofdj6lglcgrs46g5iivrhzdk5lby2m4phx6raxjtj6gsxfc4vx.py":195:26)
#loc267 = loc("/home/Shuai/AIAA3201_Project/AIAA-3102-Proj_3/.tmp/torchinductor_Shuai/3o/c3ofdj6lglcgrs46g5iivrhzdk5lby2m4phx6raxjtj6gsxfc4vx.py":196:26)
#loc268 = loc("/home/Shuai/AIAA3201_Project/AIAA-3102-Proj_3/.tmp/torchinductor_Shuai/3o/c3ofdj6lglcgrs46g5iivrhzdk5lby2m4phx6raxjtj6gsxfc4vx.py":197:26)
#loc269 = loc("/home/Shuai/AIAA3201_Project/AIAA-3102-Proj_3/.tmp/torchinductor_Shuai/3o/c3ofdj6lglcgrs46g5iivrhzdk5lby2m4phx6raxjtj6gsxfc4vx.py":198:26)
#loc270 = loc("/home/Shuai/AIAA3201_Project/AIAA-3102-Proj_3/.tmp/torchinductor_Shuai/3o/c3ofdj6lglcgrs46g5iivrhzdk5lby2m4phx6raxjtj6gsxfc4vx.py":199:26)
#loc271 = loc("/home/Shuai/AIAA3201_Project/AIAA-3102-Proj_3/.tmp/torchinductor_Shuai/3o/c3ofdj6lglcgrs46g5iivrhzdk5lby2m4phx6raxjtj6gsxfc4vx.py":200:26)
#loc272 = loc("/home/Shuai/AIAA3201_Project/AIAA-3102-Proj_3/.tmp/torchinductor_Shuai/3o/c3ofdj6lglcgrs46g5iivrhzdk5lby2m4phx6raxjtj6gsxfc4vx.py":201:26)
#loc273 = loc("/home/Shuai/AIAA3201_Project/AIAA-3102-Proj_3/.tmp/torchinductor_Shuai/3o/c3ofdj6lglcgrs46g5iivrhzdk5lby2m4phx6raxjtj6gsxfc4vx.py":203:26)
#loc274 = loc("/home/Shuai/AIAA3201_Project/AIAA-3102-Proj_3/.tmp/torchinductor_Shuai/3o/c3ofdj6lglcgrs46g5iivrhzdk5lby2m4phx6raxjtj6gsxfc4vx.py":204:26)
#loc275 = loc("/home/Shuai/AIAA3201_Project/AIAA-3102-Proj_3/.tmp/torchinductor_Shuai/3o/c3ofdj6lglcgrs46g5iivrhzdk5lby2m4phx6raxjtj6gsxfc4vx.py":207:70)
#loc276 = loc("/home/Shuai/AIAA3201_Project/AIAA-3102-Proj_3/.tmp/torchinductor_Shuai/3o/c3ofdj6lglcgrs46g5iivrhzdk5lby2m4phx6raxjtj6gsxfc4vx.py":207:59)
#loc277 = loc("/home/Shuai/AIAA3201_Project/AIAA-3102-Proj_3/.tmp/torchinductor_Shuai/3o/c3ofdj6lglcgrs46g5iivrhzdk5lby2m4phx6raxjtj6gsxfc4vx.py":209:58)
#loc278 = loc("/home/Shuai/AIAA3201_Project/AIAA-3102-Proj_3/.tmp/torchinductor_Shuai/3o/c3ofdj6lglcgrs46g5iivrhzdk5lby2m4phx6raxjtj6gsxfc4vx.py":210:54)
#loc279 = loc("/home/Shuai/AIAA3201_Project/AIAA-3102-Proj_3/.tmp/torchinductor_Shuai/3o/c3ofdj6lglcgrs46g5iivrhzdk5lby2m4phx6raxjtj6gsxfc4vx.py":211:62)
#loc280 = loc("/home/Shuai/AIAA3201_Project/AIAA-3102-Proj_3/.tmp/torchinductor_Shuai/3o/c3ofdj6lglcgrs46g5iivrhzdk5lby2m4phx6raxjtj6gsxfc4vx.py":212:43)
#loc281 = loc("/home/Shuai/AIAA3201_Project/AIAA-3102-Proj_3/.tmp/torchinductor_Shuai/3o/c3ofdj6lglcgrs46g5iivrhzdk5lby2m4phx6raxjtj6gsxfc4vx.py":212:37)
#loc282 = loc("/home/Shuai/AIAA3201_Project/AIAA-3102-Proj_3/.tmp/torchinductor_Shuai/3o/c3ofdj6lglcgrs46g5iivrhzdk5lby2m4phx6raxjtj6gsxfc4vx.py":212:32)
#loc283 = loc("/home/Shuai/AIAA3201_Project/AIAA-3102-Proj_3/.tmp/torchinductor_Shuai/3o/c3ofdj6lglcgrs46g5iivrhzdk5lby2m4phx6raxjtj6gsxfc4vx.py":212:58)
#loc284 = loc("/home/Shuai/AIAA3201_Project/AIAA-3102-Proj_3/.tmp/torchinductor_Shuai/3o/c3ofdj6lglcgrs46g5iivrhzdk5lby2m4phx6raxjtj6gsxfc4vx.py":212:8)
#loc285 = loc("/home/Shuai/AIAA3201_Project/AIAA-3102-Proj_3/.tmp/torchinductor_Shuai/3o/c3ofdj6lglcgrs46g5iivrhzdk5lby2m4phx6raxjtj6gsxfc4vx.py":213:91)
#loc286 = loc("/home/Shuai/AIAA3201_Project/AIAA-3102-Proj_3/.tmp/torchinductor_Shuai/3o/c3ofdj6lglcgrs46g5iivrhzdk5lby2m4phx6raxjtj6gsxfc4vx.py":214:20)
#loc287 = loc("/home/Shuai/AIAA3201_Project/AIAA-3102-Proj_3/.tmp/torchinductor_Shuai/3o/c3ofdj6lglcgrs46g5iivrhzdk5lby2m4phx6raxjtj6gsxfc4vx.py":215:20)
#loc288 = loc("/home/Shuai/AIAA3201_Project/AIAA-3102-Proj_3/.tmp/torchinductor_Shuai/3o/c3ofdj6lglcgrs46g5iivrhzdk5lby2m4phx6raxjtj6gsxfc4vx.py":216:20)
#loc289 = loc("/home/Shuai/AIAA3201_Project/AIAA-3102-Proj_3/.tmp/torchinductor_Shuai/3o/c3ofdj6lglcgrs46g5iivrhzdk5lby2m4phx6raxjtj6gsxfc4vx.py":217:25)
#loc290 = loc("/home/Shuai/AIAA3201_Project/AIAA-3102-Proj_3/.tmp/torchinductor_Shuai/3o/c3ofdj6lglcgrs46g5iivrhzdk5lby2m4phx6raxjtj6gsxfc4vx.py":217:38)
#loc291 = loc("/home/Shuai/AIAA3201_Project/AIAA-3102-Proj_3/.tmp/torchinductor_Shuai/3o/c3ofdj6lglcgrs46g5iivrhzdk5lby2m4phx6raxjtj6gsxfc4vx.py":218:25)
#loc292 = loc("/home/Shuai/AIAA3201_Project/AIAA-3102-Proj_3/.tmp/torchinductor_Shuai/3o/c3ofdj6lglcgrs46g5iivrhzdk5lby2m4phx6raxjtj6gsxfc4vx.py":218:38)
#loc293 = loc("/home/Shuai/AIAA3201_Project/AIAA-3102-Proj_3/.tmp/torchinductor_Shuai/3o/c3ofdj6lglcgrs46g5iivrhzdk5lby2m4phx6raxjtj6gsxfc4vx.py":218:4)
#loc294 = loc("/home/Shuai/miniconda3/envs/project3/lib/python3.12/site-packages/triton/language/standard.py":120:0)
#loc295 = loc("/home/Shuai/miniconda3/envs/project3/lib/python3.12/site-packages/triton/language/standard.py":129:31)
#loc296 = loc("/home/Shuai/miniconda3/envs/project3/lib/python3.12/site-packages/triton/language/standard.py":129:11)
#loc297 = loc("/home/Shuai/miniconda3/envs/project3/lib/python3.12/site-packages/triton/language/standard.py":129:4)
#loc299 = loc("/home/Shuai/miniconda3/envs/project3/lib/python3.12/site-packages/torch/_inductor/runtime/triton_helpers.py":116:15)
#loc300 = loc("/home/Shuai/miniconda3/envs/project3/lib/python3.12/site-packages/torch/_inductor/runtime/triton_helpers.py":117:19)
#loc301 = loc("/home/Shuai/miniconda3/envs/project3/lib/python3.12/site-packages/torch/_inductor/runtime/triton_helpers.py":117:7)
#loc302 = loc("/home/Shuai/miniconda3/envs/project3/lib/python3.12/site-packages/torch/_inductor/runtime/triton_helpers.py":118:21)
#loc303 = loc("/home/Shuai/miniconda3/envs/project3/lib/python3.12/site-packages/torch/_inductor/runtime/triton_helpers.py":118:16)
#loc304 = loc("/home/Shuai/miniconda3/envs/project3/lib/python3.12/site-packages/torch/_inductor/runtime/triton_helpers.py":119:29)
#loc305 = loc("/home/Shuai/miniconda3/envs/project3/lib/python3.12/site-packages/torch/_inductor/runtime/triton_helpers.py":119:11)
#loc306 = loc("/home/Shuai/miniconda3/envs/project3/lib/python3.12/site-packages/torch/_inductor/runtime/triton_helpers.py":119:4)
#loc308 = loc("/home/Shuai/miniconda3/envs/project3/lib/python3.12/site-packages/torch/_inductor/runtime/triton_helpers.py":93:29)
#loc309 = loc("/home/Shuai/miniconda3/envs/project3/lib/python3.12/site-packages/torch/_inductor/runtime/triton_helpers.py":93:11)
#loc310 = loc("/home/Shuai/miniconda3/envs/project3/lib/python3.12/site-packages/torch/_inductor/runtime/triton_helpers.py":93:4)
#loc312 = loc("/home/Shuai/miniconda3/envs/project3/lib/python3.12/site-packages/torch/_inductor/runtime/triton_helpers.py":71:30)
#loc313 = loc("/home/Shuai/miniconda3/envs/project3/lib/python3.12/site-packages/torch/_inductor/runtime/triton_helpers.py":71:15)
#loc314 = loc("/home/Shuai/miniconda3/envs/project3/lib/python3.12/site-packages/torch/_inductor/runtime/triton_helpers.py":71:11)
#loc315 = loc("/home/Shuai/miniconda3/envs/project3/lib/python3.12/site-packages/torch/_inductor/runtime/triton_helpers.py":71:4)
#loc317 = loc("/home/Shuai/miniconda3/envs/project3/lib/python3.12/site-packages/torch/_inductor/runtime/triton_helpers.py":108:15)
#loc318 = loc("/home/Shuai/miniconda3/envs/project3/lib/python3.12/site-packages/torch/_inductor/runtime/triton_helpers.py":109:19)
#loc319 = loc("/home/Shuai/miniconda3/envs/project3/lib/python3.12/site-packages/torch/_inductor/runtime/triton_helpers.py":109:7)
#loc320 = loc("/home/Shuai/miniconda3/envs/project3/lib/python3.12/site-packages/torch/_inductor/runtime/triton_helpers.py":110:21)
#loc321 = loc("/home/Shuai/miniconda3/envs/project3/lib/python3.12/site-packages/torch/_inductor/runtime/triton_helpers.py":110:16)
#loc322 = loc("/home/Shuai/miniconda3/envs/project3/lib/python3.12/site-packages/torch/_inductor/runtime/triton_helpers.py":111:29)
#loc323 = loc("/home/Shuai/miniconda3/envs/project3/lib/python3.12/site-packages/torch/_inductor/runtime/triton_helpers.py":111:11)
#loc324 = loc("/home/Shuai/miniconda3/envs/project3/lib/python3.12/site-packages/torch/_inductor/runtime/triton_helpers.py":111:4)
#loc326 = loc("/home/Shuai/miniconda3/envs/project3/lib/python3.12/site-packages/torch/_inductor/runtime/triton_helpers.py":217:7)
#loc327 = loc("/home/Shuai/miniconda3/envs/project3/lib/python3.12/site-packages/torch/_inductor/runtime/triton_helpers.py":218:46)
#loc328 = loc("/home/Shuai/miniconda3/envs/project3/lib/python3.12/site-packages/torch/_inductor/runtime/triton_helpers.py":220:31)
#loc329 = loc("/home/Shuai/miniconda3/envs/project3/lib/python3.12/site-packages/torch/_inductor/runtime/triton_helpers.py":222:24)
#loc330 = loc("/home/Shuai/miniconda3/envs/project3/lib/python3.12/site-packages/torch/_inductor/runtime/triton_helpers.py":223:30)
#loc331 = loc("/home/Shuai/miniconda3/envs/project3/lib/python3.12/site-packages/torch/_inductor/runtime/triton_helpers.py":224:34)
#loc332 = loc("/home/Shuai/miniconda3/envs/project3/lib/python3.12/site-packages/torch/_inductor/runtime/triton_helpers.py":224:26)
#loc333 = loc("/home/Shuai/miniconda3/envs/project3/lib/python3.12/site-packages/torch/_inductor/runtime/triton_helpers.py":225:39)
#loc334 = loc("/home/Shuai/miniconda3/envs/project3/lib/python3.12/site-packages/torch/_inductor/runtime/triton_helpers.py":225:31)
#loc335 = loc("/home/Shuai/miniconda3/envs/project3/lib/python3.12/site-packages/torch/_inductor/runtime/triton_helpers.py":225:22)
#loc336 = loc("/home/Shuai/miniconda3/envs/project3/lib/python3.12/site-packages/torch/_inductor/runtime/triton_helpers.py":226:11)
#loc337 = loc("/home/Shuai/miniconda3/envs/project3/lib/python3.12/site-packages/torch/_inductor/runtime/triton_helpers.py":226:4)
#loc339 = loc("/home/Shuai/miniconda3/envs/project3/lib/python3.12/site-packages/triton/language/standard.py":140:30)
#loc340 = loc("/home/Shuai/miniconda3/envs/project3/lib/python3.12/site-packages/triton/language/standard.py":140:11)
#loc341 = loc("/home/Shuai/miniconda3/envs/project3/lib/python3.12/site-packages/triton/language/standard.py":140:4)
#loc343 = loc("/home/Shuai/miniconda3/envs/project3/lib/python3.12/site-packages/torch/_inductor/runtime/triton_helpers.py":243:46)
#loc345 = loc("/home/Shuai/miniconda3/envs/project3/lib/python3.12/site-packages/torch/_inductor/runtime/triton_helpers.py":243:11)
#loc346 = loc("/home/Shuai/miniconda3/envs/project3/lib/python3.12/site-packages/torch/_inductor/runtime/triton_helpers.py":243:4)
#loc348 = loc("/home/Shuai/miniconda3/envs/project3/lib/python3.12/site-packages/torch/_inductor/runtime/triton_helpers.py":231:21)
#loc349 = loc("/home/Shuai/miniconda3/envs/project3/lib/python3.12/site-packages/torch/_inductor/runtime/triton_helpers.py":232:28)
#loc350 = loc("/home/Shuai/miniconda3/envs/project3/lib/python3.12/site-packages/torch/_inductor/runtime/triton_helpers.py":233:39)
#loc351 = loc("/home/Shuai/miniconda3/envs/project3/lib/python3.12/site-packages/torch/_inductor/runtime/triton_helpers.py":233:60)
#loc352 = loc("/home/Shuai/miniconda3/envs/project3/lib/python3.12/site-packages/torch/_inductor/runtime/triton_helpers.py":233:49)
#loc353 = loc("/home/Shuai/miniconda3/envs/project3/lib/python3.12/site-packages/torch/_inductor/runtime/triton_helpers.py":235:25)
#loc354 = loc("/home/Shuai/miniconda3/envs/project3/lib/python3.12/site-packages/torch/_inductor/runtime/triton_helpers.py":235:17)
#loc355 = loc("/home/Shuai/miniconda3/envs/project3/lib/python3.12/site-packages/torch/_inductor/runtime/triton_helpers.py":236:15)
#loc356 = loc("/home/Shuai/miniconda3/envs/project3/lib/python3.12/site-packages/torch/_inductor/runtime/triton_helpers.py":236:30)
#loc357 = loc("/home/Shuai/miniconda3/envs/project3/lib/python3.12/site-packages/torch/_inductor/runtime/triton_helpers.py":236:38)
#loc358 = loc("/home/Shuai/miniconda3/envs/project3/lib/python3.12/site-packages/torch/_inductor/runtime/triton_helpers.py":236:49)
#loc359 = loc("/home/Shuai/miniconda3/envs/project3/lib/python3.12/site-packages/torch/_inductor/runtime/triton_helpers.py":236:22)
#loc360 = loc("/home/Shuai/miniconda3/envs/project3/lib/python3.12/site-packages/torch/_inductor/runtime/triton_helpers.py":234:11)
#loc361 = loc("/home/Shuai/miniconda3/envs/project3/lib/python3.12/site-packages/torch/_inductor/runtime/triton_helpers.py":234:4)
#loc371 = loc("xnumel"(#loc1))
#loc372 = loc("r0_numel"(#loc2))
#loc373 = loc("xoffset"(#loc3))
#loc374 = loc("xoffset"(#loc4))
#loc375 = loc("xindex"(#loc5))
#loc376 = loc("xindex"(#loc6))
#loc377 = loc("xindex"(#loc7))
#loc378 = loc("xmask"(#loc8))
#loc379 = loc("xmask"(#loc9))
#loc380 = loc("r0_base"(#loc10))
#loc381 = loc("r0_base"(#loc11))
#loc382 = loc("x1"(#loc12))
#loc383 = loc("x0"(#loc13))
#loc384 = loc("tmp166_mean"(#loc14))
#loc385 = loc("tmp166_m2"(#loc15))
#loc386 = loc("tmp166_weight"(#loc16))
#loc387 = loc("tmp166_mean"(#loc17))
#loc388 = loc("r0_index"(#loc18))
#loc389 = loc("r0_mask"(#loc19))
#loc390 = loc("tmp158"(#loc20))
#loc391 = loc("tmp158"(#loc21))
#loc392 = loc("tmp158"(#loc22))
#loc393 = loc("tmp158"(#loc23))
#loc394 = loc("tmp158"(#loc24))
#loc395 = loc("tmp159"(#loc25))
#loc396 = loc("tmp159"(#loc26))
#loc397 = loc("tmp159"(#loc27))
#loc398 = loc("tmp162"(#loc28))
#loc399 = loc("tmp162"(#loc29))
#loc400 = loc("tmp162"(#loc30))
#loc401 = loc("tmp162"(#loc31))
#loc402 = loc("tmp162"(#loc32))
#loc403 = loc("tmp162"(#loc33))
#loc404 = loc("tmp162"(#loc34))
#loc405 = loc("tmp162"(#loc35))
#loc406 = loc("tmp1"(#loc36))
#loc407 = loc("tmp2"(#loc37))
#loc408 = loc("tmp3"(#loc38))
#loc409 = loc("tmp4"(#loc39))
#loc410 = loc("tmp5"(#loc40))
#loc411 = loc("tmp6"(#loc41))
#loc412 = loc("tmp7"(#loc42))
#loc413 = loc("tmp8"(#loc43))
#loc414 = loc("tmp9"(#loc44))
#loc415 = loc("tmp10"(#loc45))
#loc416 = loc("tmp11"(#loc46))
#loc417 = loc("tmp12"(#loc47))
#loc418 = loc("tmp13"(#loc48))
#loc419 = loc("tmp14"(#loc49))
#loc420 = loc("tmp16"(#loc50))
#loc421 = loc("tmp17"(#loc51))
#loc422 = loc("tmp18"(#loc52))
#loc423 = loc("tmp19"(#loc53))
#loc424 = loc("tmp20"(#loc54))
#loc425 = loc("tmp21"(#loc55))
#loc426 = loc("tmp22"(#loc56))
#loc427 = loc("tmp23"(#loc57))
#loc428 = loc("tmp24"(#loc58))
#loc429 = loc("tmp25"(#loc59))
#loc430 = loc("tmp25"(#loc60))
#loc431 = loc("tmp25"(#loc61))
#loc432 = loc("tmp25"(#loc62))
#loc433 = loc("tmp25"(#loc63))
#loc434 = loc("tmp25"(#loc64))
#loc435 = loc("tmp26"(#loc65))
#loc436 = loc("tmp27"(#loc66))
#loc437 = loc("tmp28"(#loc67))
#loc438 = loc("tmp29"(#loc68))
#loc439 = loc("tmp30"(#loc69))
#loc440 = loc("tmp31"(#loc70))
#loc441 = loc("tmp32"(#loc71))
#loc442 = loc("tmp33"(#loc72))
#loc443 = loc("tmp34"(#loc73))
#loc444 = loc("tmp35"(#loc74))
#loc445 = loc("tmp36"(#loc75))
#loc446 = loc("tmp37"(#loc76))
#loc447 = loc("tmp38"(#loc77))
#loc448 = loc("tmp39"(#loc78))
#loc449 = loc("tmp40"(#loc79))
#loc450 = loc("tmp41"(#loc80))
#loc451 = loc("tmp42"(#loc81))
#loc452 = loc("tmp43"(#loc82))
#loc453 = loc("tmp44"(#loc83))
#loc454 = loc("tmp45"(#loc84))
#loc455 = loc("tmp45"(#loc85))
#loc456 = loc("tmp45"(#loc86))
#loc457 = loc("tmp45"(#loc87))
#loc458 = loc("tmp45"(#loc88))
#loc459 = loc("tmp45"(#loc89))
#loc460 = loc("tmp46"(#loc90))
#loc461 = loc("tmp47"(#loc91))
#loc462 = loc("tmp48"(#loc92))
#loc463 = loc("tmp49"(#loc93))
#loc464 = loc("tmp50"(#loc94))
#loc465 = loc("tmp51"(#loc95))
#loc466 = loc("tmp52"(#loc96))
#loc467 = loc("tmp53"(#loc97))
#loc468 = loc("tmp54"(#loc98))
#loc469 = loc("tmp55"(#loc99))
#loc470 = loc("tmp56"(#loc100))
#loc471 = loc("tmp57"(#loc101))
#loc472 = loc("tmp58"(#loc102))
#loc473 = loc("tmp58"(#loc103))
#loc474 = loc("tmp58"(#loc104))
#loc475 = loc("tmp58"(#loc105))
#loc476 = loc("tmp58"(#loc106))
#loc477 = loc("tmp58"(#loc107))
#loc478 = loc("tmp59"(#loc108))
#loc479 = loc("tmp60"(#loc109))
#loc480 = loc("tmp61"(#loc110))
#loc481 = loc("tmp62"(#loc111))
#loc482 = loc("tmp63"(#loc112))
#loc483 = loc("tmp64"(#loc113))
#loc484 = loc("tmp65"(#loc114))
#loc485 = loc("tmp66"(#loc115))
#loc486 = loc("tmp67"(#loc116))
#loc487 = loc("tmp68"(#loc117))
#loc488 = loc("tmp69"(#loc118))
#loc489 = loc("tmp70"(#loc119))
#loc490 = loc("tmp71"(#loc120))
#loc491 = loc("tmp71"(#loc121))
#loc492 = loc("tmp71"(#loc122))
#loc493 = loc("tmp71"(#loc123))
#loc494 = loc("tmp71"(#loc124))
#loc495 = loc("tmp71"(#loc125))
#loc496 = loc("tmp72"(#loc126))
#loc497 = loc("tmp73"(#loc127))
#loc498 = loc("tmp74"(#loc128))
#loc499 = loc("tmp75"(#loc129))
#loc500 = loc("tmp76"(#loc130))
#loc501 = loc("tmp77"(#loc131))
#loc502 = loc("tmp78"(#loc132))
#loc503 = loc("tmp79"(#loc133))
#loc504 = loc("tmp80"(#loc134))
#loc505 = loc("tmp81"(#loc135))
#loc506 = loc("tmp82"(#loc136))
#loc507 = loc("tmp83"(#loc137))
#loc508 = loc("tmp84"(#loc138))
#loc509 = loc("tmp84"(#loc139))
#loc510 = loc("tmp84"(#loc140))
#loc511 = loc("tmp84"(#loc141))
#loc512 = loc("tmp84"(#loc142))
#loc513 = loc("tmp84"(#loc143))
#loc514 = loc("tmp85"(#loc144))
#loc515 = loc("tmp86"(#loc145))
#loc516 = loc("tmp86"(#loc146))
#loc517 = loc("tmp86"(#loc147))
#loc518 = loc("tmp86"(#loc148))
#loc519 = loc("tmp86"(#loc149))
#loc520 = loc("tmp86"(#loc150))
#loc521 = loc("tmp87"(#loc151))
#loc522 = loc("tmp88"(#loc152))
#loc523 = loc("tmp89"(#loc153))
#loc524 = loc("tmp89"(#loc154))
#loc525 = loc("tmp89"(#loc155))
#loc526 = loc("tmp89"(#loc156))
#loc527 = loc("tmp89"(#loc157))
#loc528 = loc("tmp89"(#loc158))
#loc529 = loc("tmp90"(#loc159))
#loc530 = loc("tmp91"(#loc160))
#loc531 = loc("tmp92"(#loc161))
#loc532 = loc("tmp92"(#loc162))
#loc533 = loc("tmp92"(#loc163))
#loc534 = loc("tmp92"(#loc164))
#loc535 = loc("tmp92"(#loc165))
#loc536 = loc("tmp92"(#loc166))
#loc537 = loc("tmp93"(#loc167))
#loc538 = loc("tmp94"(#loc168))
#loc539 = loc("tmp95"(#loc169))
#loc540 = loc("tmp96"(#loc170))
#loc541 = loc("tmp97"(#loc171))
#loc542 = loc("tmp98"(#loc172))
#loc543 = loc("tmp99"(#loc173))
#loc544 = loc("tmp100"(#loc174))
#loc545 = loc("tmp101"(#loc175))
#loc546 = loc("tmp102"(#loc176))
#loc547 = loc("tmp103"(#loc177))
#loc548 = loc("tmp104"(#loc178))
#loc549 = loc("tmp105"(#loc179))
#loc550 = loc("tmp106"(#loc180))
#loc551 = loc("tmp107"(#loc181))
#loc552 = loc("tmp108"(#loc182))
#loc553 = loc("tmp109"(#loc183))
#loc554 = loc("tmp110"(#loc184))
#loc555 = loc("tmp111"(#loc185))
#loc556 = loc("tmp112"(#loc186))
#loc557 = loc("tmp113"(#loc187))
#loc558 = loc("tmp114"(#loc188))
#loc559 = loc("tmp115"(#loc189))
#loc560 = loc("tmp116"(#loc190))
#loc561 = loc("tmp116"(#loc191))
#loc562 = loc("tmp116"(#loc192))
#loc563 = loc("tmp116"(#loc193))
#loc564 = loc("tmp116"(#loc194))
#loc565 = loc("tmp116"(#loc195))
#loc566 = loc("tmp117"(#loc196))
#loc567 = loc("tmp118"(#loc197))
#loc568 = loc("tmp118"(#loc198))
#loc569 = loc("tmp118"(#loc199))
#loc570 = loc("tmp118"(#loc200))
#loc571 = loc("tmp118"(#loc201))
#loc572 = loc("tmp118"(#loc202))
#loc573 = loc("tmp119"(#loc203))
#loc574 = loc("tmp120"(#loc204))
#loc575 = loc("tmp121"(#loc205))
#loc576 = loc("tmp121"(#loc206))
#loc577 = loc("tmp121"(#loc207))
#loc578 = loc("tmp121"(#loc208))
#loc579 = loc("tmp121"(#loc209))
#loc580 = loc("tmp121"(#loc210))
#loc581 = loc("tmp122"(#loc211))
#loc582 = loc("tmp123"(#loc212))
#loc583 = loc("tmp124"(#loc213))
#loc584 = loc("tmp124"(#loc214))
#loc585 = loc("tmp124"(#loc215))
#loc586 = loc("tmp124"(#loc216))
#loc587 = loc("tmp124"(#loc217))
#loc588 = loc("tmp124"(#loc218))
#loc589 = loc("tmp125"(#loc219))
#loc590 = loc("tmp126"(#loc220))
#loc591 = loc("tmp127"(#loc221))
#loc592 = loc("tmp128"(#loc222))
#loc593 = loc("tmp129"(#loc223))
#loc594 = loc("tmp130"(#loc224))
#loc595 = loc("tmp130"(#loc225))
#loc596 = loc("tmp130"(#loc226))
#loc597 = loc("tmp130"(#loc227))
#loc598 = loc("tmp130"(#loc228))
#loc599 = loc("tmp130"(#loc229))
#loc600 = loc("tmp131"(#loc230))
#loc601 = loc("tmp132"(#loc231))
#loc602 = loc("tmp132"(#loc232))
#loc603 = loc("tmp132"(#loc233))
#loc604 = loc("tmp132"(#loc234))
#loc605 = loc("tmp132"(#loc235))
#loc606 = loc("tmp132"(#loc236))
#loc607 = loc("tmp133"(#loc237))
#loc608 = loc("tmp134"(#loc238))
#loc609 = loc("tmp135"(#loc239))
#loc610 = loc("tmp135"(#loc240))
#loc611 = loc("tmp135"(#loc241))
#loc612 = loc("tmp135"(#loc242))
#loc613 = loc("tmp135"(#loc243))
#loc614 = loc("tmp135"(#loc244))
#loc615 = loc("tmp136"(#loc245))
#loc616 = loc("tmp137"(#loc246))
#loc617 = loc("tmp138"(#loc247))
#loc618 = loc("tmp138"(#loc248))
#loc619 = loc("tmp138"(#loc249))
#loc620 = loc("tmp138"(#loc250))
#loc621 = loc("tmp138"(#loc251))
#loc622 = loc("tmp138"(#loc252))
#loc623 = loc("tmp139"(#loc253))
#loc624 = loc("tmp140"(#loc254))
#loc625 = loc("tmp141"(#loc255))
#loc626 = loc("tmp142"(#loc256))
#loc627 = loc("tmp143"(#loc257))
#loc628 = loc("tmp144"(#loc258))
#loc629 = loc("tmp145"(#loc259))
#loc630 = loc("tmp146"(#loc260))
#loc631 = loc("tmp147"(#loc261))
#loc632 = loc("tmp148"(#loc262))
#loc633 = loc("tmp149"(#loc263))
#loc634 = loc("tmp150"(#loc264))
#loc635 = loc("tmp151"(#loc265))
#loc636 = loc("tmp152"(#loc266))
#loc637 = loc("tmp153"(#loc267))
#loc638 = loc("tmp154"(#loc268))
#loc639 = loc("tmp155"(#loc269))
#loc640 = loc("tmp156"(#loc270))
#loc641 = loc("tmp157"(#loc271))
#loc642 = loc("tmp160"(#loc272))
#loc643 = loc("tmp163"(#loc273))
#loc644 = loc("tmp164"(#loc274))
#loc645 = loc("tmp166_mean"(#loc277))
#loc646 = loc("tmp166_m2"(#loc278))
#loc647 = loc("tmp166_weight"(#loc279))
#loc648 = loc("tmp166"(#loc286))
#loc649 = loc("tmp170"(#loc287))
#loc650 = loc("tmp171"(#loc288))
#loc653 = loc("mask"(#loc299))
#loc654 = loc("mask"(#loc302))
#loc655 = loc("mask"(#loc303))
#loc660 = loc("mask"(#loc317))
#loc661 = loc("mask"(#loc320))
#loc662 = loc("mask"(#loc321))
#loc668 = loc("new_weight"(#loc327))
#loc669 = loc("new_m2"(#loc328))
#loc670 = loc("delta"(#loc329))
#loc671 = loc("new_weight"(#loc330))
#loc672 = loc("new_mean"(#loc331))
#loc673 = loc("new_mean"(#loc332))
#loc674 = loc("new_m2"(#loc333))
#loc675 = loc("new_m2"(#loc334))
#loc676 = loc("new_m2"(#loc335))
#loc687 = loc("delta"(#loc348))
#loc688 = loc("new_weight"(#loc349))
#loc689 = loc("w2_over_w"(#loc350))
#loc690 = loc("w2_over_w"(#loc351))
#loc691 = loc("w2_over_w"(#loc352))
#loc692 = loc("tmp166_m2"(#loc387))
#loc693 = loc("mask"(#loc653))
#loc694 = loc("mask"(#loc655))
#loc695 = loc("mask"(#loc660))
#loc696 = loc("mask"(#loc662))
#loc698 = loc("new_weight"(#loc668))
#loc699 = loc("new_m2"(#loc669))
#loc700 = loc("new_weight"(#loc671))
#loc701 = loc("new_mean"(#loc673))
#loc702 = loc("new_m2"(#loc676))
#loc703 = loc("tmp166_weight"(#loc692))
