#loc = loc("/home/Shuai/AIAA3201_Project/AIAA-3102-Proj_3/.tmp/torchinductor_Shuai/32/c32i53ejulyfiojkq67sujkzppeggvfhrzfafp3jnopfkq2rgao6.py":22:0)
#loc16 = loc("in_out_ptr0"(#loc))
#loc17 = loc("in_ptr0"(#loc))
#loc18 = loc("xnumel"(#loc))
module {
  tt.func public @triton_(%in_out_ptr0: !tt.ptr<bf16> {tt.divisibility = 16 : i32} loc("in_out_ptr0"(#loc)), %in_ptr0: !tt.ptr<bf16> {tt.divisibility = 16 : i32} loc("in_ptr0"(#loc)), %xnumel: i32 {tt.divisibility = 16 : i32} loc("xnumel"(#loc))) attributes {noinline = false} {
    %x2 = arith.constant dense<65536> : tensor<2048xi32> loc(#loc19)
    %c2048_i32 = arith.constant 2048 : i32 loc(#loc2)
    %xoffset = tt.get_program_id x : i32 loc(#loc20)
    %xoffset_0 = arith.muli %xoffset, %c2048_i32 : i32 loc(#loc21)
    %xindex = tt.make_range {end = 2048 : i32, start = 0 : i32} : tensor<2048xi32> loc(#loc22)
    %xindex_1 = tt.splat %xoffset_0 : i32 -> tensor<2048xi32> loc(#loc23)
    %xindex_2 = arith.addi %xindex_1, %xindex : tensor<2048xi32> loc(#loc23)
    %x2_3 = arith.divsi %xindex_2, %x2 : tensor<2048xi32> loc(#loc19)
    %tmp0 = tt.splat %in_out_ptr0 : !tt.ptr<bf16> -> tensor<2048x!tt.ptr<bf16>> loc(#loc24)
    %tmp0_4 = tt.addptr %tmp0, %xindex_2 : tensor<2048x!tt.ptr<bf16>>, tensor<2048xi32> loc(#loc24)
    %tmp0_5 = tt.load %tmp0_4 : tensor<2048x!tt.ptr<bf16>> loc(#loc25)
    %tmp0_6 = arith.extf %tmp0_5 : tensor<2048xbf16> to tensor<2048xf32> loc(#loc26)
    %tmp1 = tt.splat %in_ptr0 : !tt.ptr<bf16> -> tensor<2048x!tt.ptr<bf16>> loc(#loc27)
    %tmp1_7 = tt.addptr %tmp1, %x2_3 : tensor<2048x!tt.ptr<bf16>>, tensor<2048xi32> loc(#loc27)
    %tmp1_8 = tt.load %tmp1_7 evictionPolicy = evict_last : tensor<2048x!tt.ptr<bf16>> loc(#loc28)
    %tmp1_9 = arith.extf %tmp1_8 : tensor<2048xbf16> to tensor<2048xf32> loc(#loc29)
    %tmp2 = arith.addf %tmp0_6, %tmp1_9 : tensor<2048xf32> loc(#loc30)
    %0 = arith.truncf %tmp2 : tensor<2048xf32> to tensor<2048xbf16> loc(#loc14)
    tt.store %tmp0_4, %0 : tensor<2048x!tt.ptr<bf16>> loc(#loc14)
    tt.return loc(#loc15)
  } loc(#loc)
} loc(#loc)
#loc1 = loc("/home/Shuai/AIAA3201_Project/AIAA-3102-Proj_3/.tmp/torchinductor_Shuai/32/c32i53ejulyfiojkq67sujkzppeggvfhrzfafp3jnopfkq2rgao6.py":28:19)
#loc2 = loc(unknown)
#loc3 = loc("/home/Shuai/AIAA3201_Project/AIAA-3102-Proj_3/.tmp/torchinductor_Shuai/32/c32i53ejulyfiojkq67sujkzppeggvfhrzfafp3jnopfkq2rgao6.py":24:28)
#loc4 = loc("/home/Shuai/AIAA3201_Project/AIAA-3102-Proj_3/.tmp/torchinductor_Shuai/32/c32i53ejulyfiojkq67sujkzppeggvfhrzfafp3jnopfkq2rgao6.py":24:33)
#loc5 = loc("/home/Shuai/AIAA3201_Project/AIAA-3102-Proj_3/.tmp/torchinductor_Shuai/32/c32i53ejulyfiojkq67sujkzppeggvfhrzfafp3jnopfkq2rgao6.py":25:36)
#loc6 = loc("/home/Shuai/AIAA3201_Project/AIAA-3102-Proj_3/.tmp/torchinductor_Shuai/32/c32i53ejulyfiojkq67sujkzppeggvfhrzfafp3jnopfkq2rgao6.py":25:23)
#loc7 = loc("/home/Shuai/AIAA3201_Project/AIAA-3102-Proj_3/.tmp/torchinductor_Shuai/32/c32i53ejulyfiojkq67sujkzppeggvfhrzfafp3jnopfkq2rgao6.py":29:34)
#loc8 = loc("/home/Shuai/AIAA3201_Project/AIAA-3102-Proj_3/.tmp/torchinductor_Shuai/32/c32i53ejulyfiojkq67sujkzppeggvfhrzfafp3jnopfkq2rgao6.py":29:39)
#loc9 = loc("/home/Shuai/AIAA3201_Project/AIAA-3102-Proj_3/.tmp/torchinductor_Shuai/32/c32i53ejulyfiojkq67sujkzppeggvfhrzfafp3jnopfkq2rgao6.py":29:48)
#loc10 = loc("/home/Shuai/AIAA3201_Project/AIAA-3102-Proj_3/.tmp/torchinductor_Shuai/32/c32i53ejulyfiojkq67sujkzppeggvfhrzfafp3jnopfkq2rgao6.py":30:30)
#loc11 = loc("/home/Shuai/AIAA3201_Project/AIAA-3102-Proj_3/.tmp/torchinductor_Shuai/32/c32i53ejulyfiojkq67sujkzppeggvfhrzfafp3jnopfkq2rgao6.py":30:35)
#loc12 = loc("/home/Shuai/AIAA3201_Project/AIAA-3102-Proj_3/.tmp/torchinductor_Shuai/32/c32i53ejulyfiojkq67sujkzppeggvfhrzfafp3jnopfkq2rgao6.py":30:74)
#loc13 = loc("/home/Shuai/AIAA3201_Project/AIAA-3102-Proj_3/.tmp/torchinductor_Shuai/32/c32i53ejulyfiojkq67sujkzppeggvfhrzfafp3jnopfkq2rgao6.py":31:18)
#loc14 = loc("/home/Shuai/AIAA3201_Project/AIAA-3102-Proj_3/.tmp/torchinductor_Shuai/32/c32i53ejulyfiojkq67sujkzppeggvfhrzfafp3jnopfkq2rgao6.py":32:39)
#loc15 = loc("/home/Shuai/AIAA3201_Project/AIAA-3102-Proj_3/.tmp/torchinductor_Shuai/32/c32i53ejulyfiojkq67sujkzppeggvfhrzfafp3jnopfkq2rgao6.py":32:4)
#loc19 = loc("x2"(#loc1))
#loc20 = loc("xoffset"(#loc3))
#loc21 = loc("xoffset"(#loc4))
#loc22 = loc("xindex"(#loc5))
#loc23 = loc("xindex"(#loc6))
#loc24 = loc("tmp0"(#loc7))
#loc25 = loc("tmp0"(#loc8))
#loc26 = loc("tmp0"(#loc9))
#loc27 = loc("tmp1"(#loc10))
#loc28 = loc("tmp1"(#loc11))
#loc29 = loc("tmp1"(#loc12))
#loc30 = loc("tmp2"(#loc13))
