#loc = loc("/home/Shuai/AIAA3201_Project/AIAA-3102-Proj_3/.tmp/torchinductor_Shuai/kh/ckhl4af2gof5xsxungu7r7am7dg5n7nyolpm7doofm2u2ssvxcrd.py":18:0)
#loc19 = loc("in_ptr0"(#loc))
#loc20 = loc("out_ptr1"(#loc))
#loc21 = loc("xnumel"(#loc))
module {
  tt.func public @triton_poi_fused__to_copy_convolution_gelu_38(%in_ptr0: !tt.ptr<f32> {tt.divisibility = 16 : i32} loc("in_ptr0"(#loc)), %out_ptr1: !tt.ptr<bf16> {tt.divisibility = 16 : i32} loc("out_ptr1"(#loc)), %xnumel: i32 {tt.divisibility = 16 : i32} loc("xnumel"(#loc))) attributes {noinline = false} {
    %cst = arith.constant dense<128> : tensor<128xi32> loc(#loc1)
    %cst_0 = arith.constant dense<32> : tensor<128xi32> loc(#loc1)
    %cst_1 = arith.constant dense<4> : tensor<128xi32> loc(#loc1)
    %c128_i32 = arith.constant 128 : i32 loc(#loc1)
    %xoffset = tt.get_program_id x : i32 loc(#loc22)
    %xoffset_2 = arith.muli %xoffset, %c128_i32 : i32 loc(#loc23)
    %xindex = tt.make_range {end = 128 : i32, start = 0 : i32} : tensor<128xi32> loc(#loc24)
    %xindex_3 = tt.splat %xoffset_2 : i32 -> tensor<128xi32> loc(#loc25)
    %xindex_4 = arith.addi %xindex_3, %xindex : tensor<128xi32> loc(#loc25)
    %x1 = arith.remsi %xindex_4, %cst_1 : tensor<128xi32> loc(#loc26)
    %x2 = arith.divsi %xindex_4, %cst_1 : tensor<128xi32> loc(#loc27)
    %x2_5 = arith.remsi %x2, %cst_0 : tensor<128xi32> loc(#loc28)
    %x3 = arith.divsi %xindex_4, %cst : tensor<128xi32> loc(#loc29)
    %tmp0 = tt.splat %in_ptr0 : !tt.ptr<f32> -> tensor<128x!tt.ptr<f32>> loc(#loc30)
    %tmp0_6 = tt.addptr %tmp0, %xindex_4 : tensor<128x!tt.ptr<f32>>, tensor<128xi32> loc(#loc30)
    %tmp0_7 = tt.load %tmp0_6 : tensor<128x!tt.ptr<f32>> loc(#loc31)
    %0 = arith.muli %x1, %cst_0 : tensor<128xi32> loc(#loc12)
    %1 = arith.addi %x2_5, %0 : tensor<128xi32> loc(#loc13)
    %2 = arith.muli %x3, %cst : tensor<128xi32> loc(#loc14)
    %3 = arith.addi %1, %2 : tensor<128xi32> loc(#loc15)
    %4 = tt.splat %out_ptr1 : !tt.ptr<bf16> -> tensor<128x!tt.ptr<bf16>> loc(#loc16)
    %5 = tt.addptr %4, %3 : tensor<128x!tt.ptr<bf16>>, tensor<128xi32> loc(#loc16)
    %6 = arith.truncf %tmp0_7 : tensor<128xf32> to tensor<128xbf16> loc(#loc17)
    tt.store %5, %6 : tensor<128x!tt.ptr<bf16>> loc(#loc17)
    tt.return loc(#loc18)
  } loc(#loc)
} loc(#loc)
#loc1 = loc(unknown)
#loc2 = loc("/home/Shuai/AIAA3201_Project/AIAA-3102-Proj_3/.tmp/torchinductor_Shuai/kh/ckhl4af2gof5xsxungu7r7am7dg5n7nyolpm7doofm2u2ssvxcrd.py":20:28)
#loc3 = loc("/home/Shuai/AIAA3201_Project/AIAA-3102-Proj_3/.tmp/torchinductor_Shuai/kh/ckhl4af2gof5xsxungu7r7am7dg5n7nyolpm7doofm2u2ssvxcrd.py":20:33)
#loc4 = loc("/home/Shuai/AIAA3201_Project/AIAA-3102-Proj_3/.tmp/torchinductor_Shuai/kh/ckhl4af2gof5xsxungu7r7am7dg5n7nyolpm7doofm2u2ssvxcrd.py":21:36)
#loc5 = loc("/home/Shuai/AIAA3201_Project/AIAA-3102-Proj_3/.tmp/torchinductor_Shuai/kh/ckhl4af2gof5xsxungu7r7am7dg5n7nyolpm7doofm2u2ssvxcrd.py":21:23)
#loc6 = loc("/home/Shuai/AIAA3201_Project/AIAA-3102-Proj_3/.tmp/torchinductor_Shuai/kh/ckhl4af2gof5xsxungu7r7am7dg5n7nyolpm7doofm2u2ssvxcrd.py":24:19)
#loc7 = loc("/home/Shuai/AIAA3201_Project/AIAA-3102-Proj_3/.tmp/torchinductor_Shuai/kh/ckhl4af2gof5xsxungu7r7am7dg5n7nyolpm7doofm2u2ssvxcrd.py":25:21)
#loc8 = loc("/home/Shuai/AIAA3201_Project/AIAA-3102-Proj_3/.tmp/torchinductor_Shuai/kh/ckhl4af2gof5xsxungu7r7am7dg5n7nyolpm7doofm2u2ssvxcrd.py":25:26)
#loc9 = loc("/home/Shuai/AIAA3201_Project/AIAA-3102-Proj_3/.tmp/torchinductor_Shuai/kh/ckhl4af2gof5xsxungu7r7am7dg5n7nyolpm7doofm2u2ssvxcrd.py":26:19)
#loc10 = loc("/home/Shuai/AIAA3201_Project/AIAA-3102-Proj_3/.tmp/torchinductor_Shuai/kh/ckhl4af2gof5xsxungu7r7am7dg5n7nyolpm7doofm2u2ssvxcrd.py":27:30)
#loc11 = loc("/home/Shuai/AIAA3201_Project/AIAA-3102-Proj_3/.tmp/torchinductor_Shuai/kh/ckhl4af2gof5xsxungu7r7am7dg5n7nyolpm7doofm2u2ssvxcrd.py":27:35)
#loc12 = loc("/home/Shuai/AIAA3201_Project/AIAA-3102-Proj_3/.tmp/torchinductor_Shuai/kh/ckhl4af2gof5xsxungu7r7am7dg5n7nyolpm7doofm2u2ssvxcrd.py":29:33)
#loc13 = loc("/home/Shuai/AIAA3201_Project/AIAA-3102-Proj_3/.tmp/torchinductor_Shuai/kh/ckhl4af2gof5xsxungu7r7am7dg5n7nyolpm7doofm2u2ssvxcrd.py":29:30)
#loc14 = loc("/home/Shuai/AIAA3201_Project/AIAA-3102-Proj_3/.tmp/torchinductor_Shuai/kh/ckhl4af2gof5xsxungu7r7am7dg5n7nyolpm7doofm2u2ssvxcrd.py":29:42)
#loc15 = loc("/home/Shuai/AIAA3201_Project/AIAA-3102-Proj_3/.tmp/torchinductor_Shuai/kh/ckhl4af2gof5xsxungu7r7am7dg5n7nyolpm7doofm2u2ssvxcrd.py":29:38)
#loc16 = loc("/home/Shuai/AIAA3201_Project/AIAA-3102-Proj_3/.tmp/torchinductor_Shuai/kh/ckhl4af2gof5xsxungu7r7am7dg5n7nyolpm7doofm2u2ssvxcrd.py":29:25)
#loc17 = loc("/home/Shuai/AIAA3201_Project/AIAA-3102-Proj_3/.tmp/torchinductor_Shuai/kh/ckhl4af2gof5xsxungu7r7am7dg5n7nyolpm7doofm2u2ssvxcrd.py":29:53)
#loc18 = loc("/home/Shuai/AIAA3201_Project/AIAA-3102-Proj_3/.tmp/torchinductor_Shuai/kh/ckhl4af2gof5xsxungu7r7am7dg5n7nyolpm7doofm2u2ssvxcrd.py":29:4)
#loc22 = loc("xoffset"(#loc2))
#loc23 = loc("xoffset"(#loc3))
#loc24 = loc("xindex"(#loc4))
#loc25 = loc("xindex"(#loc5))
#loc26 = loc("x1"(#loc6))
#loc27 = loc("x2"(#loc7))
#loc28 = loc("x2"(#loc8))
#loc29 = loc("x3"(#loc9))
#loc30 = loc("tmp0"(#loc10))
#loc31 = loc("tmp0"(#loc11))
