#loc = loc("/home/Shuai/AIAA3201_Project/AIAA-3102-Proj_3/.tmp/torchinductor_Shuai/yq/cyqtp37tt5ru2uavwhdtv5e64zzj35ipxlv7n6jqcipksggaj2m5.py":18:0)
#loc20 = loc("in_ptr0"(#loc))
#loc21 = loc("in_ptr1"(#loc))
#loc22 = loc("in_ptr2"(#loc))
#loc23 = loc("out_ptr0"(#loc))
#loc24 = loc("xnumel"(#loc))
module {
  tt.func public @triton_poi_fused__to_copy_add_mul_permute_view_24(%in_ptr0: !tt.ptr<bf16> {tt.divisibility = 16 : i32} loc("in_ptr0"(#loc)), %in_ptr1: !tt.ptr<f32> {tt.divisibility = 16 : i32} loc("in_ptr1"(#loc)), %in_ptr2: !tt.ptr<bf16> {tt.divisibility = 16 : i32} loc("in_ptr2"(#loc)), %out_ptr0: !tt.ptr<bf16> {tt.divisibility = 16 : i32} loc("out_ptr0"(#loc)), %xnumel: i32 {tt.divisibility = 16 : i32} loc("xnumel"(#loc))) attributes {noinline = false} {
    %x0 = arith.constant dense<256> : tensor<512xi32> loc(#loc25)
    %c512_i32 = arith.constant 512 : i32 loc(#loc2)
    %xoffset = tt.get_program_id x : i32 loc(#loc26)
    %xoffset_0 = arith.muli %xoffset, %c512_i32 : i32 loc(#loc27)
    %xindex = tt.make_range {end = 512 : i32, start = 0 : i32} : tensor<512xi32> loc(#loc28)
    %xindex_1 = tt.splat %xoffset_0 : i32 -> tensor<512xi32> loc(#loc29)
    %xindex_2 = arith.addi %xindex_1, %xindex : tensor<512xi32> loc(#loc29)
    %x0_3 = arith.remsi %xindex_2, %x0 : tensor<512xi32> loc(#loc25)
    %tmp0 = tt.splat %in_ptr0 : !tt.ptr<bf16> -> tensor<512x!tt.ptr<bf16>> loc(#loc30)
    %tmp0_4 = tt.addptr %tmp0, %xindex_2 : tensor<512x!tt.ptr<bf16>>, tensor<512xi32> loc(#loc30)
    %tmp0_5 = tt.load %tmp0_4 : tensor<512x!tt.ptr<bf16>> loc(#loc31)
    %tmp0_6 = arith.extf %tmp0_5 : tensor<512xbf16> to tensor<512xf32> loc(#loc32)
    %tmp2 = tt.splat %in_ptr1 : !tt.ptr<f32> -> tensor<512x!tt.ptr<f32>> loc(#loc33)
    %tmp2_7 = tt.addptr %tmp2, %x0_3 : tensor<512x!tt.ptr<f32>>, tensor<512xi32> loc(#loc33)
    %tmp2_8 = tt.load %tmp2_7 evictionPolicy = evict_last : tensor<512x!tt.ptr<f32>> loc(#loc34)
    %tmp3 = tt.splat %in_ptr2 : !tt.ptr<bf16> -> tensor<512x!tt.ptr<bf16>> loc(#loc35)
    %tmp3_9 = tt.addptr %tmp3, %xindex_2 : tensor<512x!tt.ptr<bf16>>, tensor<512xi32> loc(#loc35)
    %tmp3_10 = tt.load %tmp3_9 : tensor<512x!tt.ptr<bf16>> loc(#loc36)
    %tmp3_11 = arith.extf %tmp3_10 : tensor<512xbf16> to tensor<512xf32> loc(#loc37)
    %tmp5 = arith.mulf %tmp2_8, %tmp3_11 : tensor<512xf32> loc(#loc38)
    %tmp6 = arith.addf %tmp0_6, %tmp5 : tensor<512xf32> loc(#loc39)
    %0 = tt.splat %out_ptr0 : !tt.ptr<bf16> -> tensor<512x!tt.ptr<bf16>> loc(#loc17)
    %1 = tt.addptr %0, %xindex_2 : tensor<512x!tt.ptr<bf16>>, tensor<512xi32> loc(#loc17)
    %2 = arith.truncf %tmp6 : tensor<512xf32> to tensor<512xbf16> loc(#loc18)
    tt.store %1, %2 : tensor<512x!tt.ptr<bf16>> loc(#loc18)
    tt.return loc(#loc19)
  } loc(#loc)
} loc(#loc)
#loc1 = loc("/home/Shuai/AIAA3201_Project/AIAA-3102-Proj_3/.tmp/torchinductor_Shuai/yq/cyqtp37tt5ru2uavwhdtv5e64zzj35ipxlv7n6jqcipksggaj2m5.py":24:19)
#loc2 = loc(unknown)
#loc3 = loc("/home/Shuai/AIAA3201_Project/AIAA-3102-Proj_3/.tmp/torchinductor_Shuai/yq/cyqtp37tt5ru2uavwhdtv5e64zzj35ipxlv7n6jqcipksggaj2m5.py":20:28)
#loc4 = loc("/home/Shuai/AIAA3201_Project/AIAA-3102-Proj_3/.tmp/torchinductor_Shuai/yq/cyqtp37tt5ru2uavwhdtv5e64zzj35ipxlv7n6jqcipksggaj2m5.py":20:33)
#loc5 = loc("/home/Shuai/AIAA3201_Project/AIAA-3102-Proj_3/.tmp/torchinductor_Shuai/yq/cyqtp37tt5ru2uavwhdtv5e64zzj35ipxlv7n6jqcipksggaj2m5.py":21:36)
#loc6 = loc("/home/Shuai/AIAA3201_Project/AIAA-3102-Proj_3/.tmp/torchinductor_Shuai/yq/cyqtp37tt5ru2uavwhdtv5e64zzj35ipxlv7n6jqcipksggaj2m5.py":21:23)
#loc7 = loc("/home/Shuai/AIAA3201_Project/AIAA-3102-Proj_3/.tmp/torchinductor_Shuai/yq/cyqtp37tt5ru2uavwhdtv5e64zzj35ipxlv7n6jqcipksggaj2m5.py":25:30)
#loc8 = loc("/home/Shuai/AIAA3201_Project/AIAA-3102-Proj_3/.tmp/torchinductor_Shuai/yq/cyqtp37tt5ru2uavwhdtv5e64zzj35ipxlv7n6jqcipksggaj2m5.py":25:35)
#loc9 = loc("/home/Shuai/AIAA3201_Project/AIAA-3102-Proj_3/.tmp/torchinductor_Shuai/yq/cyqtp37tt5ru2uavwhdtv5e64zzj35ipxlv7n6jqcipksggaj2m5.py":25:44)
#loc10 = loc("/home/Shuai/AIAA3201_Project/AIAA-3102-Proj_3/.tmp/torchinductor_Shuai/yq/cyqtp37tt5ru2uavwhdtv5e64zzj35ipxlv7n6jqcipksggaj2m5.py":26:30)
#loc11 = loc("/home/Shuai/AIAA3201_Project/AIAA-3102-Proj_3/.tmp/torchinductor_Shuai/yq/cyqtp37tt5ru2uavwhdtv5e64zzj35ipxlv7n6jqcipksggaj2m5.py":26:35)
#loc12 = loc("/home/Shuai/AIAA3201_Project/AIAA-3102-Proj_3/.tmp/torchinductor_Shuai/yq/cyqtp37tt5ru2uavwhdtv5e64zzj35ipxlv7n6jqcipksggaj2m5.py":27:30)
#loc13 = loc("/home/Shuai/AIAA3201_Project/AIAA-3102-Proj_3/.tmp/torchinductor_Shuai/yq/cyqtp37tt5ru2uavwhdtv5e64zzj35ipxlv7n6jqcipksggaj2m5.py":27:35)
#loc14 = loc("/home/Shuai/AIAA3201_Project/AIAA-3102-Proj_3/.tmp/torchinductor_Shuai/yq/cyqtp37tt5ru2uavwhdtv5e64zzj35ipxlv7n6jqcipksggaj2m5.py":27:44)
#loc15 = loc("/home/Shuai/AIAA3201_Project/AIAA-3102-Proj_3/.tmp/torchinductor_Shuai/yq/cyqtp37tt5ru2uavwhdtv5e64zzj35ipxlv7n6jqcipksggaj2m5.py":30:18)
#loc16 = loc("/home/Shuai/AIAA3201_Project/AIAA-3102-Proj_3/.tmp/torchinductor_Shuai/yq/cyqtp37tt5ru2uavwhdtv5e64zzj35ipxlv7n6jqcipksggaj2m5.py":31:18)
#loc17 = loc("/home/Shuai/AIAA3201_Project/AIAA-3102-Proj_3/.tmp/torchinductor_Shuai/yq/cyqtp37tt5ru2uavwhdtv5e64zzj35ipxlv7n6jqcipksggaj2m5.py":33:25)
#loc18 = loc("/home/Shuai/AIAA3201_Project/AIAA-3102-Proj_3/.tmp/torchinductor_Shuai/yq/cyqtp37tt5ru2uavwhdtv5e64zzj35ipxlv7n6jqcipksggaj2m5.py":33:36)
#loc19 = loc("/home/Shuai/AIAA3201_Project/AIAA-3102-Proj_3/.tmp/torchinductor_Shuai/yq/cyqtp37tt5ru2uavwhdtv5e64zzj35ipxlv7n6jqcipksggaj2m5.py":33:4)
#loc25 = loc("x0"(#loc1))
#loc26 = loc("xoffset"(#loc3))
#loc27 = loc("xoffset"(#loc4))
#loc28 = loc("xindex"(#loc5))
#loc29 = loc("xindex"(#loc6))
#loc30 = loc("tmp0"(#loc7))
#loc31 = loc("tmp0"(#loc8))
#loc32 = loc("tmp0"(#loc9))
#loc33 = loc("tmp2"(#loc10))
#loc34 = loc("tmp2"(#loc11))
#loc35 = loc("tmp3"(#loc12))
#loc36 = loc("tmp3"(#loc13))
#loc37 = loc("tmp3"(#loc14))
#loc38 = loc("tmp5"(#loc15))
#loc39 = loc("tmp6"(#loc16))
