#loc = loc("/home/Shuai/AIAA3201_Project/AIAA-3102-Proj_3/.tmp/torchinductor_Shuai/na/cnaycw6begbrnuxymicjlsju37ugsy7rhbputkfted3xubca5t5m.py":18:0)
#loc22 = loc("in_out_ptr0"(#loc))
#loc23 = loc("in_ptr0"(#loc))
#loc24 = loc("ks0"(#loc))
#loc25 = loc("ks1"(#loc))
#loc26 = loc("xnumel"(#loc))
module {
  tt.func public @triton_poi_fused__scaled_dot_product_flash_attention__to_copy_copy_slice_transpose_view_12(%in_out_ptr0: !tt.ptr<bf16> {tt.divisibility = 16 : i32} loc("in_out_ptr0"(#loc)), %in_ptr0: !tt.ptr<f32> {tt.divisibility = 16 : i32} loc("in_ptr0"(#loc)), %ks0: i64 loc("ks0"(#loc)), %ks1: i64 loc("ks1"(#loc)), %xnumel: i32 {tt.divisibility = 16 : i32} loc("xnumel"(#loc))) attributes {noinline = false} {
    %xoffset = tt.get_program_id x : i32 loc(#loc27)
    %xoffset_0 = arith.constant 1024 : i32 loc(#loc28)
    %xoffset_1 = arith.constant 1024 : i32 loc(#loc28)
    %xoffset_2 = arith.muli %xoffset, %xoffset_1 : i32 loc(#loc28)
    %xindex = tt.make_range {end = 1024 : i32, start = 0 : i32} : tensor<1024xi32> loc(#loc29)
    %xindex_3 = tt.splat %xoffset_2 : i32 -> tensor<1024xi32> loc(#loc30)
    %xindex_4 = arith.addi %xindex_3, %xindex : tensor<1024xi32> loc(#loc30)
    %xmask = tt.splat %xnumel : i32 -> tensor<1024xi32> loc(#loc31)
    %xmask_5 = arith.cmpi slt, %xindex_4, %xmask : tensor<1024xi32> loc(#loc31)
    %x1 = arith.constant 256 : i32 loc(#loc32)
    %x1_6 = arith.constant 256 : i32 loc(#loc32)
    %x1_7 = arith.constant dense<256> : tensor<1024xi32> loc(#loc32)
    %x1_8 = arith.divsi %xindex_4, %x1_7 : tensor<1024xi32> loc(#loc32)
    %tmp7 = tt.splat %in_out_ptr0 : !tt.ptr<bf16> -> tensor<1024x!tt.ptr<bf16>> loc(#loc33)
    %tmp7_9 = tt.addptr %tmp7, %xindex_4 : tensor<1024x!tt.ptr<bf16>>, tensor<1024xi32> loc(#loc33)
    %tmp7_10 = tt.load %tmp7_9, %xmask_5 : tensor<1024x!tt.ptr<bf16>> loc(#loc34)
    %tmp7_11 = arith.extf %tmp7_10 : tensor<1024xbf16> to tensor<1024xf32> loc(#loc35)
    %tmp1 = arith.constant -1 : i32 loc(#loc36)
    %tmp1_12 = arith.constant -1 : i64 loc(#loc36)
    %tmp1_13 = arith.muli %tmp1_12, %ks0 : i64 loc(#loc36)
    %tmp1_14 = arith.addi %ks1, %tmp1_13 : i64 loc(#loc37)
    %tmp2 = arith.extsi %x1_8 : tensor<1024xi32> to tensor<1024xi64> loc(#loc38)
    %tmp2_15 = tt.splat %tmp1_14 : i64 -> tensor<1024xi64> loc(#loc38)
    %tmp2_16 = arith.cmpi slt, %tmp2, %tmp2_15 : tensor<1024xi64> loc(#loc38)
    %tmp3 = tt.splat %in_ptr0 : !tt.ptr<f32> -> tensor<1024x!tt.ptr<f32>> loc(#loc39)
    %tmp3_17 = tt.addptr %tmp3, %xindex_4 : tensor<1024x!tt.ptr<f32>>, tensor<1024xi32> loc(#loc39)
    %tmp3_18 = arith.andi %tmp2_16, %xmask_5 : tensor<1024xi1> loc(#loc40)
    %tmp3_19 = arith.constant 0.000000e+00 : f32 loc(#loc41)
    %tmp3_20 = arith.constant dense<0.000000e+00> : tensor<1024xf32> loc(#loc41)
    %tmp3_21 = tt.load %tmp3_17, %tmp3_18, %tmp3_20 : tensor<1024x!tt.ptr<f32>> loc(#loc41)
    %tmp5 = arith.constant 0.000000e+00 : f32 loc(#loc42)
    %tmp5_22 = arith.constant dense<0.000000e+00> : tensor<1024xf32> loc(#loc42)
    %tmp6 = arith.select %tmp2_16, %tmp3_21, %tmp5_22 : tensor<1024xi1>, tensor<1024xf32> loc(#loc43)
    %tmp8 = arith.select %tmp2_16, %tmp6, %tmp7_11 : tensor<1024xi1>, tensor<1024xf32> loc(#loc44)
    %0 = tt.splat %in_out_ptr0 : !tt.ptr<bf16> -> tensor<1024x!tt.ptr<bf16>> loc(#loc19)
    %1 = tt.addptr %0, %xindex_4 : tensor<1024x!tt.ptr<bf16>>, tensor<1024xi32> loc(#loc19)
    %2 = arith.truncf %tmp8 : tensor<1024xf32> to tensor<1024xbf16> loc(#loc20)
    tt.store %1, %2, %xmask_5 : tensor<1024x!tt.ptr<bf16>> loc(#loc20)
    tt.return loc(#loc21)
  } loc(#loc)
} loc(#loc)
#loc1 = loc("/home/Shuai/AIAA3201_Project/AIAA-3102-Proj_3/.tmp/torchinductor_Shuai/na/cnaycw6begbrnuxymicjlsju37ugsy7rhbputkfted3xubca5t5m.py":19:28)
#loc2 = loc("/home/Shuai/AIAA3201_Project/AIAA-3102-Proj_3/.tmp/torchinductor_Shuai/na/cnaycw6begbrnuxymicjlsju37ugsy7rhbputkfted3xubca5t5m.py":19:33)
#loc3 = loc("/home/Shuai/AIAA3201_Project/AIAA-3102-Proj_3/.tmp/torchinductor_Shuai/na/cnaycw6begbrnuxymicjlsju37ugsy7rhbputkfted3xubca5t5m.py":20:36)
#loc4 = loc("/home/Shuai/AIAA3201_Project/AIAA-3102-Proj_3/.tmp/torchinductor_Shuai/na/cnaycw6begbrnuxymicjlsju37ugsy7rhbputkfted3xubca5t5m.py":20:23)
#loc5 = loc("/home/Shuai/AIAA3201_Project/AIAA-3102-Proj_3/.tmp/torchinductor_Shuai/na/cnaycw6begbrnuxymicjlsju37ugsy7rhbputkfted3xubca5t5m.py":21:21)
#loc6 = loc("/home/Shuai/AIAA3201_Project/AIAA-3102-Proj_3/.tmp/torchinductor_Shuai/na/cnaycw6begbrnuxymicjlsju37ugsy7rhbputkfted3xubca5t5m.py":22:19)
#loc7 = loc("/home/Shuai/AIAA3201_Project/AIAA-3102-Proj_3/.tmp/torchinductor_Shuai/na/cnaycw6begbrnuxymicjlsju37ugsy7rhbputkfted3xubca5t5m.py":24:34)
#loc8 = loc("/home/Shuai/AIAA3201_Project/AIAA-3102-Proj_3/.tmp/torchinductor_Shuai/na/cnaycw6begbrnuxymicjlsju37ugsy7rhbputkfted3xubca5t5m.py":24:39)
#loc9 = loc("/home/Shuai/AIAA3201_Project/AIAA-3102-Proj_3/.tmp/torchinductor_Shuai/na/cnaycw6begbrnuxymicjlsju37ugsy7rhbputkfted3xubca5t5m.py":24:49)
#loc10 = loc("/home/Shuai/AIAA3201_Project/AIAA-3102-Proj_3/.tmp/torchinductor_Shuai/na/cnaycw6begbrnuxymicjlsju37ugsy7rhbputkfted3xubca5t5m.py":26:23)
#loc11 = loc("/home/Shuai/AIAA3201_Project/AIAA-3102-Proj_3/.tmp/torchinductor_Shuai/na/cnaycw6begbrnuxymicjlsju37ugsy7rhbputkfted3xubca5t5m.py":26:18)
#loc12 = loc("/home/Shuai/AIAA3201_Project/AIAA-3102-Proj_3/.tmp/torchinductor_Shuai/na/cnaycw6begbrnuxymicjlsju37ugsy7rhbputkfted3xubca5t5m.py":27:18)
#loc13 = loc("/home/Shuai/AIAA3201_Project/AIAA-3102-Proj_3/.tmp/torchinductor_Shuai/na/cnaycw6begbrnuxymicjlsju37ugsy7rhbputkfted3xubca5t5m.py":28:30)
#loc14 = loc("/home/Shuai/AIAA3201_Project/AIAA-3102-Proj_3/.tmp/torchinductor_Shuai/na/cnaycw6begbrnuxymicjlsju37ugsy7rhbputkfted3xubca5t5m.py":28:42)
#loc15 = loc("/home/Shuai/AIAA3201_Project/AIAA-3102-Proj_3/.tmp/torchinductor_Shuai/na/cnaycw6begbrnuxymicjlsju37ugsy7rhbputkfted3xubca5t5m.py":28:35)
#loc16 = loc("/home/Shuai/AIAA3201_Project/AIAA-3102-Proj_3/.tmp/torchinductor_Shuai/na/cnaycw6begbrnuxymicjlsju37ugsy7rhbputkfted3xubca5t5m.py":30:36)
#loc17 = loc("/home/Shuai/AIAA3201_Project/AIAA-3102-Proj_3/.tmp/torchinductor_Shuai/na/cnaycw6begbrnuxymicjlsju37ugsy7rhbputkfted3xubca5t5m.py":31:32)
#loc18 = loc("/home/Shuai/AIAA3201_Project/AIAA-3102-Proj_3/.tmp/torchinductor_Shuai/na/cnaycw6begbrnuxymicjlsju37ugsy7rhbputkfted3xubca5t5m.py":32:32)
#loc19 = loc("/home/Shuai/AIAA3201_Project/AIAA-3102-Proj_3/.tmp/torchinductor_Shuai/na/cnaycw6begbrnuxymicjlsju37ugsy7rhbputkfted3xubca5t5m.py":33:28)
#loc20 = loc("/home/Shuai/AIAA3201_Project/AIAA-3102-Proj_3/.tmp/torchinductor_Shuai/na/cnaycw6begbrnuxymicjlsju37ugsy7rhbputkfted3xubca5t5m.py":33:39)
#loc21 = loc("/home/Shuai/AIAA3201_Project/AIAA-3102-Proj_3/.tmp/torchinductor_Shuai/na/cnaycw6begbrnuxymicjlsju37ugsy7rhbputkfted3xubca5t5m.py":33:4)
#loc27 = loc("xoffset"(#loc1))
#loc28 = loc("xoffset"(#loc2))
#loc29 = loc("xindex"(#loc3))
#loc30 = loc("xindex"(#loc4))
#loc31 = loc("xmask"(#loc5))
#loc32 = loc("x1"(#loc6))
#loc33 = loc("tmp7"(#loc7))
#loc34 = loc("tmp7"(#loc8))
#loc35 = loc("tmp7"(#loc9))
#loc36 = loc("tmp1"(#loc10))
#loc37 = loc("tmp1"(#loc11))
#loc38 = loc("tmp2"(#loc12))
#loc39 = loc("tmp3"(#loc13))
#loc40 = loc("tmp3"(#loc14))
#loc41 = loc("tmp3"(#loc15))
#loc42 = loc("tmp5"(#loc16))
#loc43 = loc("tmp6"(#loc17))
#loc44 = loc("tmp8"(#loc18))
