#loc = loc("/home/Shuai/AIAA3201_Project/AIAA-3102-Proj_3/.tmp/torchinductor_Shuai/pn/cpnd73vr7d4nzollrczi6it73a56agoikw3qe4vs4escpvelfif4.py":18:0)
#loc16 = loc("in_ptr0"(#loc))
#loc17 = loc("in_ptr1"(#loc))
#loc18 = loc("out_ptr0"(#loc))
#loc19 = loc("out_ptr1"(#loc))
#loc20 = loc("xnumel"(#loc))
module {
  tt.func public @triton_poi_fused__to_copy_add_transpose_9(%in_ptr0: !tt.ptr<f32> {tt.divisibility = 16 : i32} loc("in_ptr0"(#loc)), %in_ptr1: !tt.ptr<f32> {tt.divisibility = 16 : i32} loc("in_ptr1"(#loc)), %out_ptr0: !tt.ptr<bf16> {tt.divisibility = 16 : i32} loc("out_ptr0"(#loc)), %out_ptr1: !tt.ptr<bf16> {tt.divisibility = 16 : i32} loc("out_ptr1"(#loc)), %xnumel: i32 {tt.divisibility = 16 : i32} loc("xnumel"(#loc))) attributes {noinline = false} {
    %xoffset = tt.get_program_id x : i32 loc(#loc21)
    %xoffset_0 = arith.constant 512 : i32 loc(#loc22)
    %xoffset_1 = arith.constant 512 : i32 loc(#loc22)
    %xoffset_2 = arith.muli %xoffset, %xoffset_1 : i32 loc(#loc22)
    %xindex = tt.make_range {end = 512 : i32, start = 0 : i32} : tensor<512xi32> loc(#loc23)
    %xindex_3 = tt.splat %xoffset_2 : i32 -> tensor<512xi32> loc(#loc24)
    %xindex_4 = arith.addi %xindex_3, %xindex : tensor<512xi32> loc(#loc24)
    %xmask = tt.splat %xnumel : i32 -> tensor<512xi32> loc(#loc25)
    %xmask_5 = arith.cmpi slt, %xindex_4, %xmask : tensor<512xi32> loc(#loc25)
    %tmp0 = tt.splat %in_ptr0 : !tt.ptr<f32> -> tensor<512x!tt.ptr<f32>> loc(#loc26)
    %tmp0_6 = tt.addptr %tmp0, %xindex_4 : tensor<512x!tt.ptr<f32>>, tensor<512xi32> loc(#loc26)
    %tmp0_7 = tt.load %tmp0_6, %xmask_5 : tensor<512x!tt.ptr<f32>> loc(#loc27)
    %tmp1 = tt.splat %in_ptr1 : !tt.ptr<f32> -> tensor<512x!tt.ptr<f32>> loc(#loc28)
    %tmp1_8 = tt.addptr %tmp1, %xindex_4 : tensor<512x!tt.ptr<f32>>, tensor<512xi32> loc(#loc28)
    %tmp1_9 = tt.load %tmp1_8, %xmask_5 : tensor<512x!tt.ptr<f32>> loc(#loc29)
    %tmp2 = arith.addf %tmp0_7, %tmp1_9 : tensor<512xf32> loc(#loc30)
    %0 = tt.splat %out_ptr0 : !tt.ptr<bf16> -> tensor<512x!tt.ptr<bf16>> loc(#loc11)
    %1 = tt.addptr %0, %xindex_4 : tensor<512x!tt.ptr<bf16>>, tensor<512xi32> loc(#loc11)
    %2 = arith.truncf %tmp2 : tensor<512xf32> to tensor<512xbf16> loc(#loc12)
    tt.store %1, %2, %xmask_5 : tensor<512x!tt.ptr<bf16>> loc(#loc12)
    %3 = tt.splat %out_ptr1 : !tt.ptr<bf16> -> tensor<512x!tt.ptr<bf16>> loc(#loc13)
    %4 = tt.addptr %3, %xindex_4 : tensor<512x!tt.ptr<bf16>>, tensor<512xi32> loc(#loc13)
    %5 = arith.truncf %tmp0_7 : tensor<512xf32> to tensor<512xbf16> loc(#loc14)
    tt.store %4, %5, %xmask_5 : tensor<512x!tt.ptr<bf16>> loc(#loc14)
    tt.return loc(#loc15)
  } loc(#loc)
} loc(#loc)
#loc1 = loc("/home/Shuai/AIAA3201_Project/AIAA-3102-Proj_3/.tmp/torchinductor_Shuai/pn/cpnd73vr7d4nzollrczi6it73a56agoikw3qe4vs4escpvelfif4.py":19:28)
#loc2 = loc("/home/Shuai/AIAA3201_Project/AIAA-3102-Proj_3/.tmp/torchinductor_Shuai/pn/cpnd73vr7d4nzollrczi6it73a56agoikw3qe4vs4escpvelfif4.py":19:33)
#loc3 = loc("/home/Shuai/AIAA3201_Project/AIAA-3102-Proj_3/.tmp/torchinductor_Shuai/pn/cpnd73vr7d4nzollrczi6it73a56agoikw3qe4vs4escpvelfif4.py":20:36)
#loc4 = loc("/home/Shuai/AIAA3201_Project/AIAA-3102-Proj_3/.tmp/torchinductor_Shuai/pn/cpnd73vr7d4nzollrczi6it73a56agoikw3qe4vs4escpvelfif4.py":20:23)
#loc5 = loc("/home/Shuai/AIAA3201_Project/AIAA-3102-Proj_3/.tmp/torchinductor_Shuai/pn/cpnd73vr7d4nzollrczi6it73a56agoikw3qe4vs4escpvelfif4.py":21:21)
#loc6 = loc("/home/Shuai/AIAA3201_Project/AIAA-3102-Proj_3/.tmp/torchinductor_Shuai/pn/cpnd73vr7d4nzollrczi6it73a56agoikw3qe4vs4escpvelfif4.py":23:30)
#loc7 = loc("/home/Shuai/AIAA3201_Project/AIAA-3102-Proj_3/.tmp/torchinductor_Shuai/pn/cpnd73vr7d4nzollrczi6it73a56agoikw3qe4vs4escpvelfif4.py":23:35)
#loc8 = loc("/home/Shuai/AIAA3201_Project/AIAA-3102-Proj_3/.tmp/torchinductor_Shuai/pn/cpnd73vr7d4nzollrczi6it73a56agoikw3qe4vs4escpvelfif4.py":24:30)
#loc9 = loc("/home/Shuai/AIAA3201_Project/AIAA-3102-Proj_3/.tmp/torchinductor_Shuai/pn/cpnd73vr7d4nzollrczi6it73a56agoikw3qe4vs4escpvelfif4.py":24:35)
#loc10 = loc("/home/Shuai/AIAA3201_Project/AIAA-3102-Proj_3/.tmp/torchinductor_Shuai/pn/cpnd73vr7d4nzollrczi6it73a56agoikw3qe4vs4escpvelfif4.py":25:18)
#loc11 = loc("/home/Shuai/AIAA3201_Project/AIAA-3102-Proj_3/.tmp/torchinductor_Shuai/pn/cpnd73vr7d4nzollrczi6it73a56agoikw3qe4vs4escpvelfif4.py":28:25)
#loc12 = loc("/home/Shuai/AIAA3201_Project/AIAA-3102-Proj_3/.tmp/torchinductor_Shuai/pn/cpnd73vr7d4nzollrczi6it73a56agoikw3qe4vs4escpvelfif4.py":28:36)
#loc13 = loc("/home/Shuai/AIAA3201_Project/AIAA-3102-Proj_3/.tmp/torchinductor_Shuai/pn/cpnd73vr7d4nzollrczi6it73a56agoikw3qe4vs4escpvelfif4.py":29:25)
#loc14 = loc("/home/Shuai/AIAA3201_Project/AIAA-3102-Proj_3/.tmp/torchinductor_Shuai/pn/cpnd73vr7d4nzollrczi6it73a56agoikw3qe4vs4escpvelfif4.py":29:36)
#loc15 = loc("/home/Shuai/AIAA3201_Project/AIAA-3102-Proj_3/.tmp/torchinductor_Shuai/pn/cpnd73vr7d4nzollrczi6it73a56agoikw3qe4vs4escpvelfif4.py":29:4)
#loc21 = loc("xoffset"(#loc1))
#loc22 = loc("xoffset"(#loc2))
#loc23 = loc("xindex"(#loc3))
#loc24 = loc("xindex"(#loc4))
#loc25 = loc("xmask"(#loc5))
#loc26 = loc("tmp0"(#loc6))
#loc27 = loc("tmp0"(#loc7))
#loc28 = loc("tmp1"(#loc8))
#loc29 = loc("tmp1"(#loc9))
#loc30 = loc("tmp2"(#loc10))
