#loc = loc("/home/Shuai/AIAA3201_Project/AIAA-3102-Proj_3/.tmp/torchinductor_Shuai/hl/chlqu24f3otcvbchv74d6k6pzdx6265b6ik3cttd2repjwi7orlo.py":18:0)
#loc23 = loc("in_ptr0"(#loc))
#loc24 = loc("out_ptr0"(#loc))
#loc25 = loc("xnumel"(#loc))
module {
  tt.func public @triton_poi_fused__to_copy__unsafe_view_clone_permute_view_74(%in_ptr0: !tt.ptr<f32> {tt.divisibility = 16 : i32} loc("in_ptr0"(#loc)), %out_ptr0: !tt.ptr<bf16> {tt.divisibility = 16 : i32} loc("out_ptr0"(#loc)), %xnumel: i32 {tt.divisibility = 16 : i32} loc("xnumel"(#loc))) attributes {noinline = false} {
    %tmp0 = arith.constant dense<589824> : tensor<512xi32> loc(#loc26)
    %tmp0_0 = arith.constant dense<36864> : tensor<512xi32> loc(#loc27)
    %cst = arith.constant dense<4> : tensor<512xi32> loc(#loc3)
    %x2 = arith.constant dense<147456> : tensor<512xi32> loc(#loc28)
    %x1 = arith.constant dense<16> : tensor<512xi32> loc(#loc29)
    %cst_1 = arith.constant dense<9216> : tensor<512xi32> loc(#loc3)
    %c512_i32 = arith.constant 512 : i32 loc(#loc3)
    %xoffset = tt.get_program_id x : i32 loc(#loc30)
    %xoffset_2 = arith.muli %xoffset, %c512_i32 : i32 loc(#loc31)
    %xindex = tt.make_range {end = 512 : i32, start = 0 : i32} : tensor<512xi32> loc(#loc32)
    %xindex_3 = tt.splat %xoffset_2 : i32 -> tensor<512xi32> loc(#loc33)
    %xindex_4 = arith.addi %xindex_3, %xindex : tensor<512xi32> loc(#loc33)
    %x0 = arith.remsi %xindex_4, %cst_1 : tensor<512xi32> loc(#loc34)
    %x1_5 = arith.divsi %xindex_4, %cst_1 : tensor<512xi32> loc(#loc35)
    %x1_6 = arith.remsi %x1_5, %x1 : tensor<512xi32> loc(#loc29)
    %x2_7 = arith.divsi %xindex_4, %x2 : tensor<512xi32> loc(#loc28)
    %tmp0_8 = arith.remsi %x2_7, %cst : tensor<512xi32> loc(#loc36)
    %tmp0_9 = arith.muli %tmp0_8, %cst_1 : tensor<512xi32> loc(#loc37)
    %tmp0_10 = arith.addi %x0, %tmp0_9 : tensor<512xi32> loc(#loc38)
    %tmp0_11 = arith.muli %x1_6, %tmp0_0 : tensor<512xi32> loc(#loc27)
    %tmp0_12 = arith.addi %tmp0_10, %tmp0_11 : tensor<512xi32> loc(#loc39)
    %tmp0_13 = arith.divsi %x2_7, %cst : tensor<512xi32> loc(#loc40)
    %tmp0_14 = arith.muli %tmp0_13, %tmp0 : tensor<512xi32> loc(#loc26)
    %tmp0_15 = arith.addi %tmp0_12, %tmp0_14 : tensor<512xi32> loc(#loc41)
    %tmp0_16 = tt.splat %in_ptr0 : !tt.ptr<f32> -> tensor<512x!tt.ptr<f32>> loc(#loc42)
    %tmp0_17 = tt.addptr %tmp0_16, %tmp0_15 : tensor<512x!tt.ptr<f32>>, tensor<512xi32> loc(#loc42)
    %tmp0_18 = tt.load %tmp0_17 : tensor<512x!tt.ptr<f32>> loc(#loc43)
    %0 = tt.splat %out_ptr0 : !tt.ptr<bf16> -> tensor<512x!tt.ptr<bf16>> loc(#loc20)
    %1 = tt.addptr %0, %xindex_4 : tensor<512x!tt.ptr<bf16>>, tensor<512xi32> loc(#loc20)
    %2 = arith.truncf %tmp0_18 : tensor<512xf32> to tensor<512xbf16> loc(#loc21)
    tt.store %1, %2 : tensor<512x!tt.ptr<bf16>> loc(#loc21)
    tt.return loc(#loc22)
  } loc(#loc)
} loc(#loc)
#loc1 = loc("/home/Shuai/AIAA3201_Project/AIAA-3102-Proj_3/.tmp/torchinductor_Shuai/hl/chlqu24f3otcvbchv74d6k6pzdx6265b6ik3cttd2repjwi7orlo.py":27:72)
#loc2 = loc("/home/Shuai/AIAA3201_Project/AIAA-3102-Proj_3/.tmp/torchinductor_Shuai/hl/chlqu24f3otcvbchv74d6k6pzdx6265b6ik3cttd2repjwi7orlo.py":27:59)
#loc3 = loc(unknown)
#loc4 = loc("/home/Shuai/AIAA3201_Project/AIAA-3102-Proj_3/.tmp/torchinductor_Shuai/hl/chlqu24f3otcvbchv74d6k6pzdx6265b6ik3cttd2repjwi7orlo.py":25:19)
#loc5 = loc("/home/Shuai/AIAA3201_Project/AIAA-3102-Proj_3/.tmp/torchinductor_Shuai/hl/chlqu24f3otcvbchv74d6k6pzdx6265b6ik3cttd2repjwi7orlo.py":24:29)
#loc6 = loc("/home/Shuai/AIAA3201_Project/AIAA-3102-Proj_3/.tmp/torchinductor_Shuai/hl/chlqu24f3otcvbchv74d6k6pzdx6265b6ik3cttd2repjwi7orlo.py":20:28)
#loc7 = loc("/home/Shuai/AIAA3201_Project/AIAA-3102-Proj_3/.tmp/torchinductor_Shuai/hl/chlqu24f3otcvbchv74d6k6pzdx6265b6ik3cttd2repjwi7orlo.py":20:33)
#loc8 = loc("/home/Shuai/AIAA3201_Project/AIAA-3102-Proj_3/.tmp/torchinductor_Shuai/hl/chlqu24f3otcvbchv74d6k6pzdx6265b6ik3cttd2repjwi7orlo.py":21:36)
#loc9 = loc("/home/Shuai/AIAA3201_Project/AIAA-3102-Proj_3/.tmp/torchinductor_Shuai/hl/chlqu24f3otcvbchv74d6k6pzdx6265b6ik3cttd2repjwi7orlo.py":21:23)
#loc10 = loc("/home/Shuai/AIAA3201_Project/AIAA-3102-Proj_3/.tmp/torchinductor_Shuai/hl/chlqu24f3otcvbchv74d6k6pzdx6265b6ik3cttd2repjwi7orlo.py":23:19)
#loc11 = loc("/home/Shuai/AIAA3201_Project/AIAA-3102-Proj_3/.tmp/torchinductor_Shuai/hl/chlqu24f3otcvbchv74d6k6pzdx6265b6ik3cttd2repjwi7orlo.py":24:21)
#loc12 = loc("/home/Shuai/AIAA3201_Project/AIAA-3102-Proj_3/.tmp/torchinductor_Shuai/hl/chlqu24f3otcvbchv74d6k6pzdx6265b6ik3cttd2repjwi7orlo.py":27:47)
#loc13 = loc("/home/Shuai/AIAA3201_Project/AIAA-3102-Proj_3/.tmp/torchinductor_Shuai/hl/chlqu24f3otcvbchv74d6k6pzdx6265b6ik3cttd2repjwi7orlo.py":27:42)
#loc14 = loc("/home/Shuai/AIAA3201_Project/AIAA-3102-Proj_3/.tmp/torchinductor_Shuai/hl/chlqu24f3otcvbchv74d6k6pzdx6265b6ik3cttd2repjwi7orlo.py":27:35)
#loc15 = loc("/home/Shuai/AIAA3201_Project/AIAA-3102-Proj_3/.tmp/torchinductor_Shuai/hl/chlqu24f3otcvbchv74d6k6pzdx6265b6ik3cttd2repjwi7orlo.py":27:53)
#loc16 = loc("/home/Shuai/AIAA3201_Project/AIAA-3102-Proj_3/.tmp/torchinductor_Shuai/hl/chlqu24f3otcvbchv74d6k6pzdx6265b6ik3cttd2repjwi7orlo.py":27:78)
#loc17 = loc("/home/Shuai/AIAA3201_Project/AIAA-3102-Proj_3/.tmp/torchinductor_Shuai/hl/chlqu24f3otcvbchv74d6k6pzdx6265b6ik3cttd2repjwi7orlo.py":27:64)
#loc18 = loc("/home/Shuai/AIAA3201_Project/AIAA-3102-Proj_3/.tmp/torchinductor_Shuai/hl/chlqu24f3otcvbchv74d6k6pzdx6265b6ik3cttd2repjwi7orlo.py":27:30)
#loc19 = loc("/home/Shuai/AIAA3201_Project/AIAA-3102-Proj_3/.tmp/torchinductor_Shuai/hl/chlqu24f3otcvbchv74d6k6pzdx6265b6ik3cttd2repjwi7orlo.py":27:83)
#loc20 = loc("/home/Shuai/AIAA3201_Project/AIAA-3102-Proj_3/.tmp/torchinductor_Shuai/hl/chlqu24f3otcvbchv74d6k6pzdx6265b6ik3cttd2repjwi7orlo.py":29:25)
#loc21 = loc("/home/Shuai/AIAA3201_Project/AIAA-3102-Proj_3/.tmp/torchinductor_Shuai/hl/chlqu24f3otcvbchv74d6k6pzdx6265b6ik3cttd2repjwi7orlo.py":29:36)
#loc22 = loc("/home/Shuai/AIAA3201_Project/AIAA-3102-Proj_3/.tmp/torchinductor_Shuai/hl/chlqu24f3otcvbchv74d6k6pzdx6265b6ik3cttd2repjwi7orlo.py":29:4)
#loc26 = loc("tmp0"(#loc1))
#loc27 = loc("tmp0"(#loc2))
#loc28 = loc("x2"(#loc4))
#loc29 = loc("x1"(#loc5))
#loc30 = loc("xoffset"(#loc6))
#loc31 = loc("xoffset"(#loc7))
#loc32 = loc("xindex"(#loc8))
#loc33 = loc("xindex"(#loc9))
#loc34 = loc("x0"(#loc10))
#loc35 = loc("x1"(#loc11))
#loc36 = loc("tmp0"(#loc12))
#loc37 = loc("tmp0"(#loc13))
#loc38 = loc("tmp0"(#loc14))
#loc39 = loc("tmp0"(#loc15))
#loc40 = loc("tmp0"(#loc16))
#loc41 = loc("tmp0"(#loc17))
#loc42 = loc("tmp0"(#loc18))
#loc43 = loc("tmp0"(#loc19))
